milestone2/models/weights/model_8.pth (torch, 59981 bytes, 6 tensors)

linear1.weight f4 [50, 13]
-0.3422799 0.13474308 0.3018679 -0.22104919 -0.08190398 -0.2437839 -0.029150076 -0.22988752
-0.098076314 0.10321818 -0.06834779 -0.27234384 -2.0131469 -0.029475927 0.15354717 -0.03222373
-0.15023807 -0.108186856 0.03206726 0.2603591 -0.21190709 0.10393794 -0.23957977 -0.27123234
-0.024211286 -0.21529827 0.4495989 0.12215115 -0.16312723 -0.14743832 0.10945764 0.031876307
-0.22572069 -0.0027582208 0.5262995 -0.12295502 -0.46423024 0.078827865 1.0580975 0.5164106
0.14041272 -0.005078505 -0.19299462 0.30637252 -0.22602296 -0.16838516 -0.21828987 0.87338996
-0.046931494 -0.3599992 -0.05480595 -0.09647012 -0.07607195 0.29974604 0.005180144 -0.11099715
-0.28696683 -0.041182417 -0.17086942 0.024526682 0.2517485 0.29411834 -0.70618856 -0.11216831
0.4935988 0.2952607 -0.6944494 0.2754453 0.42475 0.3255453 0.2775413 -0.0355017
0.29232317 0.53569657 -0.11706213 -0.0032454424 -0.016856795 0.48990247 -0.34892055 0.5934148
-0.2802157 -0.33351207 -0.124380894 -0.5340803 0.03146654 -0.15060894 0.146237 0.31834456
-0.90910715 -0.033336848 -0.6075564 0.359127 0.031371105 0.09935304 0.017285645 -0.2159901
-0.10616463 0.01456429 0.18418339 0.67010456 0.049987342 -0.5720442 -0.48467445 0.6083672
-0.045822173 -0.23407714 0.09635479 -0.28923154 0.05745083 -0.040792305 0.039161704 -0.24882545
0.36731267 0.26668444 -0.4757165 -0.05899955 1.0991547 -0.52839744 -0.33726454 0.28011987
-0.09234886 -0.3583593 0.14332281 -0.07333797 -0.05807451 -1.1231873 -0.02574269 0.96094435
0.066947475 -1.6370414 0.30180976 0.05513822 -0.3085346 -0.28004766 -0.218728 -0.37294054
0.11213484 -0.3746656 -0.020327708 0.14180195 -0.23741764 0.074188165 1.502203 -0.01945412
0.77036464 -0.24532706 0.42718226 0.1270627 0.39612857 0.5241775 0.7422218 0.13054708
-0.38505217 0.8102172 0.15348178 1.6551543 0.23536828 0.38675562 -0.23932439 -0.07746602
-0.45172876 -0.068915114 0.008870197 -0.22521584 0.056289952 0.28840172 -0.6832589 -0.29821268
-0.55756724 0.4234775 0.20378737 0.22734584 0.042554908 -0.09130511 -0.12635712 0.07056209
0.26113352 0.74702525 -0.16423847 -0.52263343 -0.040013094 -0.15994678 -0.15155086 0.19690107
-0.11253734 -0.21621333 0.026131185 -0.17302316 0.026519211 -0.031603336 0.32668266 0.02600146
-0.28593794 -0.072203316 -0.32338428 0.11800993 0.60029846 -0.20726494 0.22350061 0.34595463
0.16897224 0.03670258 0.12484186 0.8215572 -0.101313226 -0.6201437 -0.0017235038 0.1522837
0.23240335 0.48995602 -0.10856242 0.09519392 -0.039551087 -0.3014342 -0.20933744 0.12047016
0.08564023 0.12371647 -0.77347744 -0.1724521 0.50088334 -0.09498059 0.041871015 -0.20064227
-0.32117435 0.04941787 0.14547303 -0.23497947 -0.23447865 0.12525797 0.106236376 -0.19536921
-0.02430752 0.75124466 0.1427632 0.43372044 -0.17498115 -0.35881776 -0.2999661 -0.24787895
-0.035761505 -0.44994685 -0.31305677 0.020809654 0.30092657 0.069545545 -1.8491464 -0.017597908
-0.7087557 -0.21723333 -0.06442356 0.017828729 0.025901828 0.14149016 0.13280664 0.59334415
00000000: 503f afbe 17fa 093e 6e8e 9a3e b85a 62be
00000010: 46bd a7bd 7da2 79be 24cc eebc a267 6bbe
00000020: 3cdc c8bd 0e64 d33d edf9 8bbd a770 8bbe
00000030: 66d7 00c0 8077 f1bc 783b 1d3e 08fd 03bd
00000040: 02d8 19be 1291 ddbd f658 033d ca4d 853e
00000050: 2cfe 58be 6add d43d 6654 75be f7de 8abe
00000060: bf56 c6bc 2677 5cbe d431 e63e 622a fa3d
00000070: d30a 27be 12fa 16be 542b e03d bb90 023d
00000080: 5323 67be 44c3 34bb 90bb 063f d7cf fbbd
00000090: 96af edbe 8170 a13d bd6f 873f 7c33 043f
000000a0: 5ac8 0f3e 9669 a6bb 62a0 45be dcdc 9c3e
000000b0: 9072 67be 296d 2cbe 6187 5fbe 7c96 5f3f
000000c0: 3d3b 40bd d151 b8be 347c 60bd 2092 c5bd
000000d0: 9ccb 9bbd 5078 993e 33be a93b 7952 e3bd
000000e0: 51ed 92be e5ae 28bd 65f8 2ebe 2eec c83c
000000f0: 2ee5 803e ae96 963e c6c8 34bf 80b8 e5bd
00000100: fbb8 fc3e 692c 973e 70c7 31bf 2b07 8d3e
00000110: d578 d93e e0ad a63e e519 8e3e 3b6a 11bd
00000120: 62ab 953e 6923 093f 45be efbd 7db1 54bb
00000130: 4317 8abc 7fd4 fa3e b7a5 b2be 08ea 173f
00000140: 6f78 8fbe 18c2 aabe 69bb febd 7db9 08bf
00000150: 0fe3 003d 3b39 1abe 27bf 153e 0ffe a23e
00000160: 3fbb 68bf 388c 08bd d188 1bbf 7fdf b73e
00000170: fd7e 003d 9b79 cb3d a09a 8d3c 822c 5dbe
00000180: d76c d9bd 0f9f 6e3c 929a 3c3e f98b 2b3f
00000190: 87bf 4c3d 7d71 12bf 4027 f8be f4bd 1b3f
000001a0: 08b0 3bbd ebb1 6fbe a955 c53d 2816 94be
000001b0: 9051 6b3d d515 27bd 0668 203d 19cc 7ebe
000001c0: 6810 bc3e dd8a 883e 1d91 f3be 83a9 71bd
000001d0: 1ab1 8c3f 0e45 07bf f0ad acbe df6b 8f3e
000001e0: 6621 bdbd df7a b7be 37c3 123e 3832 96bd
000001f0: 8adf 6dbd 9ac4 8fbf 55e2 d2bc 7300 763f
00000200: c21b 893d 938a d1bf cf86 9a3e 9dd8 613d
00000210: 3ff8 9dbe 6862 8fbe 3cfa 5fbe 10f2 bebe
00000220: f3a6 e53d 2bd4 bfbe 4b86 a6bc 8834 113e
00000230: 9c1d 73be f7ef 973d 3048 c03f 3f5e 9fbc
00000240: 9e36 453f 0437 7bbe a2b7 da3e b91c 023e
00000250: 5dd1 ca3e 7f30 063f 3f02 3e3f 22ae 053e
00000260: 8f25 c5be 656a 4f3f 542a 1d3e 19dc d33f
00000270: 6204 713e d504 c63e 7411 75be 81a6 9ebd
00000280: fe48 e7be 5e23 8dbd 4e54 113c fb9e 66be
00000290: 4b90 663d 64a9 933e 0eea 2ebf 55af 98be
000002a0: babc 0ebf 0bd2 d83e a3ad 503e 59cd 683e
000002b0: 0e4e 2e3d 2cfe babd c363 01be db82 903d
000002c0: 4bb3 853e 0c3d 3f3f 212e 28be 4ecb 05bf
000002d0: c5e4 23bd 17c9 23be 2630 1bbe 6fa0 493e
000002e0: fa79 e6bd 0767 5dbe 1111 d63c fc2c 31be
000002f0: d13e d93c 8072 01bd f342 a73e 0401 d53c
00000300: 7566 92be 55df 93bd a092 a5be 31af f13d
00000310: 29ad 193f 433d 54be 58dd 643e f720 b13e
00000320: 0f07 2d3e 7255 163d 17ad ff3d 9351 523f
00000330: 4f7d cfbd bdc1 1ebf 31e7 e1ba 42f0 1b3e
00000340: 25fb 6d3e 84db fa3e f955 debd 08f5 c23d
00000350: 5200 22bd 9555 9abe 8e5c 56be 0fb9 f63d
00000360: 2564 af3d 105f fd3d 9e02 46bf 4997 30be
00000370: e439 003f 2f85 c2bd f180 2b3d 2b75 4dbe
00000380: f770 a4be 646a 4a3d e2f6 143e 759e 70be
00000390: 2c1b 70be a043 003e 7592 d93d de0e 48be
000003a0: 9020 c7bc 9251 403f 8430 123e 9b10 de3e
000003b0: 422e 33be f6b6 b7be 2895 99be fbd3 7dbe
000003c0: a87a 12bd 6f5f e6be fa48 a0be 0279 aa3c
000003d0: 0c13 9a3e e56d 8e3d d4b0 ecbf 7d29 90bc
000003e0: 0371 35bf 6a72 5ebe 80f0 83bd 8e0d 923c
000003f0: 1230 d43c cce2 103e 77fe 073e 67e5 173f

linear1.bias f4 [50]
-0.25803843 -0.03131376 -0.21639603 0.21277204 -0.12908226 -0.104070805 -0.29428485 0.25128344
-0.2521482 0.10474473 0.05858621 0.20090301 -0.01218776 -0.06497059 -0.38162455 -0.1452583
-0.15856944 0.08469839 -0.3194137 0.3505496 0.36898607 0.17149669 -0.10691845 0.105612904
-0.3000784 0.38582408 0.14993499 -0.23178956 0.07831936 -0.0548445 0.09622889 -0.46655068
-0.0009880135 -0.11646205 0.34489956 -0.29189843 -0.29627532 -0.30561897 -0.1768198 0.08845224
0.24703923 -0.1953502 -0.19180037 -0.010977884 -0.20487909 -0.078687415 0.1597745 0.17290531
-0.2505823 0.22244549
00000000: 9d1d 84be db42 00bd ec96 5dbe eae0 593e
00000010: 242e 04be 1323 d5bd 81ac 96be 39a8 803e
00000020: 9219 81be 6884 d63d 18f8 6f3d 85b9 4d3e
00000030: 2caf 47bc 4d0f 85bd 4b64 c3be 97be 14be
00000040: 0760 22be 5976 ad3d 318a a3be 3d7b b33e
00000050: beeb bc3e d49c 2f3e 0ff8 dabd 944b d83d
00000060: e0a3 99be bc8a c53e 8f88 193e 3e5a 6dbe
00000070: e765 a03d a0a4 60bd a713 c53d bbdf eebe
00000080: 3b80 81ba a883 eebd ad96 b03e b673 95be
00000090: 66b1 97be 177a 9cbe 4010 35be 7326 b53d
000000a0: daf7 7c3e e209 48be 5167 44be 95dc 33bc
000000b0: d3cb 51be de26 a1bd ed9b 233e 170e 313e
000000c0: 534c 80be c0c8 633e

linear2.weight f4 [250, 50]
-0.63024014 -0.045209598 -0.086504444 0.21597184 -0.15503907 0.0016504497 0.034196623 0.69686204
-0.14408717 -0.13619173 0.095724754 0.30557424 0.5183161 -0.017707635 0.026461476 -0.15148845
0.3159948 -0.064110756 0.014345307 0.2557753 0.3375063 -0.14857621 -0.07789496 -0.005022775
-0.10628013 0.17023985 -0.12790923 0.12020221 0.8859218 0.04630796 -0.012181885 -0.21395375
0.065521345 -0.15333593 0.086880885 -0.021839248 0.06897836 -0.13029563 -0.056911305 0.06530472
0.16965316 0.015374765 -0.29405954 -0.23462531 -0.20020777 -0.32441044 0.15985279 0.10702557
0.030204719 0.47177818 -0.08877963 -0.13391434 -0.05729288 0.1828328 -0.13973457 -0.39549744
0.4063177 0.19698651 -0.16682708 -0.1884684 -0.10292667 0.11808524 0.044201322 0.11788137
0.20515889 0.15761301 -0.009828265 -0.060452178 0.010247453 0.061280727 0.17071798 0.21132194
0.15197629 -0.092302665 -0.14196828 0.047321156 0.05519091 0.50942755 0.057029024 -0.20815279
0.31795993 -0.12612125 -0.010272262 -0.21260148 0.05429446 0.050528977 0.42729777 -0.05215141
-0.17149729 -0.013268153 0.49295864 -0.13780364 -0.00045279122 -0.003043014 -0.011107103 -0.16119938
-0.028135363 -0.09220016 0.07631036 -0.13661404 0.1553759 0.009539037 0.045697838 0.41682398
0.15987214 -0.023611246 0.64776874 0.064332135 -0.0119248815 -0.21375482 0.03792528 0.371916
0.2952462 -0.18366952 0.10502643 0.35589954 0.6728967 0.11286559 -0.03970015 -0.06473678
0.2910867 -0.5524763 -0.029382572 0.03341942 -0.045177966 0.47103477 -0.6577019 0.30274007
0.45775014 0.38395786 -0.094004266 -0.16984324 0.6739299 -0.094973184 -0.02295415 0.018652791
0.10177584 -0.018321222 0.060961574 0.16854012 -0.17372783 -0.15226027 -0.1142793 -0.1427087
-0.2512571 0.09550795 0.06328003 -0.10897955 -0.13842046 0.4195432 -0.29463318 0.113365844
-0.11499626 -0.45417595 0.056558527 0.2722428 -0.08140208 -0.035951912 0.2535787 0.014426443
-0.04218739 0.26162595 0.13832605 0.12198509 -0.6456619 -0.12772849 0.20125104 -0.07456742
-0.19859919 0.13349408 0.0683745 -0.30601496 0.04800375 -0.014016593 -0.12023893 -0.6671111
-0.51775116 -0.6532802 -0.38008955 -0.35606036 -0.20051363 0.048928514 -0.51142085 -0.13736123
0.19952811 -0.122041054 -0.122354984 0.035450365 0.05006776 0.10961602 0.075223036 -0.0829499
0.03343925 -0.14079809 -0.115449004 -0.0170221 -0.124269836 -0.09116723 0.20512766 0.2327518
0.13006851 0.037362676 -0.24174659 0.13944855 -0.07822334 -0.035707694 0.10452564 0.086415455
-0.15258299 -0.09304953 -0.23912162 -0.47777998 -0.03633703 -0.20073617 -0.7317933 -0.5418851
-0.15257995 -0.14137585 -0.37065765 0.10054377 0.085667856 -0.07254054 -0.49310434 0.09503137
0.08936847 -0.024803132 0.1719958 -0.26112065 0.39533997 0.061638985 -0.019743955 -0.1079053
0.17536214 -0.3307223 0.01648322 -0.13387875 -1.5994582 -0.13254839 0.057246003 0.14528313
-0.34474564 -0.83672094 -0.40700018 -0.18702967 -0.2718102 0.09669789 -0.032947727 0.004849501
-0.032435317 -0.118569605 0.6899513 -0.1255785 -0.27762777 -0.021375153 -0.04206195 -0.17292541
00000000: 6b57 21bf b32d 39bd 3e29 b1bd b927 5d3e
00000010: 90c2 1ebe e753 d83a c211 0c3d 8d65 323f
00000020: 968b 13be d875 0bbe 570b c43d 3a74 9c3e
00000030: 5db0 043f 9a0f 91bc bdc5 d83c ca1f 1bbe
00000040: 12ca a13e 804c 83bd 9408 6b3c fbf4 823e
00000050: a0cd ac3e 5d24 18be 6587 9fbd 1796 a4bb
00000060: 66a9 d9bd 5b53 2e3e a3fa 02be 942c f63d
00000070: c5cb 623f 6aad 3d3d 8796 47bc b116 5bbe
00000080: 0e30 863d 1804 1dbe 9bee b13d 39e8 b2bc
00000090: 8744 8d3d 386c 05be d41b 69bd 7bbe 853d
000000a0: 8fb9 2d3e 70e6 7b3c f98e 96be 9e41 70be
000000b0: 4403 4dbe 2019 a6be 73b0 233e 3930 db3d
000000c0: e36f f73c e98c f13e 18d2 b5bd d720 09be
000000d0: f0ab 6abd 8638 3b3e 9416 0fbe a47e cabe
000000e0: e008 d03e d5b6 493e b8d4 2abe dcfd 40be
000000f0: 38cb d2bd add6 f13d 720c 353d ca6b f13d
00000100: 2c15 523e 4e65 213e bb06 21bc b49c 77bd
00000110: efe4 273c 8001 7b3d b2d0 2e3e c764 583e
00000120: ac9f 1b3e 2e09 bdbd 2260 11be d4d3 413d
00000130: dd0f 623d d869 023f 4497 693d 0126 55be
00000140: a5cb a23e ee25 01be fd4c 28bc 34b4 59be
00000150: de63 5e3d 79f7 4e3d c6c6 da3e b89c 55bd
00000160: fc9c 2fbe ab62 59bc 1365 fc3e 661c 0dbe
00000170: 9c64 edb9 4e6d 47bb 91fa 35bc 7311 25be
00000180: 227c e6bc 70d3 bcbd 9b48 9c3d 8de4 0bbe
00000190: dc1a 1f3e 9f49 1c3c a82d 3b3d f469 d53e
000001a0: 86b5 233e 5f6c c1bc 2cd4 253f 91c0 833d
000001b0: 9460 43bc 8be2 5abe 8a57 1b3d c66b be3e
000001c0: 832a 973e dd13 3cbe 1918 d73d 7738 b63e
000001d0: f542 2c3f 1326 e73d a09c 22bd b894 84bd
000001e0: 5109 953e 166f 0dbf b8b3 f0bc cde2 083d
000001f0: 880c 39bd 782b f13e 275f 28bf bf00 9b3e
00000200: 3a5e ea3e 2096 c43e 4f85 c0bd 63eb 2dbe
00000210: ac86 2c3f 4d81 c2bd 570a bcbc bdcd 983c
00000220: da6f d03d 6316 96bc d8b2 793d c895 2c3e
00000230: b5e5 31be 1eea 1bbe 440b eabd 3b22 12be
00000240: c5a4 80be ac99 c33d f698 813d ac30 dfbd
00000250: 18be 0dbe 5ece d63e 29da 96be 5a2c e83d
00000260: 2983 ebbd c089 e8be eaa9 673d 6963 8b3e
00000270: 22b6 a6bd 5042 13bd 11d5 813e e35c 6c3c
00000280: afcc 2cbd d6f3 853e 58a5 0d3e 52d3 f93d
00000290: 194a 25bf 42cb 02be c114 4e3e ceb6 98bd
000002a0: 965d 4bbe acb2 083e ee07 8c3d fead 9cbe
000002b0: 959f 443d daa5 65bc d43f f6bd cbc7 2abf
000002c0: 578b 04bf 5f3d 27bf 199b c2be 8b4d b6be
000002d0: 7253 4dbe 4469 483d 7aec 02bf 6ca8 0cbe
000002e0: 1951 4c3e a9f0 f9bd 4095 fabd 6734 113d
000002f0: da13 4d3d 5d7e e03d 890e 9a3d a3e1 a9bd
00000300: 98f7 083d 602d 10be 8770 ecbd ee71 8bbc
00000310: 2f81 febd e2b5 babd fc0c 523e 7d56 6e3e
00000320: ae30 053e 9b09 193d 6b8c 77be 9acb 0e3e
00000330: 8f33 a0bd 3b42 12bd 8a11 d63d 96fa b03d
00000340: b73e 1cbe c190 bebd 4cdc 74be 949f f4be
00000350: 23d6 14bd c88d 4dbe ce56 3bbf fbb8 0abf
00000360: eb3d 1cbe d5c4 10be d7c6 bdbe e4e9 cd3d
00000370: a172 af3d 2290 94bd 2c78 fcbe cf9f c23d
00000380: d106 b73d f02f cbbc ab1f 303e 9bb1 85be
00000390: 006a ca3e 2979 7c3d 13be a1bc 74fd dcbd
000003a0: 2292 333e 6f54 a9be d107 873c 8317 09be
000003b0: 0cbb ccbf c4ba 07be c97a 6a3d 1ac5 143e
000003c0: 8082 b0be 5833 56bf 5462 d0be b584 3fbe
000003d0: b52a 8bbe 8b09 c63d 32f4 06bd 90e8 9e3b
000003e0: e5da 04bd 9fd4 f2bd a6a0 303f a697 00be
000003f0: 3a25 8ebe f21a afbc 2749 2cbd 5c13 31be

linear2.bias f4 [250]
-0.013211885 -0.015766429 -0.030934997 0.019456824 -0.0046046823 -0.26943937 0.073453054 -0.34001186
0.020586483 0.17080086 0.18517947 -0.21204121 -0.20235252 0.06806704 -0.010472117 0.08369846
-0.085573114 -0.16563596 -0.2773736 0.06213791 0.08940344 0.052124016 0.0894186 0.010939009
0.27704698 -0.09095561 -0.07384739 0.08307076 0.22748566 -0.31126118 0.36218747 -0.11442704
-0.06815919 0.015893668 -0.0037660662 0.5500112 -0.13838977 -0.18192749 -0.04201159 -0.13636002
-0.028837807 -0.07921825 -0.031814143 -0.16182938 0.17335953 -0.12634405 -0.069699116 -0.16790654
-0.16801734 -0.054406103 -0.16659361 -0.17234804 -0.17883053 0.2729224 0.064337686 -0.35995767
-0.14850904 -0.07869259 -0.050277762 0.04401507 -0.02536008 0.14963569 0.039104614 -0.12629993
-0.013891266 0.009620354 -0.37207285 -0.19350605 0.05709078 -0.07422584 0.1912609 0.10415088
0.02125947 0.05895877 -0.17663285 0.29212585 0.17274082 -0.10264852 -0.19550487 -0.3441901
0.013926349 -0.02853929 0.08307864 0.12289097 0.21616353 -0.32628065 0.10085163 -0.15409593
-0.08196107 -0.1574745 -0.06821481 -0.15742905 -0.088967375 -0.15069716 0.1644709 -0.110486865
-0.17777352 0.06561277 0.09964428 0.098901995 0.00087156234 0.15414034 0.34667617 -0.027850393
-0.20965087 -0.0036767705 0.0039846906 0.31303898 -0.26696777 0.083269276 -0.04776803 -0.327564
-0.078152426 -0.0051160078 0.0724846 -0.1774046 -0.0806165 0.03711944 -0.07312283 0.08676419
-0.19915159 0.091191664 0.22315638 -0.008180657 -0.0070361975 0.00071241875 -0.052687258 0.00034793257
-0.029990895 0.23322475 0.08566022 -0.043478403 0.3179004 0.1864611 0.083713405 0.034841485
-0.065168545 0.14828181 -0.13419329 0.23087692 0.09774337 0.0720446 -0.10483953 -0.13837194
-0.06772864 -0.1903338 -0.17591514 0.027875474 0.115247086 -0.14263535 0.08745902 -0.05486888
-0.16445756 0.18504333 -0.039060798 0.16202962 -0.08446998 0.0131607335 0.1787077 -0.025758965
0.18101624 -0.09350552 -0.010991949 -0.13123523 -0.028842214 -0.21445179 -0.13583681 0.13775936
0.19906054 0.16732794 -0.072726436 -0.06397376 0.14400987 0.062423278 0.16111673 -0.09958337
0.31912944 -0.23979995 -0.17807177 0.07586055 -0.23762915 0.070830755 -0.057648476 0.106240615
0.10054156 -0.08073737 0.30660984 -0.1535208 -0.047326926 -0.0692978 -0.15089923 0.03429199
0.24625602 0.24535584 0.12435643 0.27662158 0.3505499 -0.234444 -0.23875043 0.07484478
0.080727294 0.14100511 0.05014617 -0.07703025 -0.05097955 -0.09977516 -0.13539155 0.17148519
-0.1929618 -0.015076949 -0.13343376 -0.08446392 -0.34684122 -0.11937336 -0.087580726 0.2234739
0.19928308 0.22712237 0.20593676 -0.19996136 0.01442734 -0.21002132 0.01622576 -0.12167113
0.21802767 0.13379747 0.1737782 0.11569136 -0.14359093 0.043139275 0.17442165 0.14865148
-0.35227227 -0.14864996 -0.09789283 0.09104715 -0.15788218 0.29325902 0.023607979 0.08256314
-0.28123337 0.026856473 -0.078272335 0.19449976 0.085775554 0.017873172 0.048497405 -0.2808285
0.17493115 -0.027768526
00000000: a976 58bc 9928 81bc 646b fdbc eb63 9f3c
00000010: e0e2 96bb f5f3 89be 8e6e 963d 0916 aebe
00000020: fca4 a83c 6ce6 2e3e b09f 3d3e 5521 59be
00000030: 8035 4fbe bb66 8b3d 3e93 2bbc 196a ab3d
00000040: f540 afbd 799c 29be ea03 8ebe 5284 7e3d
00000050: 2719 b73d fe7f 553d 1921 b73d 8739 333c
00000060: 1ad9 8d3e ef46 babd 4d3d 97bd 0121 aa3d
00000070: 00f2 683e a05d 9fbe a370 b93e b958 eabd
00000080: 0c97 8bbd 7033 823c 1bd0 76bb 89cd 0c3f
00000090: 0cb6 0dbe 334b 3abe 5814 2cbd f6a1 0bbe
000000a0: 443d ecbc 2e3d a2bd 8c4f 02bd 9ab6 25be
000000b0: 2985 313e 5660 01be 69be 8ebd b1ef 2bbe
000000c0: bd0c 2cbe efd8 5ebd 8497 2abe 017c 30be
000000d0: 5a1f 37be 7cbc 8b3e 7ac3 833d 5f4c b8be
000000e0: c112 18be 9529 a1bd 0ef0 4dbd 2549 343d
000000f0: f1bf cfbc 193a 193e 292c 203d c554 01be
00000100: 3198 63bc b09e 1d3c 5580 bebe 7326 46be
00000110: 06d8 693d b803 98bd e6d9 433e 0e4d d53d
00000120: 5728 ae3c c07e 713d 3edf 34be 8591 953e
00000130: f8e2 303e 6339 d2bd 6e32 48be af39 b0be
00000140: 572b 643c 3bcb e9bc 2225 aa3d 43ae fb3d
00000150: f959 5d3e 420e a7be 4d8b ce3d 53cb 1dbe
00000160: 35db a7bd ff40 21be 35b4 8bbd 1535 21be
00000170: 8734 b6bd 5b50 1abe 0f6b 283e f046 e2bd
00000180: 430a 36be fd5f 863d 4d12 cc3d 218d ca3d
00000190: 8f79 643a f7d6 1d3e 8a7f b13e 8226 e4bc
000001a0: b8ae 56be f9f5 70bb 0292 823b a546 a03e
000001b0: 00b0 88be 1589 aa3d 69a8 43bd 78b6 a7be
000001c0: 610e a0bd 2fa4 a7bb ce72 943d 8da9 35be
000001d0: 431a a5bd 8e0a 183d 6cc1 95bd 6cb1 b13d
000001e0: 65ee 4bbe b2c2 ba3d 1b83 643e 2a08 06bc
000001f0: e78f e6bb 9dc1 3a3a 98ce 57bd b86a b639
00000200: 77af f5bc 78d2 6e3e a06e af3d 6916 32bd
00000210: d7c3 a23e a9ef 3e3e ef71 ab3d f2b5 0e3d
00000220: 1677 85bd 30d7 173e f769 09be 006b 6c3e
00000230: ad2d c83d 1f8c 933d 1cb6 d6bd 60b1 0dbe
00000240: 50b5 8abd dde6 42be 1923 34be 1b5b e43c
00000250: aa06 ec3d 000f 12be b71d b33d 31be 60bd
00000260: 9067 28be 007c 3d3e 37fe 1fbd 18eb 253e
00000270: 99fe acbd 1ea0 573c 27ff 363e 7704 d3bc
00000280: 525c 393e d27f bfbd 9317 34bc 8762 06be
00000290: 8246 ecbc 4099 5bbe ce18 0bbe ca10 0d3e
000002a0: 87d6 4b3e 0458 2b3e 99f1 94bd ad04 83bd
000002b0: 5377 133e 8daf 7f3d c9fb 243e 5ef2 cbbd
000002c0: ef64 a33e 1e8e 75be 7258 36be c75c 9b3d
000002d0: 0e55 73be b70f 913d cf20 6cbd ae94 d93d
000002e0: bce8 cd3d a259 a5bd f7fb 9c3e 8e34 1dbe
000002f0: e1d9 41bd 01ec 8dbd 5485 1abe c275 0c3d
00000300: 8a2a 7c3e 903e 7b3e 95ae fe3d 58a1 8d3e
00000310: 477b b33e 1712 70be fe7a 74be 3848 993d
00000320: 5a54 a53d a563 103e 1266 4d3d 09c2 9dbd
00000330: efcf 50bd eb56 ccbd 15a4 0abe d099 2f3e
00000340: c797 45be 4f05 77bc dca2 08be 6bfb acbd
00000350: 2c95 b1be 057a f4bd 865d b3bd 58d6 643e
00000360: dd10 4c3e c492 683e 16e1 523e acc2 4cbe
00000370: a660 6c3c d40f 57be e3eb 843c b72e f9bd
00000380: a542 5f3e 3402 093e eaf2 313e 97ef ec3d
00000390: 8009 13be cfb2 303d 979b 323e 1838 183e
000003a0: 085d b4be b237 18be 097c c8bd ee76 ba3d
000003b0: deab 21be 0c26 963e 8565 c13c dd16 a93d
000003c0: d2fd 8fbe 1b02 dc3c 3f4d a0bd f22a 473e
000003d0: 18ab af3d c26a 923c 37a5 463d c1c8 8fbe
000003e0: 2721 333e d27a e3bc

output.weight f4 [4, 250]
-0.21682756 -0.23720124 0.20495911 -0.2121306 -0.58110625 0.04168811 0.076880634 0.89638525
0.30370447 0.007076355 0.008998623 0.044749726 0.16471466 0.15878952 -0.031716663 -0.033800293
0.06266123 -0.033585794 0.2850261 0.017662218 -0.123930156 0.08225712 0.37356934 0.022155154
-0.073051654 -0.07092814 -0.16332078 -0.25598976 -0.21853516 -0.35552487 -0.058891967 0.49704885
-0.06984056 -0.029306736 -0.16207246 -0.02080312 -0.63624823 0.03014838 0.044447344 0.17603305
-0.2702473 0.0072220317 -0.38163254 0.0889041 -0.033886205 -0.011856291 0.19987655 -0.33467314
-0.034461588 0.14441082 0.07023571 -0.33798262 -0.07686664 -0.31897208 -0.07217643 0.25414947
0.29634386 0.061123 -0.04115792 0.0022268211 0.1562075 -0.054003783 -0.01803892 -0.039091073
0.19272345 0.07218506 0.27705565 -0.17575338 0.021430908 -0.20967008 0.012314841 -0.61995465
0.48397663 0.014785318 -0.096180305 -0.038381886 -0.025121424 -0.010376243 0.09005524 0.075476974
-0.013961569 -0.1314091 0.04196921 0.28645477 -0.10432207 0.07643488 0.06081189 0.089244835
0.016844127 0.094013944 0.16676731 -0.27929908 -0.3262092 -0.0366164 -0.1747951 0.055693798
-0.4812737 0.524825 -0.13141765 -0.22718538 -0.028278226 0.14603333 -0.24192105 0.0027464223
-0.27137312 -0.08097538 -0.6192079 -0.098741286 0.0162111 -0.73146176 -0.054400437 0.26208276
-0.034220736 -0.015188482 0.18416329 0.14382406 -0.025968432 -0.022260292 -0.04097454 -0.3651976
0.21925245 -0.19644992 0.035085313 0.105958894 -0.053169522 0.122491024 -0.19712569 0.031150786
-0.029143281 -0.06969438 -0.027581802 -0.053307112 -0.09043805 -0.027810391 -0.029348226 0.00045962483
0.14736077 -0.054141708 0.01637306 -0.045791876 0.043287016 -0.11149034 -0.0040111034 -0.14438175
0.39376572 0.02214304 0.7089656 0.10267362 -0.005863011 0.12558839 0.6383725 0.020072611
0.26796475 -0.34672743 -0.085042894 0.1325562 0.1418908 0.110325605 -0.21463048 0.020445935
0.07167806 0.2518713 -0.13124645 0.08345824 -0.029732862 0.016421698 -0.2437722 -0.053701703
0.0484262 0.06290526 0.116823055 -0.23654072 -0.05619771 -0.29853258 -0.22999802 0.1961842
0.015766386 -0.3117711 -0.2503976 -0.07076477 -0.38655564 -0.031338945 0.007883487 -0.14184107
-0.008516992 -0.02040277 -0.15236978 0.1622025 -0.044288233 0.19246028 -0.09526045 -0.014005577
-0.4236868 -0.06271758 0.070813976 -0.08843365 -0.29823285 -0.028115327 -0.043221787 -0.06315081
-0.16977301 -0.04520896 -0.033318862 0.16642272 -0.37836736 0.08549316 0.34894726 -0.011974705
0.042641923 0.6345388 0.085586876 0.10007352 0.11479912 -0.1476723 0.04292729 0.014662159
0.0012586693 -0.03794089 -0.136044 0.031410657 -0.38925937 0.25401154 0.31507272 0.036715973
0.05604849 -0.018972235 -0.22647026 0.045371078 0.015853172 -0.021629589 -0.062677555 0.016510906
0.15724076 -0.052799206 0.054617684 -0.19262017 -0.7547007 -0.07738092 -0.23683992 0.10763879
-0.23634525 0.03126804 -1.1514653 -0.29392505 -0.09074749 0.16460462 0.059362996 0.41417357
-0.14458512 0.108756535 -0.45737904 -0.21726458 0.13334942 0.22335683 -0.19959334 0.21857198
00000000: 0b08 5ebe e2e4 72be cde0 513e c438 59be
00000010: 61c3 14bf 27c1 2a3d 9873 9d3d 8179 653f
00000020: 277f 9b3e c5e0 e73b f66e 133c 7d4b 373d
00000030: f6aa 283e b899 223e 55e9 01bd 2d72 0abd
00000040: 8854 803d 4291 09bd f1ee 913e 5bb0 903c
00000050: 18cf fdbd 6c76 a83d 7b44 bf3e ba7e b53c
00000060: 1b9c 95bd c642 91bd 903d 27be 1711 83be
00000070: aec7 5fbe 5b07 b6be b438 71bd 307d fe3e
00000080: 9108 8fbd ae14 f0bc 53f6 25be 4e6b aabc
00000090: 2ae1 22bf bcf9 f63c 6b0e 363d 0242 343e
000000a0: db5d 8abe cba6 ec3b 5765 c3be 5a13 b63d
000000b0: 43cc 0abd e440 42bc 70ac 4c3e 475a abbe
000000c0: 9827 0dbd 6ee0 133e bdd7 8f3d 0f0c adbe
000000d0: 426c 9dbd 4f50 a3be 3cd1 93bd e11f 823e
000000e0: 62ba 973e 1c5c 7a3d 3595 28bd dcef 113b
000000f0: dcf4 1f3e 1233 5dbd 5bc6 93bc f61d 20bd
00000100: 4c59 453e c3d5 933d 3dda 8d3e b2f8 33be
00000110: df8f af3c c1b3 56be 30c4 493c 59b5 1ebf
00000120: c9cb f73e 1e3e 723c 2efa c4bd 5336 1dbd
00000130: 72cb cdbc 1e01 2abc e26e b83d ac93 9a3d
00000140: 11bf 64bc 1b90 06be e8e7 2b3d 33aa 923e
00000150: cfa6 d5bd e489 9c3d e315 793d ffc5 b63d
00000160: b2fc 893c 628a c03d 0dc5 2a3e 4a00 8fbe
00000170: e404 a7be 14fb 15bd 7dfd 32be 2e1f 643d
00000180: 8269 f6be ee5a 063f 5992 06be 49a3 68be
00000190: bda7 e7bc c389 153e 27ba 77be 52fd 333b
000001a0: 6bf1 8abe 6cd6 a5bd 6984 1ebf df38 cabd
000001b0: 24cd 843c 1441 3bbf fed2 5ebd b62f 863e
000001c0: 0b2b 0cbd 1cd9 78bc 4d95 3c3e 9d46 133e
000001d0: c0bb d4bc 375b b6bc ebd4 27bd 2efb babe
000001e0: b783 603e 2b2a 49be 9eb5 0f3d fa00 d93d
000001f0: 49c8 59bd 93dc fa3d 51db 49be ef2f ff3c
00000200: e4bd eebc edbb 8ebd 3bf3 e1bc 8f58 5abd
00000210: 9637 b9bd 9ed2 e3bc b16b f0bc cdf9 f039
00000220: bee5 163e b2c3 5dbd cc20 863c 4390 3bbd
00000230: ba4d 313d 0c55 e4bd 936f 83bb cfd8 13be
00000240: a99b c93e 5265 b53c c57e 353f 8c46 d23d
00000250: 801e c0bb 3e9a 003e 616c 233f 516f a43c
00000260: ad32 893e 4286 b1be f82a aebd d0bc 073e
00000270: d24b 113e 64f2 e13d 18c8 5bbe 3c7e a73c
00000280: f2cb 923d 46f5 803e 7865 06be 27ec aa3d
00000290: 5592 f3bc cc86 863c 6b9f 79be 51f6 5bbd
000002a0: 8d5a 463d 79d4 803d ed40 ef3d bb37 72be
000002b0: 922f 66bd 43d9 98be 9a84 6bbe 83e4 483e
000002c0: 8228 813c 76a0 9fbe 1d34 80be 1fed 90bd
000002d0: 9fea c5be 445d 00bd be29 013c c93e 11be
000002e0: db8a 0bbc b623 a7bc d306 1cbe 6a18 263e
000002f0: 9467 35bd 4f14 453e e917 c3bd a677 65bc
00000300: 7aed d8be 1372 80bd eb06 913d b41c b5bd
00000310: fab1 98be 1d52 e6bc 5409 31bd 3655 81bd
00000320: fad8 2dbe 082d 39bd 5c79 08bd b86a 2a3e
00000330: 5eb9 c1be 0a17 af3d 37a9 b23e 8e31 44bc
00000340: 4ca9 2e3d 2371 223f 2c48 af3d 58f3 cc3d
00000350: cd1b eb3d 6837 17be 87d4 2f3d 8d39 703c
00000360: eff9 a43a e867 1bbd 1e4f 0bbe 76a8 003d
00000370: 014d c7be cd0d 823e 3651 a13e 7d63 163d
00000380: 1a93 653d a96b 9bbc d2e7 67be 06d7 393d
00000390: 83de 813c 8930 b1bc 175d 80bd e141 873c
000003a0: b903 213e fb43 58bd cbb6 5f3d 393e 45be
000003b0: 1134 41bf e379 9ebd 2a86 72be ba71 dc3d
000003c0: 7d04 72be eb12 003d 3763 93bf 587d 96be
000003d0: d2d9 b9bd 1d8e 283e 9d26 733d 8f0e d43e
000003e0: 1f0e 14be bfbb de3d 962d eabe 9b7a 5ebe
000003f0: c08c 083e a7b7 643e 3262 4cbe 55d1 5f3e

output.bias f4 [4]
0.03489741 -0.046716787 -0.06367138 -0.022293348
00000000: 96f0 0e3d 1a5a 3fbd 2466 82bd 8aa0 b6bc
