milestone2/models/weights/model_12.pth (torch, 59975 bytes, 6 tensors)

linear1.weight f4 [50, 13]
0	0x3eadf0a5	0.3397266
1	0x3e575514	0.21028548
2	0xbef500c2	-0.4785214
3	0xbd702da9	-0.058637295
4	0xbe1932f1	-0.14960839
5	0xbda2ad73	-0.07943239
6	0x3cc6c5b9	0.024264203
7	0xbe69d407	-0.22834788
8	0x3f229e83	0.6352312
9	0x3e420df3	0.18950634
10	0xbf9698ce	-1.1765382
11	0x3bf2c518	0.0074087493
12	0xc012d765	-2.2943966
13	0xbe05a460	-0.13050985
14	0x3ec001d6	0.375014
15	0xbebeff20	-0.3730402
16	0xbe403c05	-0.18772896
17	0xbe8565ef	-0.26054332
18	0xbeccee5b	-0.400256
19	0xbeb36dca	-0.350447
20	0xbedb8bba	-0.4288004
21	0xbe7950c3	-0.24347214
22	0x3ec7c075	0.3901402
23	0xc03b39cd	-2.9254029
24	0xbc8cce94	-0.017188348
25	0x3ff6a613	1.9269432
26	0xbe8e1bc0	-0.27755547
27	0xbe4e3fae	-0.2014148
28	0xbe6e078f	-0.23245071
29	0xbe7e9df2	-0.24864939
30	0xbd51833c	-0.051150545
31	0xbddce8e8	-0.10786611
32	0x3c619f04	0.013770822
33	0xbd996472	-0.074898615
34	0x3c3d651b	0.01155975
35	0x3bfbff91	0.007690378
36	0x3fcf4db6	1.619559
37	0xbda83762	-0.082136884
38	0x3e4b0cb2	0.19829062
39	0xbd4b6fd4	-0.049667194
40	0xbddf0510	-0.108896375
41	0x3d2cc6fe	0.04218196
42	0xbe6391aa	-0.22223535
43	0x3e761c80	0.2403431
44	0x3dc23097	0.09481924
45	0x3e39b12a	0.18133989
46	0x3deaa785	0.11457733
47	0x3da9f5fb	0.0829887
48	0xbe7cf084	-0.24701124
49	0x3cd710a1	0.026253046
50	0xbdd3b6db	-0.10337611
51	0x3d98f1b9	0.0746798
52	0xbe442b68	-0.19157183
53	0x3e9594fa	0.29215223
54	0x3e61c8cf	0.22049259
55	0x3f0359d8	0.51308966
56	0x3e555ffb	0.20837395
57	0x3eb21f90	0.34789705
58	0x3e945b72	0.28976017
59	0x3e8293e8	0.2550347
60	0xbe0ac861	-0.13553001
61	0xbe9970b5	-0.299688
62	0x3fec9a87	1.8484658
63	0x3d7af3d0	0.061267674
64	0xbf7998b3	-0.97498626
65	0xbdc58f87	-0.09646516
66	0xbd8e0cc5	-0.06936029
67	0xbe85c148	-0.26124024
68	0x3ecfcfff	0.40588376
69	0x3e59fca4	0.21287781
70	0x3e770e16	0.24126467
71	0xbc36f92d	-0.011167807
72	0x3df5bad0	0.11998522
73	0x3f862a25	1.0481611
74	0x3e485188	0.19562352
75	0x3f09affb	0.5378415
76	0xbebf2542	-0.37333113
77	0x3e4dead3	0.2010911
78	0x3cc8a757	0.024493856
79	0x3d13b42e	0.036060505
80	0x3c7c2696	0.015390059
81	0xbb78adf5	-0.0037945483
82	0x3dc3fc1d	0.09569571
83	0xbea7ddd2	-0.32786423
84	0xbcea36a1	-0.028590502
85	0x3dc1e77d	0.09467981
86	0x3e8031b0	0.2503791
87	0xbd4f9517	-0.050679293
88	0xbe39f3d6	-0.18159422
89	0xbe6a8ab0	-0.22904468
90	0xbe8c9ffb	-0.27465805
91	0xbe92ae6a	-0.28648692
92	0x3e5f85d5	0.21828397
93	0x3f175883	0.59119433
94	0xbf056fcd	-0.5212372
95	0xbf3e4261	-0.74320036
96	0xbf1b794c	-0.6073196
97	0xbf2c5565	-0.673178
98	0xbf4b50fb	-0.7942044
99	0xbf8210c3	-1.0161365
100	0xbd970ec5	-0.07375864
101	0xbfc03843	-1.501717
102	0x3d27368d	0.040823508
103	0x3f716cf0	0.9430685
104	0x3e0c5e08	0.13707745
105	0xbedfc0ce	-0.43701786
106	0xbe472268	-0.19446719
107	0x3d9e00b2	0.07714976
108	0x3e8048cb	0.25055537
109	0xbe9d7f83	-0.30761346
110	0x3db76a6c	0.08955845
111	0xbe844a0b	-0.2583774
112	0xbe53c7e8	-0.20681727
113	0xbe64187c	-0.22274965
114	0x3fc9ac1e	1.5755651
115	0xbd8557fd	-0.06510923
116	0xbdc51cdb	-0.09624644
117	0x3d5d02e7	0.053957846
118	0xbdde6dac	-0.10860762
119	0x3e8961a6	0.26832312
120	0xbe058012	-0.13037136
121	0x3e33bcba	0.17552462
122	0x3e742d54	0.23845416
123	0xbc95c59e	-0.018282708
124	0xbd810dcf	-0.06301462
125	0x3f17452d	0.5908993
126	0xbe17db63	-0.14829783
127	0x3fd86750	1.6906528
128	0xbf03b585	-0.5144885
129	0xbda5a52d	-0.080881454
130	0xbeac871d	-0.33696833
131	0xbe8ecf12	-0.27892357
132	0xbd42beca	-0.047545232
133	0x3e2d13ef	0.16902135
134	0xbe8ae5fb	-0.27128586
135	0x3e8a38f8	0.2699659
136	0x3e0b1914	0.13583785
137	0xbce02d35	-0.027365306
138	0xbd0f1d07	-0.034939792
139	0xbf0b2d54	-0.5436604
140	0x3ed26c14	0.41098082
141	0x3e63f1f4	0.22260267
142	0x4025beb6	2.589765
143	0x3d97d49b	0.07413598
144	0x3f0a3921	0.5399342
145	0xbe020182	-0.12695888
146	0x3cda9ae6	0.02668519
147	0x3d4183fa	0.047245003
148	0x3e813ff6	0.2524411
149	0x3ed13f20	0.40868473
150	0x3f31202c	0.69189715
151	0xbeee8750	-0.4658761
152	0xbf0fdb19	-0.5619369
153	0x3fd7cc30	1.6859188
154	0x3e39c7d9	0.18142642
155	0xbfe5f11d	-1.7964207
156	0xbe0658f5	-0.13119872
157	0xbf0477b1	-0.51745135
158	0x3eb12e95	0.34605852
159	0xbdfe2d49	-0.12410981
160	0x3e67032e	0.22559807
161	0xbe5ea664	-0.2174316
162	0xbd2d5725	-0.042319436
163	0x3e724d66	0.23662338
164	0x3e6c52f3	0.23078518
165	0x3ed23399	0.4105499
166	0xbf7e3d31	-0.9931212
167	0xbe1da292	-0.15394047
168	0x3f3c22b5	0.7349046
169	0x3ec499a3	0.38398466
170	0xbf41f76e	-0.7576817
171	0xbe24bbad	-0.16087218
172	0xbdaf7ea7	-0.08569079
173	0x3e235c78	0.15953243
174	0x3e22ac82	0.15886119
175	0xbe067c3a	-0.13133326
176	0x3f0b72c7	0.5447201
177	0x3f41bdff	0.75680536
178	0x3e03cda1	0.1287141
179	0x3ef6fe4c	0.48240888
180	0xbda2b09a	-0.0794384
181	0xbfa6b33a	-1.3023446
182	0x3f00f11f	0.5036792
183	0x3e2cbbf3	0.16868572
184	0xbc297ef9	-0.010345214
185	0xbe59955c	-0.21248382
186	0x3e85bd43	0.26120958
187	0x3d128293	0.035769057
188	0x3e797e64	0.2436462
189	0xbe8f9108	-0.28040338
190	0x3f2d1683	0.67612475
191	0xbe15f50f	-0.14644264
192	0x3da45c87	0.08025461
193	0x3cbc496e	0.022984233
194	0xc05259a0	-3.2867203
195	0x3e55db7e	0.20884511
196	0xbe980621	-0.29692176
197	0xbe77312d	-0.24139853
198	0xbea6b46b	-0.32559523
199	0xbeaf368d	-0.34221306
200	0xbd190c0e	-0.037365012
201	0xbf23223d	-0.6372412
202	0xbefee308	-0.49782586
203	0x3f3c204b	0.73486775
204	0x3d8fe646	0.07026343
205	0x3cdcde75	0.026961545
206	0xbda911b2	-0.08255328
207	0x3f24ce7b	0.64377564
208	0x3ec5bedd	0.3862218
209	0xbe0d028c	-0.13770503
210	0x3edce209	0.431412
211	0x3e16107f	0.1465473
212	0x3df1c354	0.11804834
213	0x3e9139af	0.28364322
214	0x3e14ee34	0.14543992
215	0x3cbc3976	0.022976618
216	0x3e83b45e	0.25723547
217	0xbe95148d	-0.29117242
218	0x3f413499	0.7547088
219	0xbc9c4d96	-0.019079965
220	0xbffda5d1	-1.9816228
221	0x3efde6fa	0.49590284
222	0x3eac2ff7	0.33630344
223	0x3e89ed7c	0.26939
224	0x3e1f31fa	0.15546408
225	0x3ea1c48a	0.3159526
226	0xbdd782d1	-0.10522998
227	0x3ea0b2c7	0.31386396
228	0x3ef5001c	0.47851646
229	0x3febaf7f	1.8412932
230	0xbef3ff70	-0.4765582
231	0x3f2dfc45	0.6796306
232	0x3af4eae1	0.0018685722
233	0xbe29373f	-0.16524981
234	0x3ef2bd94	0.47410262
235	0x3e7be85a	0.24600354
236	0xbe667011	-0.22503687
237	0x3e77f2d0	0.2421372
238	0x3f00445c	0.5010431
239	0x3d874b51	0.06606162
240	0x3f0ca5fa	0.5494076
241	0x3f2d6974	0.67739034
242	0x3f2465dd	0.6421793
243	0xbec54ce0	-0.38535213
244	0x3fbb392d	1.4626824
245	0x3e02f764	0.12789685
246	0xbfa43411	-1.282839
247	0x3e756dba	0.23967639
248	0xbee2f7f8	-0.4432981
249	0xbe752e0a	-0.23943344
250	0x3cfcc460	0.030855358
251	0x3f22e616	0.63632333
252	0x3eabe61a	0.3357399
253	0x3e5861d6	0.21131071
254	0x3e51d8f1	0.20492913
255	0x3f6ba543	0.92049044

linear1.bias f4 [50]
0	0x3e8c522e	0.27406448
1	0x3e047d39	0.12938394
2	0xbe8c56e2	-0.27410036
3	0xbd690601	-0.05689049
4	0xbd1ddcfe	-0.038540833
5	0xbd923747	-0.071394496
6	0xbf0306aa	-0.51182044
7	0xbe95cafb	-0.29256424
8	0xbdd58398	-0.1042549
9	0x3e410df6	0.18852982
10	0x3e281ede	0.16418025
11	0x3e1668f7	0.14688478
12	0x3e209250	0.15680814
13	0x3d0e94ce	0.03480988
14	0xbe36eb07	-0.17863093
15	0xbf246b69	-0.64226395
16	0x3cf67e97	0.03008966
17	0xbd5d599d	-0.05404054
18	0x3e6b44a3	0.22975402
19	0x3c24140a	0.010014543
20	0xbf0f4d33	-0.5597717
21	0xbc328828	-0.01089672
22	0xbbd1afb4	-0.0063991193
23	0xbecf2cd6	-0.40463895
24	0xbe8bbd1a	-0.2729271
25	0xbbda51fd	-0.006662606
26	0xbde64dfe	-0.112453446
27	0xbc07c817	-0.008287451
28	0x3e927367	0.2860367
29	0x3d93ac2c	0.072105736
30	0x3e9d3bb8	0.30709624
31	0xbd341b52	-0.043971367
32	0x3e90018d	0.28126183
33	0x3ed2ec69	0.41195992
34	0xbe56f85a	-0.20993176
35	0xbe91c119	-0.28467634
36	0xbe59fd2d	-0.21287985
37	0xbf04f389	-0.51934105
38	0xbd9da660	-0.07697749
39	0xbee7d944	-0.45282948
40	0x3dae1064	0.0849922
41	0x3e6d1513	0.2315257
42	0xbd046f74	-0.032332852
43	0xbf117614	-0.568208
44	0xbd3073f6	-0.04307934
45	0xbdc6ef5d	-0.09713624
46	0xbe999b6a	-0.30001384
47	0xbec47ebd	-0.38377944
48	0xbee21276	-0.4415471
49	0xbe12f649	-0.14351763

linear2.weight f4 [250, 50]
0	0xbf0084e1	-0.5020276
1	0xbe6b43d0	-0.22975087
2	0xbd37c4f2	-0.044865556
3	0xbdc0ab5f	-0.094076864
4	0xbe6c6b6a	-0.2308785
5	0x3e019b0b	0.126568
6	0x3cbcbd54	0.023039497
7	0x3e6a7f01	0.2290001
8	0xbe1dcd85	-0.1541043
9	0xbe7b88c3	-0.24563889
10	0xbef872c7	-0.48525068
11	0xbe8f57be	-0.2799663
12	0x3cb838d5	0.022488037
13	0x3c84df0b	0.016219636
14	0x3ca906ae	0.020633068
15	0xbe31f8a2	-0.17380002
16	0x3e991411	0.29898122
17	0xbd947875	-0.07249538
18	0xbe2ea01f	-0.17053269
19	0x3e96d9d1	0.29463056
20	0x3d794f42	0.0608666
21	0xbbee1fc3	-0.00726697
22	0xbe7e7739	-0.24850167
23	0xbdc450ea	-0.09585746
24	0x3d69aec8	0.05705145
25	0x3e18a684	0.1490727
26	0x3c95cf9a	0.018287469
27	0x3dbd28a7	0.092362694
28	0xbdd1d666	-0.102459714
29	0xbee88725	-0.45415607
30	0xbeb21ae2	-0.34786135
31	0x3eac4605	0.3364717
32	0x3e3ded29	0.185475
33	0xbcc5958d	-0.024119163
34	0x3e0ad60d	0.13558216
35	0xbecc532e	-0.3990721
36	0xbf039a0a	-0.5140692
37	0xbed92860	-0.42413616
38	0xbd925608	-0.071453154
39	0x3ec36a03	0.38166818
40	0xbeb67918	-0.35639262
41	0xbe5b8878	-0.21438777
42	0xbb57e531	-0.0032943005
43	0xbd1b5687	-0.037924316
44	0x3e96d86a	0.29461986
45	0x3e28b071	0.16473557
46	0x3d3b6490	0.0457502
47	0xbd5962f0	-0.05307287
48	0x3e9d9873	0.30780372
49	0xbefb1229	-0.49037293
50	0xbdda7214	-0.1066629
51	0xbe738b84	-0.2378369
52	0x3f3a2fb6	0.7272905
53	0x3e0584df	0.13038968
54	0xbdbd4e4c	-0.092434496
55	0x4032f7d8	2.7963772
56	0x3e82f8b4	0.2558037
57	0xbe6859e9	-0.22690548
58	0x3e5718ce	0.21005556
59	0xbca1b5ca	-0.019740004
60	0xbe12f325	-0.14350565
61	0xbc0913bc	-0.008366521
62	0x3da3493c	0.07972953
63	0x3ea7409e	0.32666487
64	0x3e70a530	0.23500514
65	0x3e0ba23f	0.1363611
66	0x3ee359e6	0.44404525
67	0x4025123e	2.5792384
68	0x3dddb9b2	0.10826434
69	0x3d280f71	0.04103035
70	0xbe0d5488	-0.13801777
71	0x3e7255e8	0.23665583
72	0xbe85c8bf	-0.2612972
73	0x4084b20a	4.1467333
74	0x3d238188	0.039918453
75	0x3eccb6fc	0.39983356
76	0xbd5d84c4	-0.054081693
77	0xba7746c0	-0.0009432845
78	0xbf039676	-0.5140146
79	0x3e729f83	0.23693661
80	0xbe044c61	-0.12919761
81	0xbed4c6ef	-0.41558024
82	0x3f26bff2	0.65136635
83	0x3b67ca5f	0.0035368425
84	0x3e16b197	0.14716183
85	0x3f28961e	0.6585406
86	0xbf4937fb	-0.78601044
87	0x3e63bd9a	0.22240296
88	0x3ea5afd3	0.32360706
89	0xbdee1b4d	-0.11626301
90	0x3e95b822	0.29242045
91	0x403b68c6	2.9282699
92	0x3e82497f	0.25446698
93	0xbe23266b	-0.15932624
94	0x3eebd3bf	0.46059987
95	0x3f00cb75	0.5031045
96	0xbdfb229d	-0.12262461
97	0x3e1839c8	0.14865792
98	0xbda6b534	-0.081400305
99	0xbe884567	-0.2661545
100	0x3d375f85	0.04476883
101	0x3e0487a6	0.12942371
102	0x3f3a3598	0.7273803
103	0x3d79b607	0.06096461
104	0xbf268250	-0.6504259
105	0x3f3249fa	0.6964413
106	0x3de3743e	0.11106156
107	0xbfa742bb	-1.306724
108	0x3f57534f	0.84111494
109	0x3dc32ec1	0.09530402
110	0xbf06d6f7	-0.5267176
111	0xbe0a5315	-0.13508256
112	0xbde07b24	-0.10960987
113	0x3f12521c	0.5715654
114	0x3e5da24d	0.21643944
115	0xbcff85a0	-0.031191647
116	0xbe586cb5	-0.21135218
117	0x3e15dd09	0.146351
118	0xbe2a39fa	-0.16623679
119	0x3d4afa6f	0.04955524
120	0xbf03f188	-0.5154042
121	0xbea2f52e	-0.31827682
122	0x3e8336d6	0.25627774
123	0x400510cc	2.0791502
124	0x3c5f08a6	0.013612902
125	0xbdbad27e	-0.091221794
126	0xbd742902	-0.05960942
127	0xbf02cdfc	-0.5109556
128	0xbf30ae1b	-0.69015664
129	0xbe04455f	-0.12917088
130	0xbe8d21cf	-0.27564856
131	0x3f490eb4	0.7853806
132	0x3e04d3a4	0.1297136
133	0x3ecca7ff	0.3997192
134	0x3e61bd49	0.22044863
135	0x3eb1832e	0.34670395
136	0x3f040030	0.51562786
137	0x3c91e573	0.017809605
138	0x3db28513	0.08716788
139	0xbdb75e08	-0.08953482
140	0x3d46b14d	0.04850893
141	0x3f1bfcc8	0.6093259
142	0x3d097cd8	0.033566326
143	0xbe2937e8	-0.16525233
144	0xbe834f83	-0.256466
145	0x3e4a75e8	0.1977154
146	0xbe15a118	-0.14612234
147	0x3da158a2	0.078782335
148	0xbec41b98	-0.38302302
149	0xbef7c676	-0.483936
150	0xbf70887a	-0.93958247
151	0xbe2a7bd0	-0.16648793
152	0x3eb8cbcf	0.36092994
153	0x3e06b8bf	0.13156413
154	0x3d104dc9	0.03523043
155	0x3e94f5fe	0.29093927
156	0x3eb023f2	0.34402424
157	0x3eeb5f00	0.45970917
158	0x3fb0c44e	1.3809907
159	0xbea18acb	-0.31551203
160	0x3ed439eb	0.41450438
161	0x3e83b069	0.25720528
162	0xbd7d057c	-0.06177281
163	0xbe120faa	-0.14263788
164	0xbe9ff268	-0.3123963
165	0x3c6297ca	0.013830135
166	0x3e465b88	0.19370854
167	0xbe9261fb	-0.28590378
168	0xbe079ff0	-0.13244605
169	0x3f2da8ff	0.6783599
170	0x3e3f42d7	0.18677841
171	0x3d32abe7	0.04362097
172	0x3e88f9b2	0.26753002
173	0x4007b6dd	2.120536
174	0xbdb2fb5b	-0.087393485
175	0x3f37f5a9	0.7185922
176	0xbd7d9646	-0.06191089
177	0xbbfcc369	-0.0077137244
178	0x3e9ae6aa	0.30254108
179	0xbecfc353	-0.40578708
180	0x3e0ccd47	0.13750182
181	0xbda877e5	-0.08225993
182	0xbee448c7	-0.44586775
183	0x3f311126	0.6916679
184	0x3e236e69	0.15960087
185	0x3e4b6eef	0.19866537
186	0xbeaf8e76	-0.34288377
187	0xbea164d4	-0.31522238
188	0x3f821030	1.016119
189	0x3e98b43f	0.29825017
190	0xbe99be67	-0.30028078
191	0x3e0c3e63	0.13695674
192	0xbecf9ee9	-0.40550926
193	0x3c41d64b	0.011830877
194	0x3f231d32	0.63716424
195	0x3e7f5b02	0.2493706
196	0x3f029a70	0.510169
197	0x3da32951	0.07966865
198	0x3eab317d	0.33436194
199	0x3e927ed6	0.28612393
200	0x3d497c04	0.049190536
201	0xbdfa1d4d	-0.1221262
202	0xc0014fb9	-2.020491
203	0x3aeaef1f	0.0017924047
204	0x3d9e5572	0.07731141
205	0xbf173bd8	-0.5907569
206	0x3d6e1097	0.05812129
207	0xbeaff4aa	-0.3436635
208	0xc0131e19	-2.298712
209	0xbe1ccdc7	-0.15312873
210	0x3f222835	0.633426
211	0x3c05bebc	0.00816315
212	0x3e2ae895	0.16690286
213	0x3e840a36	0.2578904
214	0xbd4991a9	-0.049211178
215	0xbc388c4d	-0.011263919
216	0x3ecce239	0.40016344
217	0x3d707c90	0.058712542
218	0x3e1a1997	0.15048824
219	0x3f0fd3ee	0.56182754
220	0x3dcf08c8	0.10109097
221	0xbe65068e	-0.22365782
222	0x3ea8e4ec	0.32987154
223	0xc005b4c3	-2.0891578
224	0xbdf1de95	-0.11810032
225	0xbcfc0c83	-0.030767685
226	0x3e064441	0.13111974
227	0xbe6d1653	-0.23153047
228	0xbe02d769	-0.12777485
229	0x3e87f560	0.26554394
230	0xbe347f7c	-0.17626756
231	0x3d58e32d	0.052951027
232	0xbd91cef9	-0.07119555
233	0xbf1941f8	-0.59866285
234	0xbda69a86	-0.08134942
235	0x3e2cb6c9	0.16866602
236	0xbf25a6e9	-0.6470781
237	0x3c37b9cc	0.011213731
238	0xbe71131f	-0.2354245
239	0x3de3d8a1	0.11125303
240	0x3f220709	0.63291985
241	0xbefc8ed4	-0.4932772
242	0xbe920b9e	-0.28524488
243	0xbec556c6	-0.38542765
244	0xbd1d47a6	-0.038398407
245	0x3e6b17ca	0.22958294
246	0xbc91a00e	-0.017776515
247	0xbf579864	-0.84216905
248	0xbe535193	-0.20636587
249	0xbe8f389b	-0.27972874
250	0x3ea7566e	0.32683128
251	0x3c58fbc6	0.013243621
252	0xbfc59346	-1.5435569
253	0x3dd741af	0.10510575
254	0xbf86dd0a	-1.0536206
255	0xbf997169	-1.1987735

linear2.bias f4 [250]
0	0xbddb9bdb	-0.107230864
1	0x3e7543d2	0.23951653
2	0xbc58c274	-0.013229955
3	0x3d3652fa	0.044512726
4	0x3f1c1968	0.60976267
5	0x3e492316	0.1964229
6	0x3e3ef736	0.18648991
7	0xbf207369	-0.626761
8	0xbed04e6e	-0.40684837
9	0xbeb3b720	-0.3510065
10	0xbdb1670b	-0.08662232
11	0x3ccbaedb	0.024863651
12	0x3d1d28c0	0.03836894
13	0x3cf4a451	0.029863508
14	0x3e3a5c54	0.18199283
15	0xbe36431f	-0.17799042
16	0x3d47aff9	0.048751805
17	0xbd5ba64c	-0.05362539
18	0x3e9253c8	0.28579545
19	0x3b8f3bc9	0.0043711406
20	0xbf269a40	-0.65079117
21	0x3dd07a62	0.10179593
22	0x3e25e64c	0.16201133
23	0xbe235c21	-0.15953113
24	0xbcb217fd	-0.021739954
25	0xbd80fa24	-0.062977105
26	0xbf4256e1	-0.75913817
27	0xbf07c333	-0.53032225
28	0xbe1d4c59	-0.15361156
29	0xbeb370f4	-0.35047114
30	0xbf2440ff	-0.64161676
31	0x3e942a47	0.28938505
32	0xbda7fee0	-0.082029104
33	0x3eae1881	0.3400307
34	0xbd849bcc	-0.064750284
35	0xbe6b8312	-0.22999218
36	0xbdffd746	-0.12492232
37	0x3ebe9930	0.37226248
38	0x3eb15094	0.3463179
39	0x3e830c63	0.25595388
40	0xbe1c289c	-0.15249866
41	0xbd8f6a13	-0.07002654
42	0x3f219e40	0.63132095
43	0xbe563a1c	-0.20920604
44	0x3ecdd71b	0.40203175
45	0x3e1e45b7	0.15456282
46	0xbea52f1b	-0.322625
47	0x3e81eece	0.25377506
48	0x3e05fe3f	0.13085268
49	0x3d5724e9	0.052525435
50	0x3d5b1a44	0.053491846
51	0x3ca7fcdc	0.020506315
52	0x3d991bd1	0.07476009
53	0xbbb62f1d	-0.0055598156
54	0x3dcc7b8c	0.09984502
55	0x3ea8ddbe	0.32981676
56	0xbe4ac063	-0.19799952
57	0x3dd1ee2c	0.10250506
58	0x3d1432d4	0.036181286
59	0x3de98d69	0.11403925
60	0xbe401432	-0.18757704
61	0xbb9dffde	-0.0048217615
62	0x3d1973fd	0.03746413
63	0x3d86960d	0.06571589
64	0x3ea3ee84	0.3201791
65	0x3c8dc2ea	0.017304856
66	0x3e5f111e	0.21783873
67	0x3ec2f1f7	0.3807523
68	0x3e11ae21	0.14226581
69	0x3d08d7c2	0.033408888
70	0x3e9da474	0.3078953
71	0xbe5529a9	-0.20816673
72	0x3ea570b8	0.3231256
73	0xbe491277	-0.1963595
74	0xbe4c062b	-0.19924228
75	0xbdf3cb46	-0.11904006
76	0x3e35c44c	0.17750663
77	0x3e7ca8dc	0.2467379
78	0xbd886eb6	-0.066617414
79	0xbd197037	-0.037460532
80	0xbe92cbd0	-0.28671122
81	0x3cc5a39d	0.024125868
82	0x3e428d89	0.18999304
83	0xbd7eaddc	-0.062177524
84	0xbd8bdac4	-0.068288356
85	0xbc07784b	-0.008268426
86	0xbd49948e	-0.04921394
87	0x3e98419f	0.29737565
88	0x3e9092c4	0.28236973
89	0xbdd768c9	-0.10518033
90	0xbeceba8f	-0.40376708
91	0x3ea1a3d4	0.31570303
92	0x3e478d1d	0.19487424
93	0xbedc2569	-0.42997292
94	0xbeb01121	-0.34388068
95	0xbe2035b2	-0.15645483
96	0x3e8257a1	0.2545748
97	0x3dc9ef79	0.09860129
98	0x3cd1d000	0.025611877
99	0xbed460d7	-0.41480133
100	0x3e700c19	0.23442115
101	0xbf0b9518	-0.54524374
102	0xbdaeef6f	-0.08541762
103	0xbd94e7de	-0.07270788
104	0x3e36d58a	0.17854896
105	0xbe0b47f0	-0.1360166
106	0xbc90f9c6	-0.017697226
107	0xbe9282e4	-0.28615487
108	0xbde67809	-0.11253364
109	0xbe1c63a5	-0.15272386
110	0xbeb2d6ed	-0.349296
111	0xbe7db71d	-0.24776883
112	0xbedd50ee	-0.43225807
113	0x3cc51ce6	0.024061631
114	0xbee2dfa3	-0.44311246
115	0x3ea11fa3	0.3146945
116	0x3dcd0c47	0.10012107
117	0xbdb8c4bd	-0.090219
118	0xbd486344	-0.048922792
119	0xbe3e82fb	-0.18604653
120	0xbe27c5e2	-0.1638408
121	0xbe3a4068	-0.18188632
122	0x3e6719a4	0.22568375
123	0xbe953272	-0.2914005
124	0xbd2a7896	-0.041618906
125	0x3e69b933	0.22824554
126	0x3d0a8310	0.033816397
127	0xbe63364d	-0.22188683
128	0x3d676a01	0.056497578
129	0xbe9584ee	-0.2920298
130	0xbedc2d69	-0.43003395
131	0x3da57dda	0.08080645
132	0xbe88b943	-0.26703843
133	0x3f0c45a0	0.5479374
134	0xbeca9068	-0.39563298
135	0x3f018111	0.50587565
136	0x3e1fabb4	0.15592843
137	0xbe8f20fb	-0.2795485
138	0x3e35bd21	0.17747928
139	0xbb4387e0	-0.0029835626
140	0xbe938585	-0.28812805
141	0x3d302186	0.04300072
142	0xbdf32368	-0.118719876
143	0xbe1bbe8c	-0.15209407
144	0x3e91a087	0.28442785
145	0x3cea2457	0.028581781
146	0x3d645659	0.05574641
147	0x3e60ecf1	0.21965386
148	0xbdb34d6d	-0.08755002
149	0x3e5afa80	0.2138462
150	0x3e00430e	0.1252558
151	0xbe8496a5	-0.25896183
152	0xbe17add4	-0.14812404
153	0x3c26c73f	0.01017934
154	0xbe38a829	-0.18032898
155	0xbe7d7f88	-0.2475568
156	0x3e0e921d	0.13922925
157	0xbdd2de3c	-0.10296294
158	0xbe8bf42c	-0.27334726
159	0x3e30987b	0.17245667
160	0x3d393d8f	0.045224722
161	0xbd10fa1f	-0.035394784
162	0xbe10e1f5	-0.14148696
163	0x3f0d100a	0.551026
164	0xbdd481e9	-0.10376341
165	0x3ea220c3	0.3166562
166	0x3f0ca494	0.54938626
167	0x3e372065	0.17883451
168	0xbf104590	-0.56356144
169	0xbd0b3c26	-0.03399291
170	0x3d4be3e5	0.049777884
171	0x3daf4c8a	0.085595205
172	0x3eb3a71c	0.35088432
173	0xbd71e620	-0.059057355
174	0xbdd5eab4	-0.10445157
175	0x3e1270c2	0.14300826
176	0xbd8ba169	-0.06817896
177	0xbd96a462	-0.07355572
178	0xbdf7630e	-0.1207944
179	0x3dc9e94a	0.098589495
180	0x3e52e14a	0.20593753
181	0xbe6f03f8	-0.23341358
182	0x3cfafcce	0.030638125
183	0x3dea22b6	0.11432402
184	0xbc79fb9a	-0.01525774
185	0x3cad873c	0.021182649
186	0xbee0375c	-0.43792236
187	0xbd3eaa8b	-0.04654936
188	0xbdd786ea	-0.1052378
189	0xbeea71e4	-0.45790017
190	0xbc901043	-0.01758588
191	0x3dc0de10	0.09417355
192	0xbe9f48c7	-0.31110212
193	0xbd2ed5cb	-0.042684358
194	0x3cb56710	0.02214387
195	0xbf115739	-0.56773716
196	0xbe1f0565	-0.15529402
197	0xbd9261ac	-0.07147536
198	0x3de76295	0.112981
199	0xbe195550	-0.1497395
200	0xbd41a461	-0.047275905
201	0x3ecacdd2	0.39610153
202	0x3edab495	0.42715898
203	0x3ec15028	0.37756467
204	0xbe77839e	-0.24171302
205	0xbe2f3249	-0.17109026
206	0xbc92f14e	-0.017937329
207	0x3db27530	0.08713758
208	0x3f03cdae	0.5148572
209	0xbc20b761	-0.009809346
210	0x3b928201	0.004471064
211	0x3dbbb7f9	0.091659494
212	0x3eec5448	0.46158051
213	0xbe679b87	-0.22617923
214	0xbe181aac	-0.14853925
215	0x3ddb5306	0.10709195
216	0xbed92c5b	-0.42416653
217	0x3e8e9283	0.27846155
218	0x3e203419	0.15644874
219	0xbdf7659e	-0.12079929
220	0x3d3a89ab	0.045541447
221	0xbd95cd52	-0.07314552
222	0xbdfb2835	-0.12263528
223	0xbe38da94	-0.18052131
224	0xbe76dbc2	-0.24107268
225	0x3e612caa	0.21989694
226	0xbdab162f	-0.083538406
227	0xbe9d8f0e	-0.30773205
228	0xbced56c4	-0.028972037
229	0x3e8f5db8	0.2800119
230	0x391ce2fb	0.00014961876
231	0xbc1c707f	-0.0095483055
232	0x3df4c353	0.11951318
233	0x3dfe4b8f	0.124167554
234	0xbe7910de	-0.2432284
235	0xbe56b702	-0.2096825
236	0xbec1f142	-0.37879378
237	0xba1ce9a3	-0.00059857423
238	0xbeeafa93	-0.45894298
239	0x3da1596b	0.07878383
240	0x3d4712bb	0.048601847
241	0xbef19169	-0.47181252
242	0x3d01f17a	0.03172443
243	0xbdf2986f	-0.11845481
244	0xbe6cf5cd	-0.2314064
245	0x3db4c900	0.088274
246	0x3e79ed9a	0.24407044
247	0xbd53a17c	-0.051667675
248	0xbe21686f	-0.15762495
249	0x3ba1956b	0.004931142

output.weight f4 [4, 250]
0	0xbc628ee4	-0.013828013
1	0xbd207c4f	-0.03918105
2	0xbe99d10a	-0.30042297
3	0xbd8a974e	-0.0676714
4	0x3d037628	0.032095104
5	0xbf11316e	-0.5671605
6	0xbe95a64c	-0.29228437
7	0x3f6cc44f	0.92487043
8	0x3f0567d2	0.5211154
9	0xbe397f24	-0.18114907
10	0x3ce87fa0	0.028381169
11	0x3cf0dfee	0.029403653
12	0x3e4b3b9a	0.19846955
13	0xbd831c9d	-0.06401942
14	0x3d84e697	0.06489294
15	0x3e3bdc89	0.18345846
16	0xbcaafd14	-0.02087263
17	0x3d47386d	0.048637796
18	0xbd50624b	-0.05087499
19	0xbec3c499	-0.3823593
20	0x3da8aae9	0.082357235
21	0x3fbfea72	1.4993422
22	0xbe366f66	-0.17815933
23	0x3d89f592	0.06736292
24	0xbeb6d0bd	-0.3570613
25	0x3e6330a7	0.22186528
26	0xbe16d599	-0.14729919
27	0xbea9e9ca	-0.3318618
28	0x3deb6c16	0.11495225
29	0xbe8189d5	-0.2530047
30	0x3d812267	0.0630539
31	0x3e6f1f20	0.23351717
32	0xbe62dfcf	-0.22155689
33	0xbf0e90fb	-0.5568997
34	0xbed4cb93	-0.41561565
35	0xc056796c	-3.351161
36	0xbe1b78ce	-0.15182802
37	0xbf0dd9eb	-0.5541064
38	0x3d465d7f	0.04842901
39	0xbd881668	-0.06644899
40	0x3e55665f	0.20839833
41	0xbeabddb3	-0.3356758
42	0xbc7469a5	-0.014917766
43	0xbc808616	-0.015688937
44	0x3d691803	0.056907665
45	0xbcf394c9	-0.029734032
46	0x3e055337	0.13020025
47	0x3d902014	0.070373684
48	0x3ed2e89e	0.41193098
49	0xbdd49602	-0.10380174
50	0xbf6bc702	-0.92100537
51	0x3d25c3aa	0.040469803
52	0xbe47d374	-0.19514257
53	0x3ef8d722	0.48601633
54	0xbdc809ab	-0.09767469
55	0x3d171760	0.036887527
56	0xbd0ce205	-0.034395237
57	0xbd8926fa	-0.06696887
58	0x3ce2bc50	0.027677685
59	0x3f7a4988	0.9776845
60	0x3d766617	0.060155954
61	0xbeb293b5	-0.34878317
62	0x3c430400	0.011902809
63	0xbc095df6	-0.008384218
64	0xbd074892	-0.033028193
65	0x3cf76aed	0.030202353
66	0xbdb66075	-0.089051165
67	0xbe397971	-0.18112732
68	0x3e228dc5	0.15874393
69	0xbe5fb200	-0.21845245
70	0x3d14c796	0.036323152
71	0x3e814e49	0.2525504
72	0x3da0d142	0.07852413
73	0x3d7a6e92	0.061140604
74	0x3e9cdbb5	0.30636373
75	0x3ea56729	0.32305267
76	0x3cfe75b2	0.03106198
77	0x3cc1df5b	0.023666074
78	0xbd51fc52	-0.051266022
79	0xbda130f8	-0.07870668
80	0x3e9c2b6e	0.30501884
81	0x3d01a293	0.031649183
82	0x3bf8b52a	0.007589956
83	0xbd82cbcd	-0.06386528
84	0x3d91b564	0.07114676
85	0xbf4ea092	-0.8071376
86	0xbf365a5b	-0.7123162
87	0x3d439b57	0.047755565
88	0x3e075e9d	0.13219686
89	0xbf0fc315	-0.56157047
90	0xbe889e94	-0.26683486
91	0x3d8558de	0.06511091
92	0x3da00cf3	0.0781497
93	0x3d459bef	0.048244413
94	0x3e29a97e	0.16568562
95	0xbd5b01ae	-0.0534684
96	0xbf2fb734	-0.6863892
97	0x3fda3262	1.7046626
98	0x3c7921b6	0.015205791
99	0x3e0bbf39	0.13647164
100	0xbdaa3ab9	-0.08311982
101	0x3f4a261a	0.7896439
102	0xbd6787fb	-0.056526165
103	0x3cf4a800	0.029865265
104	0x3ee6c89f	0.45074937
105	0xbd75e3cb	-0.060031693
106	0xbe650794	-0.22366172
107	0xbf32294b	-0.6959426
108	0x3f2e177c	0.68004584
109	0x3e91f999	0.2851074
110	0xbfcf545a	-1.6197617
111	0xbfec5a0a	-1.8464978
112	0xbddfaf0c	-0.109220594
113	0x3ba89419	0.0051446077
114	0xbe83233f	-0.25612828
115	0x3c91fd62	0.017821018
116	0x3dab9329	0.08377678
117	0xbe27b4f9	-0.1637763
118	0x3df71570	0.12064636
119	0x3ead6460	0.33865643
120	0x3d502ddd	0.05082499
121	0x3c3a87e1	0.011384935
122	0xba0de55d	-0.0005412901
123	0xbda48ea7	-0.08035021
124	0xbdc4ef3d	-0.096159436
125	0xbe950d05	-0.29111496
126	0xbe9e8fbf	-0.30969045
127	0xbe96ec3a	-0.29477102
128	0xbe2fbb1c	-0.1716122
129	0x3f1e22f0	0.6177206
130	0x3ca000e0	0.019531667
131	0xbe2794b3	-0.16365318
132	0x3e43f95a	0.19138089
133	0x3e0a5892	0.1351035
134	0xbd95e96a	-0.07319911
135	0xbe38df00	-0.18053818
136	0xbe280ccd	-0.16411133
137	0xbd16d98a	-0.036828555
138	0xbe6124c8	-0.21986687
139	0xbe7f1000	-0.24908447
140	0xbea72572	-0.32645756
141	0x3e2882af	0.16456102
142	0xbd964a75	-0.0733842
143	0xbe2f6bdd	-0.1713099
144	0x3dc56175	0.09637729
145	0x3b8ef385	0.004362526
146	0xbb9add9d	-0.0047261254
147	0x3f31bfa0	0.6943302
148	0x3f28d824	0.65954804
149	0xbeb54870	-0.35406828
150	0xbe0743bb	-0.13209431
151	0xbc50988f	-0.012731685
152	0x3f2b2aeb	0.6686236
153	0x3cebaca6	0.028768849
154	0x3e2d180e	0.16903707
155	0x3d33889b	0.04383145
156	0x3e855c5c	0.26047027
157	0xbea3cd71	-0.31992677
158	0x3ecd2d62	0.40073687
159	0xbe007d80	-0.12547874
160	0x3e2b0b8d	0.16703625
161	0x3e0db4a6	0.13838443
162	0xbda28394	-0.07935253
163	0xbe4dedac	-0.20110196
164	0x3de1f921	0.11033846
165	0xbfbb45cf	-1.4630679
166	0x3e6886b6	0.22707638
167	0x3d576e41	0.05259538
168	0x3e04cbe6	0.12968406
169	0xbd8ea2eb	-0.06964668
170	0xbe1bc036	-0.15210041
171	0xbe930530	-0.28714895
172	0x3b191ae9	0.0023361987
173	0xbf24e316	-0.64409006
174	0xbdb8b524	-0.09018925
175	0xbda0b446	-0.078468844
176	0xbefaccb2	-0.48984295
177	0x3f19b2a3	0.60038203
178	0x3e07fcb3	0.13279991
179	0xc009f687	-2.1556718
180	0xbdad41e0	-0.0845983
181	0xbf76fda6	-0.96480787
182	0x3cba0acd	0.022710228
183	0xbd5d1819	-0.05397806
184	0xbe57c23c	-0.21070188
185	0x3e96ccc9	0.29453114
186	0x3e1e9e37	0.15490042
187	0xbd02e5ec	-0.03195755
188	0x38ae8864	8.322371e-05
189	0x3d362ba9	0.04447523
190	0xbe359959	-0.17734279
191	0x3bd55107	0.0065099034
192	0xbeae20c4	-0.34009373
193	0xbd000da9	-0.031263027
194	0xbf188236	-0.59573686
195	0xbd8ad24d	-0.06778393
196	0xbe8c61a1	-0.27418235
197	0x3e024413	0.12721281
198	0x3e1b1163	0.15143351
199	0xbd87119c	-0.065951556
200	0xbd2ed6fe	-0.0426855
201	0x3e1f69d8	0.1556772
202	0xbecec852	-0.40387207
203	0xbf5c5406	-0.8606571
204	0x3ecb0cbe	0.3965816
205	0x3d08cb32	0.033396907
206	0xbf172342	-0.59038174
207	0x3e335378	0.1751231
208	0x3c45c4b9	0.012070828
209	0xbf1b1084	-0.60572076
210	0x3bed86a3	0.007248716
211	0x3d2fee0e	0.042951636
212	0xbc99bbef	-0.018766372
213	0x3c8cccc5	0.017187485
214	0xbf3208ee	-0.69544876
215	0xbb19bc92	-0.0023458344
216	0xbbb3d8dc	-0.005488498
217	0xbec894f5	-0.39176145
218	0xbdf73c66	-0.12072067
219	0x3e3ee78b	0.18643014
220	0xbe8f60be	-0.28003496
221	0xbdcc9df0	-0.09991062
222	0x3f4571d4	0.7712681
223	0x3d54f3ac	0.051990196
224	0xbf0121ae	-0.50442016
225	0xbea5d41e	-0.32388395
226	0x3dc20fa4	0.094756395
227	0x3d9eea82	0.077595726
228	0xbd562c90	-0.05228859
229	0xbe99f776	-0.3007161
230	0xbdd13905	-0.10215954
231	0x3dfb6bf4	0.1227645
232	0x3d7b5e71	0.061369363
233	0xbd3e4a38	-0.0464575
234	0xbe9d2da8	-0.30698895
235	0xbe32ccf2	-0.17460993
236	0x3ebcfa38	0.36909652
237	0x3e2f2db1	0.17107274
238	0xbf37f5c6	-0.71859396
239	0xbd9062dd	-0.07050107
240	0xbf051fcf	-0.5200166
241	0xbf6768ab	-0.90394086
242	0xbe9fa307	-0.31179067
243	0xbda9f4bf	-0.08298635
244	0xbc15623c	-0.009117659
245	0xbb92a666	-0.0044754026
246	0x3dd2d777	0.10295003
247	0xbd840401	-0.06446076
248	0x3d596430	0.053074062
249	0xbd52edef	-0.051496442
250	0xbd02c860	-0.031929374
251	0x3ec145ea	0.37748653
252	0xbe621563	-0.22078471
253	0x3d99bdf6	0.07506935
254	0x3d460c01	0.04835129
255	0x3f623ce5	0.8837417

output.bias f4 [4]
0	0x3d0efb62	0.034907706
1	0x3d5588ca	0.052132405
2	0xbd41784b	-0.04723386
3	0xbcf3c44b	-0.029756686
