milestone2/models/weights/model_0.pth (torch, 60011 bytes, 6 tensors)

linear1.weight f4 [50, 13]
-0.30712453 -1.499613 -0.22711627 0.11889399 -0.047810346 -0.18223739 0.23524086 0.0061331806
0.16443828 -0.23843984 1.061699 -0.16754614 -1.2468486 -0.32028165 -1.3746413 -0.18184583
-1.1371703 -1.1213477 -0.8280625 -1.3260844 -0.71190345 -0.8160739 0.8519719 -1.2015078
0.06601977 5.6445265 1.9230758 0.51176625 -0.669338 -0.4983314 -0.7227837 -0.57371175
-0.76788425 -0.49484524 0.3657348 0.11239041 -1.0591978 0.09059788 7.585616 -0.6747114
0.22445059 -1.1455212 -0.40929 -0.18809155 -1.1430147 -0.04586346 -0.5395679 1.051052
0.052549653 0.43995008 -0.24659069 -1.0794317 0.352819 -1.5518285 -1.1304306 0.07715925
0.5700127 0.42492884 -0.02720893 0.19738017 1.1300387 0.0267856 -0.013151198 0.15649223
6.4546094 0.13086957 -4.6978455 -1.3671994 -0.028049411 0.09337993 -0.05103126 0.3364762
0.83650535 0.4097419 -0.075932644 -0.27279407 0.24368308 1.4446517 0.046987187 -1.1623493
-0.86481774 0.35101706 0.22718447 0.05807854 0.357898 0.23136462 0.4060859 0.5702946
0.29077452 -0.2827369 0.14141752 -0.38700017 -0.055027775 -0.5731311 -0.37225592 -0.3470844
-0.8430482 -0.41659325 -0.13450119 -0.027606515 0.01884408 0.10395925 -0.22974956 -0.7193712
-0.24037728 0.15939571 0.028307475 0.028381495 -0.0058968156 -0.14100961 0.100384444 -0.102494135
-0.23463966 -0.16303205 0.026533514 -0.01672528 -0.31939262 -0.188658 -0.41031292 -0.020279381
-0.271613 -0.16537887 -0.34300068 -0.3361404 -0.30560723 -0.29143623 0.12327491 -0.15147567
-0.05024155 0.08622035 -0.87063825 1.4847821 -1.5160394 -0.16068958 0.39345077 -1.725423
0.20373173 -0.13043714 0.6057319 0.19584326 -0.28383848 -0.07046202 -1.8124411 -0.24489495
3.102461 -1.3800851 0.054790985 1.0168827 -0.28539458 0.5923087 0.34353787 2.2878222
0.24478433 0.9816715 0.038252484 -1.7101076 -0.060528994 -0.21828473 -0.48785847 -0.01716676
-0.39807385 -0.4388994 -0.2595943 -0.10371603 0.16106117 -0.3733587 -0.52072126 -0.07022746
-0.7897554 -0.17827997 -0.5485802 -0.4853305 -0.5386068 -0.043623284 -0.3608735 -0.51731807
0.051471446 0.043474015 -0.17210282 0.7225566 -0.3710784 -0.4468705 -1.5304732 2.5116527
0.25765267 0.29168168 0.13910626 0.72495186 1.0876713 0.9362595 -2.170178 0.572509
1.0710046 0.08346265 -4.2380137 -0.9091191 0.105414055 0.09320486 -0.07932941 -0.59709483
-0.15165682 -0.17011724 -0.11075455 -2.630946 0.35151917 0.36504218 -0.29545492 -0.513087
-0.28850597 -2.4948843 -2.606521 0.23090622 0.21898936 -0.5718885 0.3813641 0.38797268
0.98021144 -0.04928318 2.7470815 -0.014366519 -0.92217934 0.044176273 -0.32070428 -1.7536736
-0.11256796 -0.31967837 -0.9148661 -0.39183757 0.17191418 -0.10628645 -0.75959194 -0.06599563
-0.056579284 -1.195149 -0.15207434 0.15846428 -0.16501646 -0.27673945 -0.20571697 -0.35185647
-0.07869656 -0.22932304 -0.3303861 -0.37230366 -0.05231362 0.014532182 -0.13329005 -0.58257306
-0.5927896 -0.0004728832 -0.45793265 -0.21477427 -0.10262707 -0.3821548 -0.23400481 -0.8058519
00000000: 6d3f 9dbe 52f3 bfbf 2b91 68be b17e f33d
00000010: c8d4 43bd 709c 3abe fbe2 703e d9f8 c83b
00000020: 8262 283e 9329 74be c1e5 873f 3791 2bbe
00000030: bc98 9fbf f5fb a3be 3ff4 afbf cb35 3abe
00000040: cc8e 91bf 5288 8fbf e7fb 53bf 22bd a9bf
00000050: 4e3f 36bf 38ea 50bf d51a 5a3f 02cb 99bf
00000060: 6035 873d f69f b440 5927 f63f 1d03 033f
00000070: bc59 2bbf 4b25 ffbe 5a08 39bf c6de 12bf
00000080: 1094 44bf 5b5c fdbe 9741 bb3e f12c e63d
00000090: cb93 87bf 628b b93d 5ebd f240 e3b9 2cbf
000000a0: 60d6 653e 70a0 92bf 758e d1be 129b 40be
000000b0: 4e4e 92bf 53db 3bbd 1f21 0abf df88 863f
000000c0: 4e3e 573d 2341 e13e 4582 7cbe d12a 8abf
000000d0: b1a4 b43e 51a2 c6bf f3b1 90bf ab05 9e3d
000000e0: 5aec 113f 4690 d93e 43e5 debc 071e 4a3e
000000f0: 1ca5 903f 7a6d db3c 1f78 57bc 803f 203e
00000100: 298c ce40 ac02 063e c054 96c0 6400 afbf
00000110: e1c7 e5bc fa3d bf3d 2806 51bd 9c46 ac3e
00000120: 3725 563f b1c9 d13e 9382 9bbd aaab 8bbe
00000130: 0f88 793e 59ea b83f a375 403d ddc7 94bf
00000140: b264 5dbf 82b8 b33e 0ca3 683e c3e3 6d3d
00000150: 683e b73e d9ea 6c3e 7eea cf3e d4fe 113f
00000160: 66e0 943e e4c2 90be c1cf 103e e324 c6be
00000170: ce64 61bd b8b8 12bf 5498 bebe 0cb5 b1be
00000180: 02d2 57bf b64b d5be aeba 09be 0f27 e2bc
00000190: e65e 9a3c 96e8 d43d 7843 6bbe b628 38bf
000001a0: 7625 76be a138 233e 14e5 e73c 4f80 e83c
000001b0: 133a c1bb d364 10be 5c96 cd3d 72e8 d1bd
000001c0: 6145 70be e0f1 26be d05c d93c 7403 89bc
000001d0: 6e87 a3be 902f 41be 8914 d2be f220 a6bc
000001e0: dc10 8bbe 1459 29be c99d afbe 981a acbe
000001f0: 8d78 9cbe 2137 95be 8e77 fc3d 701c 1bbe
00000200: 15ca 4dbd 4b94 b03d 26e2 5ebf 570d be3f
00000210: 940d c2bf cf8b 24be 6172 c93e a9da dcbf
00000220: 0d9f 503e 5091 05be 3f11 1b3f 238b 483e
00000230: 4753 91be 644e 90bd 12fe e7bf bec5 7abe
00000240: b98e 4640 a1a6 b0bf 836c 603d 3629 823f
00000250: 3d1f 92be 8ba1 173f 32e4 af3e ae6b 1240
00000260: bea8 7a3e d34e 7b3f a3ae 1c3d cee4 dabf
00000270: 40ed 77bd 0886 5fbe 96c8 f9be 4ea1 8cbc
00000280: 56d0 cbbe 6cb7 e0be 8be9 84be 1269 d4bd
00000290: 38ed 243e df28 bfbe fd4d 05bf 6ad3 8fbd
000002a0: 692d 4abf 068f 36be c16f 0cbf 3d7d f8be
000002b0: 23e2 09bf 54ae 32bd 69c4 b8be f56e 04bf
000002c0: b9d3 523d cf11 323d b93b 30be 78f9 383f
000002d0: fdfd bdbe 36cc e4be 8ce6 c3bf ebbe 2040
000002e0: 0deb 833e 4d57 953e df71 0e3e 7296 393f
000002f0: d038 8b3f b4ae 6f3f 32e4 0ac0 f38f 123f
00000300: ae16 893f 77ee aa3d cf9d 87c0 08bc 68bf
00000310: 53e3 d73d 31e2 be3d 7577 a2bd 35db 18bf
00000320: ed4b 1bbe 3733 2ebe 48d3 e2bd 6b61 28c0
00000330: 52fa b33e cfe6 ba3e de45 97be ab59 03bf
00000340: 0eb7 93be 2fac 1fc0 3dd1 26c0 ae72 6c3e
00000350: bf3e 603e 4967 12bf 2842 c33e 5ba4 c63e
00000360: 23ef 7a3f 29dd 49bd 2fd0 2f40 8c61 6bbc
00000370: f213 6cbf 2ef2 343d 5a33 a4be 6078 e0bf
00000380: 088a e6bd e2ac a3be aa34 6abf ef9e c8be
00000390: 450a 303e b6ac d9bd 9e74 42bf b828 87bd
000003a0: aebf 67bd a4fa 98bf 60b9 1bbe 7644 223e
000003b0: 13fa 28be cbb0 8dbe 78a7 52be 8826 b4be
000003c0: a92b a1bd a9d3 6abe 5e28 a9be 969e bebe
000003d0: ce46 56bd 6418 6e3c 307d 08be 8223 15bf
000003e0: 0fc1 17bf 4fed f7b9 2676 eabe c9ed 5bbe
000003f0: 242e d2bd cba9 c3be f59e 6fbe 4f4c 4ebf

linear1.bias f4 [50]
-0.16537035 -0.8890352 0.10963641 -0.9258744 0.3697035 0.036232796 0.2722895 -0.47999623
-0.3239199 -0.41886714 -1.1228477 -0.41565058 -0.19463764 -0.6230045 0.4669376 0.05239529
-0.43666163 -0.6871276 -0.035198476 -0.44219485 -0.22163372 -0.6245007 -0.92257154 -0.3934753
-0.40271226 -0.6387229 -0.46586883 -0.16709583 -0.21499252 -0.23182777 -1.3334308 -0.13211246
0.73755777 -0.17164809 -0.31181055 -0.02199997 -0.35909238 -0.450055 -0.31800875 -0.004647304
-0.095236935 -0.18066034 0.06534234 0.6853037 -0.032731615 0.014387613 -0.36180472 -0.30150196
-0.1028626 0.1050671
00000000: d856 29be d097 63bf 0e89 e03d 1b06 6dbf
00000010: c749 bd3e d768 143d 8869 8b3e 11c2 f5be
00000020: d4d8 a5be c175 d6be 79b9 8fbf 27d0 d4be
00000030: 174f 47be 397d 1fbf 7212 ef3e 729c 563d
00000040: 1d92 dfbe 98e7 2fbf 472c 10bd 5d67 e2be
00000050: f3f3 62be 47df 1fbf a62d 6cbf 9875 c9be
00000060: 4d30 cebe 5883 23bf 5c86 eebe 2b1b 2bbe
00000070: 0027 5cbe 4264 6dbe dcad aabf 7d48 07be
00000080: 96d0 3c3f 84c4 2fbe a2a5 9fbe 4839 b4bc
00000090: f5da b7be 9c6d e6be 0bd2 a2be 6948 98bb
000000a0: 950b c3bd 06ff 38be 34d2 853d 1070 2f3f
000000b0: 9611 06bd 06ba 6b3c 783e b9be 775e 9abe
000000c0: a0a9 d2bd 6b2d d73d

linear2.weight f4 [250, 50]
0.060550515 -0.46935678 -0.43364933 -0.061630093 -0.39676115 -0.38108888 -0.12186689 -0.06520079
-0.009291888 0.055540144 -0.29283607 -0.49255463 -9.460359e-05 -0.015714388 -0.37387624 0.005111447
0.22581337 0.042163324 -0.18282224 -0.17022572 -0.19251835 0.19631301 -0.12543677 -0.099241115
-0.10669157 0.3441571 0.037782304 -0.07920603 0.07476887 0.03725616 0.13308069 -0.038241815
-0.5823792 -0.16195019 -0.1858601 0.020949902 -0.18082449 -0.08685415 -0.101625316 0.18674447
-0.03499062 -0.0172467 0.02214203 0.03708104 -0.22858796 -0.15232341 0.0032334542 -0.13016145
0.06171526 -0.31992468 0.18049838 0.23014037 0.21811436 0.0012910889 0.2836593 0.1585816
-0.06823795 0.16820799 -0.063316904 0.06516649 0.4508963 0.21018165 0.063255705 0.06808566
0.19521824 0.23629734 -0.02227695 0.1990223 0.027100004 0.18927209 0.07602038 -0.04158114
0.1544809 0.5207552 0.1428428 0.017610013 0.40259808 0.09480191 0.13903569 0.07170889
0.341443 0.06023013 0.033924427 0.1310702 0.21573079 0.025337271 -0.09440671 0.19376683
-0.17393368 0.046131857 -0.051760178 0.25030798 -0.05375765 -0.038918417 0.5000577 0.105893016
0.017187335 0.18358733 0.056843936 0.17164826 0.12567258 -0.25512907 0.34644532 1.7681714
0.3735309 0.10109422 0.31462634 0.03762302 0.18085134 0.03452202 0.82323337 2.2327437
-0.13699234 0.05777584 -1.1788884 -0.36820516 0.56441385 0.2923604 -0.14059035 -0.24211921
0.31895941 0.034556404 0.7417801 -0.13899839 0.30174476 -0.069189064 -0.34575793 0.03834988
0.018878222 -0.059244603 -0.5007256 0.02417737 1.4311324 -0.11326871 0.13578026 0.23149976
0.113271594 0.2942132 0.06409093 0.1972733 0.045592062 -0.2455536 -0.18241234 -0.7274322
-0.094979905 -0.11858915 0.56776136 0.37413335 0.10877694 -1.9657393 0.10683699 -0.15229946
-0.22355974 -0.12595323 -0.1177388 0.05878343 -0.008992039 0.032064497 -0.0054223104 0.09498084
-0.06465594 -0.042923063 0.12754703 0.19053558 -0.12369891 -0.076963946 -0.17206943 -0.0024657247
-0.036556754 -0.1556009 0.008457395 0.08677095 0.2198298 -0.05437378 -0.13919231 0.12480203
0.0037444863 -0.06976028 0.03650607 -0.0955105 -0.14272423 -0.12627076 -0.10066461 -0.122565836
0.05448619 -0.2848894 0.12833725 -0.13395825 -0.2202849 -0.030786512 -0.045987096 0.008800669
0.14238185 0.0026404224 -0.00017520832 0.11154086 -0.02727665 -0.06561716 -0.03698647 -0.18030068
-0.21325862 0.26469448 -0.29625222 -0.57240224 0.249717 -0.34482944 0.09605739 -0.17826538
0.074101694 -0.053248696 -0.51148313 -0.8303806 0.057576187 -0.22823633 -1.4891399 -0.44164264
0.17143753 -0.38638046 0.028109925 -0.013122213 0.24325114 -0.022403026 0.07262835 0.070614815
0.1654465 -0.113840275 -0.35714838 -0.090956315 -0.11900753 -0.07628649 -0.7125781 -0.11368708
-0.8878033 -0.13248205 -0.081064776 0.42776656 -0.013616018 -0.662062 0.12201719 -0.17353241
-0.20587842 0.19167118 0.017321797 -0.930362 -0.11352316 0.008650219 0.08662675 0.17128003
-0.03460796 -0.91650283 -0.006404278 -0.21299094 0.0057400456 0.024875505 -0.20300098 0.04307252
00000000: d103 783d 884f f0be 4907 debe d66f 7cbd
00000010: 4724 cbbe 151e c3be 5995 f9bd fe87 85bd
00000020: 013d 18bc 107e 633d 9cee 95be 1f30 fcbe
00000030: ea65 c6b8 76bb 80bc b56c bfbe ed7d a73b
00000040: 9f3b 673e 73b3 2c3d c135 3bbe a74f 2ebe
00000050: 8823 45be 4706 493e 7f72 00be ed3e cbbd
00000060: 1c81 dabd 5c35 b03e 9ec1 1a3d c536 a2bd
00000070: 6c20 993d ea99 183d 4e46 083e 73a3 1cbd
00000080: ce16 15bf 45d6 25be 1c52 3ebe 219f ab3c
00000090: 0e2a 39be 97e0 b1bd ef20 d0bd f139 3f3e
000000a0: 5352 0fbd f448 8dbc 3463 b53c 4ae2 173d
000000b0: f612 6abe abfa 1bbe 5ce8 533b 0b49 05be
000000c0: 24c9 7c3d 2bcd a3be 91d4 383e eba9 6b3e
000000d0: 5f59 5f3e c139 a93a cb3b 913e 3763 223e
000000e0: 57c0 8bbd b73e 2c3e 4bac 81bd 0276 853d
000000f0: e1db e63e dc39 573e 358c 813d 7f70 8b3d
00000100: 4ae7 473e eef7 713e 267e b6bc 80cc 4b3e
00000110: d400 de3c 8bd0 413e 93b0 9b3d fc50 2abd
00000120: 3e30 1e3e 3650 053f 6245 123e e042 903c
00000130: 5621 ce3e 8127 c23d 5f5f 0e3e 1cdc 923d
00000140: 9ed1 ae3e deb3 763d 57f4 0a3d 4437 063e
00000150: 88e8 5c3e 1c90 cf3c 4e58 c1bd d06a 463e
00000160: ac1b 32be c2f4 3c3d 7b02 54bd 5e28 803e
00000170: fb30 5cbd eb68 1fbd c803 003f 70de d83d
00000180: 74cc 8c3c 51fe 3b3e 30d5 683d 90c4 2f3e
00000190: 50b0 003e 47a0 82be 4861 b13e 7153 e23f
000001a0: 713f bf3e 7d0a cf3d b416 a13e 991a 1a3d
000001b0: 1831 393e f666 0d3d 6cbf 523f 46e5 0e40
000001c0: b847 0cbe 5ca6 6c3d d1e5 96bf 6385 bcbe
000001d0: 6d7d 103f 43b0 953e ebf6 0fbe 19ee 77be
000001e0: a64e a33e 048b 0d3d 4de5 3d3f 9855 0ebe
000001f0: 4a7e 9a3e ffb2 8dbd 2f07 b1be c414 1d3d
00000200: 80a6 9a3c 78aa 72bd 8e2f 00bf 9f0f c63c
00000210: 592f b73f 6df9 e7bd fb09 0b3e 460e 6d3e
00000220: f0fa e73d 1da3 963e 1b42 833d 0302 4a3e
00000230: bebe 3a3d 6772 7bbe 4dca 3abe ff38 3abf
00000240: d384 c2bd dede f2bd cf58 113f 688e bf3e
00000250: 72c6 de3d 589d fbbf 5acd da3d 64f4 1bbe
00000260: d8ec 64be e2f9 00be 0a21 f1bd e5c6 703d
00000270: 5853 13bc 1056 033d a3ad b1bb 5185 c23d
00000280: 556a 84bd 18d0 2fbd b09b 023e c21b 433e
00000290: db55 fdbd 469f 9dbd f832 30be ff97 21bb
000002a0: 89bc 15bd d855 1fbe e390 0a3c f8b4 b13d
000002b0: 101b 613e 0ab7 5ebd 6e88 0ebe 3598 ff3d
000002c0: 0e66 753b 7ade 8ebd 6487 153d 029b c3bd
000002d0: 4d26 12be 1f4d 01be 3f29 cebd cc03 fbbd
000002e0: e92c 5f3d 06dd 91be d76a 033e 5a2c 09be
000002f0: 5d92 61be ff33 fcbc f75c 3cbd ae30 103c
00000300: 8ccc 113e f00a 2d3b 20b8 37b9 896f e43d
00000310: 4873 dfbc 4a62 86bd 207f 17bd bea0 38be
00000320: 7860 5abe 0986 873e 5fae 97be f488 12bf
00000330: d0b5 7f3e 7c8d b0be bdb9 c43d 338b 36be
00000340: a1c2 973d 4e1b 5abd 8ff0 02bf d393 54bf
00000350: 02d5 6b3d c9b6 69be 239c bebf fc1e e2be
00000360: 528d 2f3e a9d3 c5be c946 e63c 8dfe 56bc
00000370: d416 793e 8d86 b7bc 2cbe 943d 809e 903d
00000380: cf6a 293e 1725 e9bd 27dc b6be 4e47 babd
00000390: 38ba f3bd 173c 9cbd 856b 36bf c6d4 e8bd
000003a0: 1447 63bf 60a9 07be 4a05 a6bd 3804 db3e
000003b0: b815 5fbc e57c 29bf 26e4 f93d 7bb2 31be
000003c0: cbd1 52be 7345 443e 71e6 8d3c 342c 6ebf
000003d0: d57e e8bd a6b9 0d3c 5e69 b13d 0864 2f3e
000003e0: 14c1 0dbd ee9f 6abf fada d1bb 4c1a 5abe
000003f0: fe16 bc3b b7c7 cb3c 7ddf 4fbe d06c 303d

linear2.bias f4 [250]
-0.40576476 0.23627983 -1.0413078 -0.043583453 -0.39894143 -0.3994627 -1.135296 1.4879028
0.1428118 -1.0874507 -2.5782526 0.22824188 -0.055892758 -0.06714276 0.007588373 -0.021890353
0.13528822 0.28048533 -0.06433341 1.7322693 -0.67092067 -0.21239407 -0.1812886 -0.1322301
1.4314336 -0.42098773 -0.38208058 0.44488493 0.19072272 -0.6365558 -0.21666765 -0.95061326
-1.1516182 -0.9574744 -0.08540048 0.63395417 0.7073267 0.068183124 -0.10849968 0.39025244
-0.39264593 -0.75255144 0.07847995 0.094754815 0.09028777 -0.61082786 0.74704856 -0.7053507
-0.05175278 -0.13820818 -1.0248234 -1.6948371 -1.0443327 -0.25830522 -0.24129845 0.18350756
-0.48327997 -0.65549684 0.24671288 1.1110803 -0.5269351 -0.083330125 -0.58746326 -0.43344733
-0.19178677 -0.44716212 1.1621381 -0.30784535 0.0457213 -0.8676801 -0.5726691 -1.1137966
0.22041635 0.58497876 0.019173143 -0.06573982 0.098920844 -0.34087434 -0.23106828 0.01616618
-0.17800707 -0.15625872 -0.13513845 -0.44101918 -0.46329108 0.090947874 0.032799423 1.2885765
0.43679842 -0.013344358 -0.7489528 -0.01621962 1.0916786 -0.30710313 0.77934587 -0.5721685
0.4957057 -0.4086191 -0.40146288 -0.5250612 0.7134352 -0.53520215 -0.46580055 -0.13299003
0.31719154 -0.13331968 1.0406545 0.4534773 1.0588177 -0.21228698 0.009021362 -0.39453843
-0.059847567 0.46868265 0.24357837 -0.30374014 0.0007986774 -0.84067535 -0.20083843 -0.15902646
-1.6780245 0.45785162 -1.0636328 -0.45922562 -0.25977066 0.08970308 0.42780548 0.4626687
0.065215014 -0.7949517 0.43911982 -0.32006678 0.43032855 0.16022736 -0.4201403 0.37809417
-0.6882773 -0.32948494 0.84589314 -1.2428558 -0.39055738 -0.21536183 -0.02661599 0.19061112
-0.057128046 0.35324588 0.30388796 -1.276089 0.02006887 -0.2715939 0.7175969 -0.3636617
-0.29256585 -0.12602678 -0.455703 -0.39463183 0.12781973 -0.35210901 -0.5664692 -1.2635579
-0.3347721 1.0028136 -0.3245561 1.348567 0.08624222 -0.66990334 -0.3345242 -0.5828181
-0.17239377 -0.9338784 0.3559547 -0.22750963 -0.09871 -0.37212223 -0.62821484 -1.3688936
-1.0491501 -1.1064216 -0.5155148 -0.29608357 -0.1499798 -0.36922923 1.9722059 -0.113811195
-2.5788271 -0.14553902 -0.7691404 0.097930886 -0.57096845 -0.778006 0.25609484 -0.043093484
0.1841454 -0.051116835 -0.3136781 -0.18052065 -0.21473071 -0.9671119 -0.027439034 -0.40017146
0.12684743 -0.07657157 0.26651108 -0.07297069 -0.1887318 -0.23630497 0.41165137 0.07455347
0.29855216 1.2318065 -0.32630318 0.6993854 0.13346252 -0.22457567 -0.3731968 -0.47475538
-0.9295509 0.15063985 0.27227637 -0.2552002 0.031172441 -0.60295784 -0.2732178 -0.19821237
-0.28186893 -0.2377489 -1.8312198 0.34774393 0.7786235 -0.21030933 -0.70305943 -0.6994078
0.6328626 -0.8411933 -0.113759875 -0.07419067 -0.28421962 -0.36048803 -0.13783345 -0.27158406
1.0262207 0.5304388 -1.6894296 0.03736893 -1.0213834 -0.16957554 0.061268717 0.11174867
-0.31868544 -0.02089369
00000000: 66c0 cfbe 57f3 713e 9349 85bf 9084 32bd
00000010: 0d42 ccbe 6086 ccbe 6151 91bf 9973 be3f
00000020: 423d 123e 9631 8bbf 1702 25c0 3db8 693e
00000030: ceef 64bd 2582 89bd e3a7 f83b 6653 b3bc
00000040: ff88 0a3e c69b 8f3e 3cc1 83bd 00bb dd3f
00000050: 75c1 2bbf d57d 59be b8a3 39be 5467 07be
00000060: 3739 b73f b48b d7be 11a0 c3be f5c7 e33e
00000070: d14c 433e 52f5 22bf 20de 5dbe 645b 73bf
00000080: 3a68 93bf 0b1d 75bf 72e6 aebd d24a 223f
00000090: 5d13 353f 98a3 8b3d 1535 debd 2bcf c73e
000000a0: e308 c9be 36a7 40bf 19ba a03d d00e c23d
000000b0: cbe8 b83d 375f 1cbf 933e 3f3f dd91 34bf
000000c0: b9fa 53bd 7286 0dbe 6a2d 83bf 6cf0 d8bf
000000d0: b2ac 85bf 9540 84be f116 77be 68e9 3b3e
000000e0: 7970 f7be a4ce 27bf 4da2 7c3e e137 8e3f
000000f0: 38e5 06bf fca8 aabd fe63 16bf cfec ddbe
00000100: c063 44be 6ff2 e4be f1c0 943f e89d 9dbe
00000110: 4246 3b3d 4820 5ebf 719a 12bf e390 8ebf
00000120: d3b4 613e 2bc1 153f ff10 9d3c 99a2 86bd
00000130: 0397 ca3d 1587 aebe 2a9d 6cbe f06e 843c
00000140: 7c47 36be 4902 20be bc61 0abe 44cd e1be
00000150: 7d34 edbe e142 ba3d b058 063d 13f0 a43f
00000160: 0ba4 df3e 4ba2 5abc 5fbb 3fbf 02df 84bc
00000170: 20bc 8b3f 9f3c 9dbe 3683 473f a379 12bf
00000180: 23cd fd3e 8636 d1be 8b8c cdbe 696a 06bf
00000190: b0a3 363f 0203 09bf 697d eebe 8a2e 08be
000001a0: ee66 a23e f484 08be 2b34 853f 2d2e e83e
000001b0: 5787 873f c261 59be 56ce 133c f100 cabe
000001c0: b922 75bd 2cf7 ef3e 9c6c 793e d483 9bbe
000001d0: 555e 513a 8036 57bf 97a8 4dbe d5d7 22be
000001e0: 82c9 d6bf 876b ea3e 1f25 88bf 9f1f ebbe
000001f0: a900 85be 40b6 b73d 5209 db3e e9e2 ec3e
00000200: 738f 853d f481 4bbf 50d4 e03e cbdf a3be
00000210: 0654 dc3e a412 243e a11c d7be 8f95 c13e
00000220: f132 30bf 40b2 a8be 748c 583f e615 9fbf
00000230: 23f7 c7be d087 5cbe c709 dabc 902f 433e
00000240: 19ff 69bd a5dc b43e 3497 9b3e e256 a3bf
00000250: 7967 a43c 5b0e 8bbe 6eb4 373f de31 babe
00000260: 31cb 95be 2a0d 01be e751 e9be 2f0d cabe
00000270: 2de3 023e a247 b4be 2004 11bf 44bc a1bf
00000280: 4067 abbe 325c 803f 382c a6be d89d ac3f
00000290: c39f b03d c97e 2bbf c246 abbe 9133 15bf
000002a0: fe87 30be a812 6fbf b23f b63e 49f8 68be
000002b0: 7828 cabd ce86 bebe b0d2 20bf e837 afbf
000002c0: 8d4a 86bf 399f 8dbf c7f8 03bf 4498 97be
000002d0: 4e94 19be 9d0b bdbe 3e71 fc3f d815 e9bd
000002e0: 810b 25c0 2e08 15be 63e6 44bf fd8f c83d
000002f0: fd2a 12bf 672b 47bf dd1e 833e cb82 30bd
00000300: 9d90 3c3e e35f 51bd 6a9a a0be 68da 38be
00000310: 5ee2 5bbe a594 77bf d3c7 e0bc 46e3 ccbe
00000320: 4be4 013e 8ed1 9cbd 2474 883e a871 95bd
00000330: e942 41be eef9 71be f8c3 d23e 7daf 983d
00000340: d4db 983e d6ab 9d3f 3611 a7be ec0a 333f
00000350: 66aa 083e 2af7 65be a713 bfbe 2313 f3be
00000360: 0cf7 6dbf 5541 1a3e cf67 8b3e 9aa9 82be
00000370: 595d ff3c 725b 1abf 34e3 8bbe 2ff8 4abe
00000380: 2051 90be 7374 73be 6965 eabf 7e0b b23e
00000390: df53 473f 545b 57be b4fb 33bf 640c 33bf
000003a0: 4903 223f 7258 57bf f0fa e8bd 47f1 97bd
000003b0: 3c85 91be e391 b8be 3624 0dbe 110d 8bbe
000003c0: 335b 833f d6ca 073f 3b3f d8bf 2a10 193d
000003d0: b1bc 82bf 36a5 2dbe e8f4 7a3d 7ddc e43d
000003e0: bd2a a3be 3e29 abbc

output.weight f4 [4, 250]
-0.24946937 -0.03916163 0.08720271 0.29123846 -0.49707028 -0.019307265 0.7067386 -0.015424678
-0.013479946 0.25460407 0.5370102 0.009808779 -0.030296125 -0.37212232 -0.21595117 -0.0167399
0.109367065 -0.111609586 -0.093561135 -0.10595025 0.39641234 -0.09115987 -0.009944163 -0.06950228
-0.43784767 -0.66192764 -0.0055779093 -0.08444036 -0.05529632 -0.037551627 -0.011391672 1.211985
0.17275359 -0.12013729 -0.07174778 -0.025510108 -0.04333599 -0.03427156 0.04442945 -0.091764696
-0.12813829 -0.02907688 -0.111059606 0.00069043034 -0.011501397 -0.41036242 0.18802938 -0.18794335
-0.010364107 -0.019581325 -0.44273594 0.6286036 -0.0072762473 -0.027128061 -0.058175363 0.22813414
0.17251231 0.08491161 0.06918658 0.11372998 -0.39438584 -0.010115414 0.04196413 -0.0018387277
0.030209454 0.08718815 0.02932374 -0.15654188 -0.04318708 0.075751096 0.3820652 -0.15694311
-0.06996095 -0.5468808 0.019460632 -0.022723468 -0.010196843 -0.070916735 -0.45037717 -0.015301634
-0.031693254 -0.03087406 0.2021922 -0.015051665 0.10015954 -0.105681024 -0.15533794 0.029014517
0.17791967 0.1223106 -0.15287769 -0.042473193 -0.024335617 -0.042227782 0.09124324 -0.08933953
-0.02495895 -0.084994525 -0.097251266 0.03449488 0.27707338 -0.11268727 -0.3589469 0.015480925
-0.26142493 0.014149416 -0.17165849 0.07747387 0.028695585 -0.06898598 -0.062414214 -0.8723767
-0.09147213 0.16739473 -0.08370388 -0.021711105 -0.17357093 0.3664564 0.27732992 -0.25476915
-0.14012477 -0.11996491 1.6811082 0.067094445 0.015384798 -0.07700584 0.045551516 -0.15417957
-0.11390875 -0.5211046 -0.0276717 -0.0024463467 -0.054209314 0.2515638 -0.06319624 0.095758356
-0.5854361 -0.3024194 -0.49340522 0.18911722 -0.13435753 0.30972224 -0.030338127 0.0028577764
-0.0045928075 -0.46580854 -0.08294954 0.7373945 -0.030690739 0.13137682 -0.026643328 -0.012775874
0.095063545 -0.004975668 0.32338035 -0.056133013 -0.08181799 0.18510126 -0.106783286 -0.4693413
0.4310083 0.004107222 0.025102673 -0.010348823 -0.10879837 -0.22667487 0.18797322 0.25192812
-0.004218074 -0.7269532 0.108897194 -0.031073121 -0.0018908987 -0.026048372 0.19607525 0.4158739
0.17653441 -0.71749955 -0.0037716234 -0.08283648 -0.008396803 -0.16638076 -0.13559055 -0.015054711
0.28805545 0.1403409 0.58706456 0.001032957 -0.09111081 0.342422 -0.006572435 0.091952495
-0.24773298 0.0437553 0.12211466 -0.048702575 -0.21796802 1.0033145 0.09092189 -0.12525636
-0.058815405 -0.014182573 -0.06023155 -0.07566552 -0.01247369 0.4035625 -0.12192243 -0.08251065
0.1317065 0.055661086 -0.045861878 0.08085042 0.005414498 -0.61875945 -0.3931865 -0.2461822
-0.22143024 0.12185654 -0.07576773 -0.062307645 -0.07105825 -0.08930319 -0.0022998082 -0.031839415
-0.29959264 -0.6449731 -0.32729873 0.37016976 -0.073078714 -0.089950696 -0.50477743 0.48515028
-0.05221181 -1.0665469 -0.053215276 -0.11497254 -0.055532 -0.05988704 -0.005008782 -0.12307913
-0.11477773 0.0020489274 -0.3411602 0.013974531 -1.4866207 -0.01650119 -0.026192091 -0.09042798
0.011404698 0.013063807 0.42689598 -0.09001284 -0.2122668 0.09929771 -0.11208637 -0.02649112
00000000: e674 7fbe f267 20bd 5697 b23d 351d 953e
00000010: ff7f febe 452a 9ebc d2ec 343f cab7 7cbc
00000020: feda 5cbc 775b 823e 8079 093f 00b5 203c
00000030: 942f f8bc d186 bebe 4e22 5dbe 1d22 89bc
00000040: d7fb df3d 9193 e4bd fb9c bfbd 72fc d8bd
00000050: 8ff6 ca3e 07b2 babd d8ec 22bc 3657 8ebd
00000060: 922d e0be 1774 29bf e5c6 b6bb 11ef acbd
00000070: 657e 62bd bccf 19bd 23a4 3abc 5322 9b3f
00000080: 51e6 303e 8a0a f6bd 80f0 92bd 93fa d0bc
00000090: 1481 31bd 5660 0cbd a8fb 353d 21ef bbbd
000000a0: af36 03be a332 eebc 3873 e3bd fffd 343a
000000b0: 5b70 3cbc 061b d2be c68a 403e 3974 40be
000000c0: 37ce 29bc 0469 a0bc 49ae e2be 2aec 203f
000000d0: 966d eebb ab3b debc 4a49 6ebd ff9b 693e
000000e0: 11a7 303e 23e6 ad3d b2b1 8d3d 44eb e83d
000000f0: f1ec c9be 1fbb 25bc 94e2 2b3d 7701 f1ba
00000100: d179 f73c b38f b23d 5738 f03c 844c 20be
00000110: f0e4 30bd 6423 9b3d 0d9e c33e b2b5 20be
00000120: b047 8fbd 6100 0cbf e76b 9f3c 9126 babc
00000130: a910 27bc cb3c 91bd d697 e6be b4b3 7abc
00000140: c9d0 01bd 99eb fcbc 790b 4f3e 429b 76bc
00000150: 7220 cd3d 4b6f d8bd e910 1fbe daaf ed3c
00000160: 9330 363e fb7d fa3d f88b 1cbe 5ff8 2dbd
00000170: 7d5b c7bc 0af7 2cbd bcdd ba3d a5f7 b6bd
00000180: b676 ccbc 9c11 aebd ac2b c7bd 814a 0d3d
00000190: 90dc 8d3e 95c8 e6bd e3c7 b7be b5a3 7d3c
000001a0: 7dd9 85be f4d2 673c 3ec7 2fbe 9faa 9e3d
000001b0: 0113 eb3c 8548 8dbd 0ca6 7fbd 1454 5fbf
000001c0: bd55 bbbd 8669 2b3e f16c abbd 7ddb b1bc
000001d0: 94bc 31be 2ca0 bb3e 30fe 8d3e 1a71 82be
000001e0: de7c 0fbe 2ab0 f5bd 8e2e d73f d068 893d
000001f0: 8510 7c3c 3db5 9dbd 3a94 3a3d 40e1 1dbe
00000200: fe48 e9bd 1c67 05bf c3af e2bc e352 20bb
00000210: 960a 5ebd f8cc 803e 086d 81bd f51c c43d
00000220: 24df 15bf b7d6 9abe 9c9f fcbe f2a7 413e
00000230: 0595 09be ea93 9e3e aa87 f8bc 8849 3b3b
00000240: 437f 96bb 757e eebe 73e1 a9bd e3c5 3c3f
00000250: 256b fbbc a587 063e 1c43 dabc e651 51bc
00000260: adb0 c23d ee0a a3bb 1c92 a53e bbeb 65bd
00000270: 3190 a7bd 2f8b 3d3e 32b1 dabd 814d f0be
00000280: 1fad dc3e e095 863b 1fa4 cd3c 1c8e 29bc
00000290: aed1 debd 751d 68be 0d7c 403e b9fc 803e
000002a0: c537 8abb 9b19 3abf 7e05 df3d 0f8d febc
000002b0: 08d8 f7ba 6563 d5bc f3c7 483e 6ced d43e
000002c0: 70c5 343e 0dae 37bf 572d 77bb 2ca6 a9bd
000002d0: bf92 09bc b85f 2abe 40d8 0abe 09a8 76bc
000002e0: 017c 933e 86b5 0f3e dd49 163f 4964 873a
000002f0: 4e98 babd f051 af3e 955d d7bb 9751 bc3d
00000300: b7ad 7dbe c238 333d 4017 fa3d 5a7c 47bd
00000310: 0233 5fbe 9c6c 803f 4235 ba3d 3443 00be
00000320: 6ce8 70bd 065e 68bc 5cb5 76bd 86f6 9abd
00000330: 735e 4cbc be9f ce3e 78b2 f9bd 58fb a8bd
00000340: 12de 063e e1fc 633d aad9 3bbd e894 a53d
00000350: 1a6c b13b 0567 1ebf be4f c9be 3017 7cbe
00000360: 9cbe 62be ec8f f93d 1d2c 9bbd 4d36 7fbd
00000370: fd86 91bd 97e4 b6bd 61b8 16bb 0c6a 02bd
00000380: 3564 99be f51c 25bf b393 a7be e486 bd3e
00000390: 4baa 95bd 1238 b8bd 1839 01bf 9e65 f83e
000003a0: 0ddc 55bd 9c84 88bf 43f8 59bd b976 ebbd
000003b0: 8675 63bd 1d4c 75bd b520 a4bb e910 fcbd
000003c0: 9610 ebbd 4c47 063b 8dac aebe 6ef5 643c
000003d0: 9649 bebf 812d 87bc cc90 d6bc 4e32 b9bd
000003e0: c5da 3a3c 9409 563c 1c92 da3e a758 b8bd
000003f0: 785c 59be 995c cb3d 8a8d e5bd e803 d9bc

output.bias f4 [4]
-0.030859798 -0.046099786 -0.16946658 0.2119347
00000000: b0cd fcbc 21d3 3cbd a688 2dbe 6905 593e
