milestone2/models/weights/model_7.pth (torch, 59981 bytes, 6 tensors)

linear1.weight f4 [50, 13]
0	0x3e4c1df7	0.19933306
1	0x3db01b3c	0.085989445
2	0xbe5584b3	-0.20851402
3	0xbe4b9bad	-0.19883604
4	0xbe77a4a1	-0.24183895
5	0xbc13ec59	-0.009028518
6	0xbe67381d	-0.2258
7	0x3c867f26	0.016418051
8	0xbe83c3bd	-0.25735274
9	0xbe473033	-0.1945198
10	0x3e9fa47f	0.31180188
11	0xbe4b1fd4	-0.1983636
12	0x3e8608ea	0.26178676
13	0x3eb5081d	0.35357752
14	0x3dd69664	0.104779035
15	0xbeaa4ec3	-0.33263215
16	0x3da50981	0.08058453
17	0x3dee20dc	0.11627361
18	0x3e62e1c4	0.22156435
19	0x3e3cb057	0.18426643
20	0x3ede5d73	0.4343067
21	0x3e7d5a1b	0.24741404
22	0xbe81e266	-0.2536804
23	0x3e00d753	0.1258214
24	0x3e16beee	0.14721271
25	0xbe7c6b11	-0.24650218
26	0xbdb6310a	-0.08896072
27	0x3c20e802	0.00982094
28	0xbcea64e0	-0.028612554
29	0xbd2ce4ac	-0.042210266
30	0xbe294e9e	-0.16533896
31	0x3deffa41	0.11717654
32	0xbe319679	-0.17342557
33	0xbcd8f13a	-0.026482213
34	0xbf148c32	-0.5802642
35	0x3e214752	0.15749863
36	0xbe3baa78	-0.18326747
37	0x3db0e7f8	0.086379945
38	0x3f93c18e	1.1543443
39	0xbec7495f	-0.38923165
40	0x3ec5ee28	0.3865826
41	0xbe4bf84e	-0.1991894
42	0x3e00341c	0.12519878
43	0xbd42df99	-0.04757652
44	0xbe3cbe78	-0.18432033
45	0x3d9ecad3	0.077535294
46	0x3e86d349	0.26333073
47	0xbe0723ec	-0.13197297
48	0xbe6cf20f	-0.23139213
49	0xbd08fec8	-0.033446103
50	0x3e177d92	0.14793995
51	0x3fc3b300	1.5289001
52	0x3e525170	0.20538878
53	0x3e631605	0.22176369
54	0xbe7af25a	-0.24506512
55	0x3d25391a	0.04033766
56	0xbc806c68	-0.015676692
57	0xbca3e661	-0.020007314
58	0x3e27888c	0.16360682
59	0x3d263c22	0.04058469
60	0x3e6ce93e	0.2313585
61	0xbcfd841c	-0.030946784
62	0x3ccead59	0.025229143
63	0xbe9d955f	-0.30778024
64	0x3e5a1d16	0.21300158
65	0xbe35b7d9	-0.17745914
66	0xbf205b91	-0.6263972
67	0x3e503a2f	0.20334695
68	0xbe2834ea	-0.16426435
69	0xbe6799ea	-0.22617307
70	0xbb2ba91b	-0.0026193324
71	0xbea0b995	-0.31391588
72	0x3e7641e2	0.2404857
73	0xbebe888b	-0.3721355
74	0x3d9f44c5	0.077767886
75	0x3eb53040	0.35388374
76	0x3ced0506	0.02893306
77	0xbf88bb8e	-1.0682237
78	0xbd4016ba	-0.046896674
79	0xbf396f0b	-0.72435063
80	0xbec3122b	-0.380998
81	0xbdc2a6f8	-0.09504503
82	0xbcb0427f	-0.021516083
83	0xbee23d55	-0.44187418
84	0x3e37f9d0	0.1796639
85	0x3e0ed21c	0.13947338
86	0x3eba610f	0.36402175
87	0xbd7b0b1e	-0.0612899
88	0x3d4c2e12	0.049848624
89	0x3ddeabd2	0.10872616
90	0xbe0110ff	-0.1260414
91	0xbe5fd19d	-0.21857305
92	0xbc96c7e4	-0.018405862
93	0x3e12504a	0.1428844
94	0xbeeb2c47	-0.45932218
95	0xbe8e2121	-0.2775965
96	0xbeb2b05c	-0.34900177
97	0xbe6fec5c	-0.23430008
98	0xbe8d747e	-0.2762794
99	0xbe413898	-0.18869245
100	0x3db03d04	0.08605388
101	0xbe08107e	-0.13287541
102	0x3d9682cf	0.073491685
103	0x3f292aa8	0.66080713
104	0x3d87f43b	0.0663838
105	0x3cc6a4f3	0.024248576
106	0x3e68bf72	0.2272928
107	0x3eb92577	0.36161396
108	0x3daeb5cd	0.085307695
109	0x3e0f4306	0.13990411
110	0x3e81f3fa	0.25381452
111	0x3ef09060	0.4698515
112	0x3effced1	0.49962476
113	0xbeb0169c	-0.3439225
114	0x3f1f9b9d	0.6234682
115	0x3d4c13ef	0.049823698
116	0xbf456285	-0.77103454
117	0xbe82741b	-0.25479206
118	0xbef92da6	-0.4866764
119	0x3cf424ba	0.029802669
120	0x3cb877df	0.022518096
121	0xbe7a6cc1	-0.24455549
122	0xbe32c5bc	-0.17458242
123	0x3e28a4e2	0.16469148
124	0xbc13fe26	-0.009032762
125	0x3e8df86d	0.27728596
126	0xbebbd7ef	-0.36688182
127	0xbe43d1ba	-0.19122973
128	0x3e234d0d	0.15947361
129	0x3fb68863	1.4260372
130	0xbe313546	-0.17305478
131	0xbe26e408	-0.16297925
132	0x3dfd2712	0.12360968
133	0x3dc0bf64	0.09411505
134	0x3e67016f	0.2255914
135	0x3dba8173	0.09106722
136	0xbe3fe323	-0.1873899
137	0xbd02fb49	-0.031977925
138	0x3def38a4	0.11680725
139	0xbd64fde8	-0.055906206
140	0x3e9f2a57	0.3108699
141	0xbe274f6c	-0.16338891
142	0xbe7f71f9	-0.24945821
143	0xbecd4982	-0.40095145
144	0x3cd3cd94	0.025854863
145	0xbe1f8602	-0.15578464
146	0xbe444536	-0.19167027
147	0xbe77517b	-0.24152176
148	0xbe9b64fd	-0.30350485
149	0xbcac63dc	-0.02104371
150	0xbe6bf778	-0.2304362
151	0xbf244a56	-0.6417593
152	0x3d98a5bd	0.07453487
153	0x3e39cc03	0.1814423
154	0x3dbb8543	0.09156277
155	0xbec21c67	-0.37912294
156	0xbe8c5668	-0.27409673
157	0xbee56f1f	-0.4481134
158	0x3ec6f4d5	0.38858667
159	0x3d94e4ae	0.0727018
160	0xbd8180e8	-0.06323415
161	0xbdf52550	-0.119700074
162	0xbe0aedd7	-0.13567291
163	0xbd8566b1	-0.065137275
164	0xbed8b28a	-0.42323714
165	0xbd4aa029	-0.049469147
166	0x3e4feee3	0.20305972
167	0x3cc8d64a	0.024516243
168	0xbfb28f04	-1.3949895
169	0x3da3e6af	0.08002984
170	0x3f3085a2	0.6895391
171	0xbe45a9f1	-0.19303109
172	0x3cc9b99d	0.02462464
173	0xbe89442e	-0.2680983
174	0xbecd9bb6	-0.4015786
175	0x3cbac3ab	0.02279838
176	0xbd61d066	-0.055130385
177	0xbe050070	-0.12988448
178	0xbbe19139	-0.006883767
179	0xbec0fe58	-0.3769405
180	0x3d4e6b90	0.05039555
181	0xbec38051	-0.38183835
182	0xbe6afcc8	-0.22947991
183	0x3d49f176	0.04930254
184	0xbe56ea80	-0.20987892
185	0xbd41ba2c	-0.047296688
186	0x3eb1171b	0.3458794
187	0x3e98c423	0.2983714
188	0x3e3f13b4	0.1865986
189	0x3c700817	0.014650366
190	0xbf018282	-0.50589764
191	0x3e3e0f25	0.18560465
192	0xbf02fc85	-0.51166564
193	0x3ca78305	0.020448217
194	0x40035f64	2.0526972
195	0xbe87389b	-0.26410374
196	0xbcb608e2	-0.022221033
197	0xbe308bd5	-0.17240842
198	0xbe31f623	-0.1737905
199	0xbdff3bad	-0.12462554
200	0x3e80628b	0.25075182
201	0x3d6fd2bb	0.058550578
202	0xbbd706d7	-0.0065620947
203	0xbe11486f	-0.14187787
204	0x3e1c1c23	0.15245108
205	0x3dd3df56	0.10345332
206	0xbe7d3009	-0.24725355
207	0xbc540a5a	-0.012941921
208	0x3dff2746	0.12458663
209	0xbca653ef	-0.020303695
210	0xbde4e1ca	-0.11175878
211	0x3e376ed5	0.17913373
212	0xbe1a324e	-0.15058252
213	0xbc4f7ea8	-0.012664475
214	0xbe41fd33	-0.18944244
215	0xbe281c15	-0.16416962
216	0xbe2fd27f	-0.17170142
217	0x3c965f1e	0.018355902
218	0xbe100b04	-0.14066702
219	0x3dae1044	0.08499196
220	0x3f95ba74	1.1697526
221	0x3f09928b	0.5373923
222	0xbe92e6d6	-0.2869174
223	0x3e5a2ac5	0.21305378
224	0x3e2627ff	0.16226195
225	0xbdc4fe1f	-0.09618782
226	0x3c41fa34	0.011839438
227	0xbe68f833	-0.2275093
228	0xbbe616f2	-0.0070217783
229	0x3ef56945	0.47931877
230	0xbd177bf4	-0.036983445
231	0x3e2f33dc	0.17109627
232	0xbd56675c	-0.052344665
233	0xbf17b218	-0.59256124
234	0xbee8af1a	-0.45446092
235	0xbeacc940	-0.33747292
236	0xbe7ffc25	-0.2499853
237	0x3ea23039	0.31677416
238	0x3db5abc9	0.08870656
239	0xbe0e77ff	-0.13912962
240	0x3dfa32be	0.122167096
241	0x3ec1671b	0.37773976
242	0xbe27729d	-0.16352315
243	0xbbcbf644	-0.0062244255
244	0x3ea56da1	0.32310203
245	0x3dbaa3bf	0.09113263
246	0xc02fc8db	-2.7466342
247	0xbea4b3ad	-0.32168332
248	0xbe0e0546	-0.13869199
249	0x3dc57f0e	0.096433744
250	0x3c21e225	0.009880577
251	0xbe199b84	-0.15000731
252	0xbe44c362	-0.19215158
253	0xbce3baf4	-0.027799107
254	0xbe17d4e7	-0.1482731
255	0xbf4a8ee8	-0.7912431

linear1.bias f4 [50]
0	0x3e3c12aa	0.18366495
1	0xbdee2302	-0.11627771
2	0xbe1f89cd	-0.1557991
3	0xbe465045	-0.19366558
4	0x3e018019	0.12646522
5	0xbea6b173	-0.32557258
6	0xbb93bebc	-0.0045088213
7	0xbea6d59d	-0.3258485
8	0xbdab7c64	-0.08373335
9	0x3c97d252	0.018532906
10	0xbe6c52c1	-0.23078443
11	0x3debc70a	0.11512573
12	0x3da18e4e	0.078884706
13	0xbe4a7acb	-0.19773404
14	0x3d49fc4a	0.049312867
15	0xbdba6eca	-0.091031626
16	0xbd604cec	-0.05476086
17	0x3d8b1345	0.06790785
18	0xbcc877db	-0.024471214
19	0x3e4aedb8	0.19817245
20	0xbdca008e	-0.09863387
21	0xbd1fadda	-0.038984157
22	0xbe888c93	-0.2666975
23	0xbe559d61	-0.20860817
24	0x3decb4db	0.11557933
25	0xbeadbda6	-0.33933753
26	0x3e8fbb5a	0.28072625
27	0xbc8bd8c1	-0.01707113
28	0xbe65662f	-0.22402261
29	0xbe6dd60c	-0.23226184
30	0x3dfab206	0.122409865
31	0x3ec26602	0.3796845
32	0x39aa7c16	0.00032517378
33	0xbe9a6b55	-0.30160013
34	0xbe046f90	-0.12933183
35	0xbd32dee9	-0.043669615
36	0xbd75daa4	-0.060022965
37	0x3df4b576	0.119486734
38	0xbe9653ac	-0.29360712
39	0x3ca36759	0.019946741
40	0xbe68422a	-0.2268149
41	0x3d4304b8	0.047611922
42	0x3deeb7ca	0.11656149
43	0x3d5b8268	0.053591162
44	0x3e53b103	0.20672993
45	0x3e89a226	0.26881522
46	0xbe05fd2a	-0.13084856
47	0xbd3d1adb	-0.04616819
48	0xb9ed8546	-0.0004530346
49	0x3e481166	0.19537887

linear2.weight f4 [250, 50]
0	0x3d40fdef	0.04711717
1	0x3e6706ae	0.22561142
2	0xbe0b1f23	-0.13586096
3	0x3ce05cd5	0.027388016
4	0x3dffb14d	0.12484989
5	0xbbf0606e	-0.007335714
6	0x3e6748f2	0.2258642
7	0xbe1ca888	-0.15298665
8	0x3db7ca97	0.08974188
9	0xbd0c8931	-0.034310523
10	0xbe16d946	-0.1473132
11	0xbc20704d	-0.0097924
12	0xbec23dbf	-0.37937734
13	0xbd292df0	-0.041303575
14	0x3d813bab	0.06310209
15	0xbdc45dad	-0.0958818
16	0x3d872215	0.065982975
17	0xbe60eb51	-0.21964766
18	0xbaaf9a01	-0.0013397337
19	0xbd4c4479	-0.049869988
20	0xbd1b1d30	-0.037869632
21	0xbe254ed7	-0.16143356
22	0xbd70797c	-0.058709607
23	0xbd3f58ca	-0.046715535
24	0x3c36883a	0.011140877
25	0xbdbe1098	-0.09280509
26	0x3e75daee	0.24009296
27	0x3e5be926	0.21475658
28	0xbd898340	-0.06714487
29	0x3df030f9	0.11728091
30	0x3e132301	0.14368822
31	0xbd885d8d	-0.066584684
32	0xbdd19a18	-0.10234469
33	0xbdf55b35	-0.11980287
34	0x3e77bfbb	0.24194233
35	0x3e748717	0.23879658
36	0xbd899e3c	-0.06719634
37	0x3e56ec86	0.20988664
38	0x3dc26a6d	0.09492955
39	0x3d4b994c	0.049706742
40	0xbd71bef8	-0.059020013
41	0xbe257653	-0.16158418
42	0xbd4ff946	-0.050774835
43	0x3dfa37a6	0.12217645
44	0xbe126d4c	-0.14299506
45	0x3e380e41	0.17974187
46	0xbd81542d	-0.063148834
47	0xbdd64dd9	-0.10464067
48	0xbe42bac3	-0.19016556
49	0x3da546f9	0.080701776
50	0x3d01171a	0.031516172
51	0x3e411907	0.18857203
52	0xbdd2cdba	-0.102931455
53	0x3e09af28	0.13445723
54	0x3e0d46dd	0.13796563
55	0xbe21b871	-0.15793015
56	0x3df875b2	0.121318236
57	0xbe73fe0e	-0.23827383
58	0x3d554b50	0.052073777
59	0xbdb44edc	-0.08804104
60	0xbd47122f	-0.048601326
61	0x3d48ef7b	0.04905651
62	0xbe1fe668	-0.15615237
63	0xbdda7a4d	-0.10667858
64	0x3d557954	0.05211766
65	0x3dcac7e2	0.09901406
66	0xbd3155e5	-0.043294806
67	0xbe6644a3	-0.2248712
68	0x3dd4bda8	0.103877366
69	0xbe154bdc	-0.1457972
70	0x3c85d30c	0.016335987
71	0x3d13d6e1	0.036093596
72	0xbe3837e5	-0.17990072
73	0xbdbca7ae	-0.0921167
74	0xbce4c0da	-0.02792399
75	0x3db40901	0.0879078
76	0x3e34f8fc	0.17673105
77	0x3e49fa88	0.19724476
78	0xbe7ab455	-0.24482854
79	0xbf4e6d61	-0.8063565
80	0xbd499285	-0.049211998
81	0xbe65480b	-0.22390763
82	0xbcc8d9ae	-0.02451786
83	0xbe02ec40	-0.12785435
84	0x3e0fee10	0.14055657
85	0x3dd2ae18	0.10287112
86	0xbde4933a	-0.11160894
87	0x3c40b141	0.011761011
88	0xbf1139cf	-0.56728834
89	0xbe156491	-0.14589144
90	0xbda759f8	-0.08171457
91	0xbdb68569	-0.08912165
92	0x3e00e1b9	0.12586106
93	0xbc3ecdcf	-0.011645748
94	0xbe4a46a4	-0.1975351
95	0xbc1c933a	-0.009556586
96	0xbd2a4400	-0.041568756
97	0xbe9eec6f	-0.3103976
98	0xbe21beb7	-0.15795408
99	0xbdcfea17	-0.10152071
100	0xbd9b0077	-0.07568448
101	0x3aa6ea61	0.0012734645
102	0x3da09b17	0.07842081
103	0x3c67e047	0.014152593
104	0x3de840e5	0.11340503
105	0x3da1cd6c	0.07900509
106	0xbf114456	-0.567449
107	0xbe036473	-0.12831287
108	0x3ea5fbe5	0.32418743
109	0x3c31e6e1	0.0108582685
110	0x3e00603a	0.12536708
111	0x3d1f5853	0.038902592
112	0x3eca6884	0.39532864
113	0xbe09aba2	-0.13444379
114	0xbce2ef55	-0.027702013
115	0xbdc9338e	-0.098242864
116	0xbd9081b4	-0.07055989
117	0x3ddf858c	0.10914144
118	0x3f913b26	1.1346176
119	0x3eba1de4	0.3635093
120	0xbe3d5af1	-0.18491723
121	0xbce311ee	-0.02771851
122	0xbd2ac5da	-0.041692592
123	0x3d0d9e13	0.03457458
124	0xbd41e3e5	-0.047336478
125	0xbdbe08f5	-0.09279052
126	0x3e015ecc	0.12633818
127	0xbe61a9fe	-0.22037503
128	0xbdd1c310	-0.10242283
129	0xbe294da9	-0.16533531
130	0xbe513380	-0.20429802
131	0x3cc78832	0.024356935
132	0x3d0dd683	0.034628402
133	0x3e060ca9	0.13090767
134	0xbd4fd4c0	-0.050740004
135	0xbe26f261	-0.16303398
136	0xbce67af0	-0.028134793
137	0xbe696bff	-0.22795103
138	0xbea1776a	-0.31536418
139	0xbdfd22bf	-0.12360143
140	0x3d0ff6dc	0.035147533
141	0xbe0aeda2	-0.13567212
142	0x3ce64d39	0.028112995
143	0xbdac31a6	-0.08407907
144	0x3cb48ff9	0.022041308
145	0x3ea597a2	0.3234225
146	0x3ed64e3f	0.41856572
147	0x3d8ede1b	0.06975957
148	0x3e33f071	0.1757219
149	0x3df6fc08	0.1205979
150	0x3db694b6	0.08915083
151	0xbde68b53	-0.11257043
152	0xbcac7798	-0.02105312
153	0xbd4438ba	-0.04790566
154	0x3e2feaf8	0.17179477
155	0x3ebdb212	0.3704992
156	0x3f449cab	0.76801556
157	0xbce44dab	-0.027869066
158	0xbb52bddb	-0.003215662
159	0xbd01a98b	-0.03165583
160	0xbd12fa23	-0.03588308
161	0x3e78df02	0.2430382
162	0x3f8f44f3	1.1192917
163	0xbe5addb3	-0.21373634
164	0x3e3d7050	0.18499875
165	0xbd265ade	-0.040614
166	0x3e4f6816	0.2025455
167	0xbdcc4335	-0.09973756
168	0x3f4c55c7	0.79818386
169	0x3d86a524	0.06574467
170	0x3d2dbe83	0.042418014
171	0xbd3ec86d	-0.04657786
172	0xbc1394b3	-0.009007621
173	0x3e10044d	0.1406414
174	0xbe2b326b	-0.16718452
175	0xbda98950	-0.082781434
176	0x3e3ec8b8	0.18631256
177	0xbf26e933	-0.65199584
178	0xbdbf84c8	-0.09351498
179	0x3f138244	0.57620645
180	0x3dde4005	0.108520545
181	0xbe3106f5	-0.1728781
182	0x3e8efe1e	0.2792825
183	0x3da83f99	0.08215255
184	0x3e2001ab	0.15625636
185	0xbc6e1f9f	-0.014533906
186	0x3dec504b	0.11538752
187	0xbe821532	-0.25406796
188	0x3df592a0	0.11990857
189	0x3e819218	0.25306773
190	0xbda749af	-0.08168351
191	0x3ca2c1ab	0.019867739
192	0xbccd76eb	-0.025081119
193	0x3da9cfb1	0.08291567
194	0x3e822483	0.2541848
195	0x3f2175f4	0.6307061
196	0xbe2956ac	-0.16536969
197	0x3c9776fa	0.01848935
198	0x3ddf9c1d	0.10918448
199	0x3e18d98f	0.14926742
200	0xbd0178be	-0.03160929
201	0x3d811bbf	0.0630412
202	0xbd9d5e7e	-0.076840386
203	0xbd451eee	-0.0481252
204	0xbdd02e14	-0.10165039
205	0x3e225d00	0.15855789
206	0xbf40fc8a	-0.75385344
207	0xbd0c0034	-0.03417988
208	0x3ea42324	0.3205806
209	0x3db779dd	0.089587905
210	0x3dcb2a02	0.09920122
211	0xbd6cf88b	-0.057854217
212	0x3e8c3975	0.27387586
213	0xbdd31969	-0.10307581
214	0x3ba9a097	0.0051766145
215	0x3d150e9b	0.036390882
216	0xbccceebb	-0.02501618
217	0x3d4945a8	0.049138695
218	0x3f9c319b	1.2202638
219	0x3e94f47d	0.2909278
220	0xbdf68e31	-0.120388396
221	0x3df9f614	0.12205139
222	0xbdb968b7	-0.09053176
223	0xbd90b616	-0.0706598
224	0xbe706684	-0.23476607
225	0xbda40a3c	-0.080097646
226	0x3dd8d094	0.10586658
227	0xbee31e32	-0.44358975
228	0xbe8f3cc3	-0.27976045
229	0xbe0878ae	-0.13327286
230	0xbde5c605	-0.1121941
231	0x3e06151b	0.13093989
232	0x3d679a39	0.056543563
233	0x3e091a95	0.13389046
234	0xbd99a8da	-0.07502909
235	0xbde74fbc	-0.11294505
236	0x3d83f9bb	0.06444117
237	0xbe2c8ae8	-0.16849864
238	0xbe34281a	-0.17593423
239	0x3d7097fe	0.0587387
240	0x3cceb73b	0.025233855
241	0xbe2efe37	-0.17089163
242	0xbbcd93d7	-0.0062737274
243	0xbd9cdcc3	-0.076592945
244	0xbdb28efb	-0.087186776
245	0x3ee00d3e	0.43760103
246	0x3e78b4a6	0.24287662
247	0x3e361904	0.1778298
248	0x3df5ce94	0.12002292
249	0x3e08db93	0.13365011
250	0xbd1df136	-0.038560115
251	0x3db44a3b	0.08803221
252	0x3c896000	0.01676941
253	0x3cea7ae3	0.02862305
254	0xbda27bf8	-0.079338014
255	0xbda08e2a	-0.07839616

linear2.bias f4 [250]
0	0x3d83b0d7	0.06430214
1	0x3d971645	0.073772945
2	0xbba7b84f	-0.005118407
3	0x3d87de3a	0.06634183
4	0xbcd03aaf	-0.025418608
5	0x3d853c98	0.06505698
6	0xbd97ff71	-0.074217685
7	0xbe832fc2	-0.25622374
8	0xbd9df8e6	-0.07713489
9	0xbd79c1a3	-0.060975682
10	0xbd2cd3df	-0.042194244
11	0x3d9106b3	0.07081356
12	0xbc43d06d	-0.011951548
13	0x3d328f24	0.04359354
14	0x3e0f12ed	0.13972063
15	0xbe4f12fa	-0.20222083
16	0x3cceacae	0.025228824
17	0x3da47e2d	0.080318786
18	0x3e517f31	0.20458676
19	0xbdce1448	-0.10062462
20	0xbc8c5e93	-0.01713494
21	0xbe677c4d	-0.2260601
22	0xbe0053b3	-0.12531929
23	0x3e6a26bf	0.22866343
24	0xbd7c9c8b	-0.06167273
25	0xbe8013be	-0.25015062
26	0x3e1e4d33	0.15459137
27	0xbdbb3f28	-0.091429055
28	0xbbd86489	-0.0066037816
29	0x3e5f21c4	0.21790224
30	0x3e067d9c	0.13133854
31	0x3c9256c4	0.017863639
32	0x3c7e7a08	0.015532024
33	0xbd894649	-0.06702859
34	0xbe574d11	-0.21025492
35	0xbccff614	-0.025385894
36	0x3db97175	0.09054843
37	0x3d9606ef	0.07325541
38	0xbce8c0d2	-0.028412256
39	0x3df04d6d	0.11733518
40	0xbd6dc2c2	-0.058047064
41	0xbe5f0bc4	-0.21781832
42	0xbc46d0a5	-0.012134706
43	0xbdb7a2f9	-0.089666314
44	0x3d58f35d	0.052966464
45	0xbdb87366	-0.090063855
46	0xbd85bd97	-0.06530302
47	0x3e1cef4f	0.15325664
48	0x3bb023df	0.00537537
49	0xbd4d15f8	-0.05006978
50	0xbdb45d0d	-0.088068105
51	0xbe3e0805	-0.18557747
52	0xbdfea7db	-0.1243436
53	0x3e232ce7	0.15935098
54	0xbc4b069e	-0.012391714
55	0x3d84d013	0.064849995
56	0x3c31f022	0.010860475
57	0x3cfc61d5	0.030808369
58	0xbe549bb1	-0.20762517
59	0xbbc07405	-0.0058732056
60	0xbe2897b6	-0.16464123
61	0xbe34e80a	-0.17666641
62	0x3c93b86f	0.01803228
63	0xbe3c7a49	-0.18406023
64	0xbc9f2f53	-0.019431746
65	0xbdcc78a6	-0.09983949
66	0x3e1fcd2e	0.15605614
67	0x3d8ce912	0.06880392
68	0xbd1a81aa	-0.037721314
69	0x3e2e6472	0.17030504
70	0x3cef829f	0.02923709
71	0xbd38e9d8	-0.045144886
72	0xbea44bfe	-0.32089227
73	0xbe3da8a0	-0.18521357
74	0x3dcf0a0d	0.10109339
75	0xbd77a0f3	-0.060456228
76	0x3dad496e	0.08461271
77	0x3e2b0f9a	0.1670517
78	0xbce11121	-0.027473988
79	0x3d41da1d	0.04732715
80	0xbd979798	-0.07401961
81	0xbddade37	-0.10686915
82	0xbe54de47	-0.20787917
83	0x3d983375	0.0743169
84	0x3e7c77e9	0.24655117
85	0xbc8eee3b	-0.017447582
86	0x3d974da8	0.07387859
87	0x3b4d87f1	0.0031361545
88	0xba486d09	-0.0007645642
89	0xbe8665ad	-0.26249447
90	0x3ddb3ef7	0.10705369
91	0x3e908ca4	0.282323
92	0xbd9f7937	-0.07786792
93	0xbd0d05a0	-0.034429193
94	0xbe1009f7	-0.14066301
95	0xbc9e6202	-0.019333843
96	0xbce2c0c2	-0.027679805
97	0xbea8bbda	-0.3295582
98	0x3c2a7d51	0.010405854
99	0x3d55caec	0.052195475
100	0xbe28bfb5	-0.1647938
101	0xbd285852	-0.041099854
102	0x3deabd95	0.11461941
103	0xbd5feca1	-0.054669026
104	0xbd73b321	-0.059497003
105	0x3cd96c1f	0.026540814
106	0x3da389d0	0.0798527
107	0x3e6931b7	0.22772871
108	0xbe41d695	-0.18929513
109	0x3dda9ebd	0.10674808
110	0x3d987929	0.074449845
111	0x3da740b2	0.081666365
112	0xbd9a93f2	-0.075477496
113	0x3d6b091f	0.057381745
114	0xbe1a0832	-0.15042189
115	0xbdb21506	-0.08695416
116	0x3d76adf1	0.060224477
117	0x3cf24a42	0.029576425
118	0x3e0aa610	0.1353991
119	0x3cbd0fbf	0.023078797
120	0x3e1065bd	0.1410131
121	0xbd22c075	-0.039734323
122	0x3d83cbdc	0.064353675
123	0xbe0d65ce	-0.13808367
124	0x3cbf7773	0.023372388
125	0xbe87f0c3	-0.26550874
126	0xbe279791	-0.16366412
127	0xbd875e63	-0.066098
128	0xbd7d153b	-0.061787825
129	0x3c157f26	0.009124553
130	0xbdd653f3	-0.10465231
131	0xbe162839	-0.14663781
132	0xbdddcfaf	-0.10830628
133	0xbe00929f	-0.12555932
134	0x3d2292a8	0.039690644
135	0x3d7a2d24	0.061078206
136	0xbd0e212a	-0.034699596
137	0x3e4d9da0	0.2007966
138	0xbd02f834	-0.031974986
139	0xbd025f0b	-0.03182892
140	0x3d9f0267	0.0776413
141	0xbb84bf9a	-0.004051161
142	0xbd3e968f	-0.046530303
143	0xbd97762a	-0.07395585
144	0x3c1a444f	0.0094157
145	0xbdb2ee90	-0.087369084
146	0xbcd2e676	-0.025744658
147	0x3e56e088	0.2098409
148	0x3cd71db7	0.026259286
149	0x3e5594cc	0.20857543
150	0x3e3c5524	0.18391854
151	0xbe0939b1	-0.13400914
152	0x3d9db24b	0.07700022
153	0xbde31252	-0.11087479
154	0x3ded36d3	0.115827225
155	0xbe35d2cd	-0.17756195
156	0x3e782fbe	0.24236962
157	0x3de32ff0	0.11093128
158	0x3dc10414	0.09424606
159	0xbd990123	-0.0747092
160	0x3d9e6206	0.0773354
161	0xbdd66934	-0.10469285
162	0xbe46b6bf	-0.1940565
163	0xbc93e8f9	-0.018055426
164	0x3d679407	0.056537654
165	0x3d503cad	0.050839115
166	0xbe6ddb63	-0.2322822
167	0xbda34261	-0.07971645
168	0x3d2805e7	0.041021254
169	0xbe0c3cfd	-0.1369514
170	0x3e289ac9	0.16465296
171	0x3e1ae877	0.15127741
172	0x3d74c6fd	0.059760083
173	0xbdb51552	-0.08841957
174	0x3deae69e	0.11469768
175	0x3ccbd67f	0.024882553
176	0xbcd6647b	-0.02617096
177	0x3e511233	0.20417099
178	0xbd46e808	-0.048561126
179	0xbdcc0298	-0.09961432
180	0xbda6dac4	-0.08147195
181	0xbd5c3a5a	-0.053766586
182	0x3daf1ee3	0.08550813
183	0x3c207444	0.009793345
184	0x3c46a45e	0.012124149
185	0x3cc20127	0.02368219
186	0xbe4b5a10	-0.19858575
187	0xbdc849f1	-0.09779728
188	0xbe295daa	-0.16539636
189	0x3e8f090b	0.27936587
190	0xbdbbc215	-0.091678776
191	0x3d646494	0.05575998
192	0xbe8faab8	-0.28059936
193	0xbd0479f7	-0.032342877
194	0x3d53a039	0.051666472
195	0xbd13a5e2	-0.03604687
196	0x3d992d20	0.0747931
197	0xbe1bec8f	-0.15226959
198	0xbe1cdc7e	-0.15318486
199	0xbcb3ca06	-0.021946918
200	0x3e43a081	0.19104196
201	0xbd8120df	-0.06305098
202	0x3e0e6f2c	0.13909596
203	0xbd1aa353	-0.037753414
204	0x3d137c25	0.036007065
205	0xbd881369	-0.06644327
206	0x3c0617be	0.0081843715
207	0x3e9fd0bc	0.3121394
208	0x3e0d9b92	0.13828877
209	0x3d93d300	0.072179794
210	0x3decf0ef	0.11569392
211	0xbe0d9864	-0.13827664
212	0x3dc9d995	0.098559536
213	0x3e01056e	0.12599728
214	0x37eb874a	2.8077182e-05
215	0xbdca47c1	-0.09876967
216	0xbdbb5836	-0.09147684
217	0x3d835599	0.06412811
218	0x3e3dd8f5	0.18539794
219	0x3e35d886	0.17758378
220	0xbc91b988	-0.017788664
221	0x3cc6375a	0.024196316
222	0xbd830856	-0.06398074
223	0x3d5d4739	0.054023
224	0xbdaefe88	-0.08544642
225	0x3de6aed8	0.112638175
226	0x3cffc6dd	0.031222755
227	0xbde35eb5	-0.11102048
228	0x3d620bb3	0.05518694
229	0x3e75a0cb	0.23987119
230	0xbc364b97	-0.01112642
231	0xbccb9e00	-0.024855614
232	0xbd0745b4	-0.03302546
233	0xbe5e7a71	-0.21726395
234	0x3c717d40	0.014739335
235	0x3dc8d13c	0.09805533
236	0x3ca2e888	0.01988627
237	0xbe6548c9	-0.22391047
238	0xbd7f2275	-0.06228872
239	0xbcd273b5	-0.025689939
240	0xbd29b103	-0.041428577
241	0x3dd940b1	0.10608042
242	0xbcda2826	-0.026630472
243	0x3e1438fb	0.14474861
244	0xbecf8518	-0.4053123
245	0xbe402458	-0.18763864
246	0x3d028a1f	0.031870004
247	0x3d5f0f63	0.054458033
248	0x3e2bc0f3	0.16772823
249	0x3c834b0b	0.016026994

output.weight f4 [4, 250]
0	0xbeafeab1	-0.34358743
1	0x3e36a34e	0.17835733
2	0xbe883696	-0.26604146
3	0xbc7ca7cc	-0.015420865
4	0xbe4535a1	-0.19258739
5	0xbdc2605c	-0.09491035
6	0xbcf646f2	-0.030063126
7	0x3ca37cd6	0.019956987
8	0x3d03cf82	0.032180317
9	0x3d107d48	0.035275728
10	0x3d895753	0.06706109
11	0xbd95fc52	-0.07323517
12	0x3d5ff562	0.054677375
13	0x3bb0db2b	0.0053972206
14	0x3d2f50fb	0.04280184
15	0x3d2a1064	0.041519538
16	0xbdbc6008	-0.09198004
17	0xbe4afa4d	-0.19822045
18	0xbd119b4c	-0.035548493
19	0x3d3a95c1	0.045552973
20	0xbd16ad5a	-0.036786415
21	0x3dbf0fa7	0.09329157
22	0xbe8e2714	-0.2776419
23	0xbd8c583e	-0.06852768
24	0xbd70724c	-0.058702752
25	0x3d4f68bf	0.050637003
26	0x3d6070fb	0.054795247
27	0x3caa7adf	0.020810543
28	0xbe0c9928	-0.137303
29	0xbdc25193	-0.09488215
30	0xbda4a4e1	-0.08039261
31	0xbc9c593c	-0.019085519
32	0xbdf83a96	-0.121205494
33	0x3c883a7c	0.01662945
34	0xbc71253e	-0.014718352
35	0xbde09623	-0.10966136
36	0xbd806e15	-0.062709965
37	0xbd775dfc	-0.060392365
38	0x3e46f82e	0.1943061
39	0x3c68de4d	0.014213157
40	0x3e79d4c9	0.24397577
41	0x3dd6c986	0.10487656
42	0x3cc88b90	0.024480611
43	0xbd194e67	-0.037428286
44	0xbeb1f30b	-0.3475574
45	0x3da1db94	0.07903209
46	0xbcceb84b	-0.025234362
47	0xbece930a	-0.40346557
48	0x3d60054b	0.054692548
49	0x3d4b4039	0.049621794
50	0xbe846d27	-0.25864527
51	0x3cb6a4cc	0.022295378
52	0xbe6a6a0d	-0.22892018
53	0x3b4116af	0.0029462983
54	0xbd11cfd6	-0.0355986
55	0xbd312d2d	-0.043255974
56	0x3b08283a	0.002077593
57	0xbd9437d0	-0.07237208
58	0xbe9ae29f	-0.30251023
59	0xbd402dc2	-0.046918638
60	0xbefb4543	-0.4907628
61	0xbcac548c	-0.021036409
62	0x3d9eebac	0.077597946
63	0x3d069c8e	0.032864146
64	0xbf262351	-0.6489764
65	0xbd7588e5	-0.059945006
66	0xbe8e1c00	-0.27755737
67	0xbe079a08	-0.13242352
68	0xbbdc7f0a	-0.0067290114
69	0xbd67cf15	-0.056593973
70	0xbc694d98	-0.014239691
71	0xbe2bd257	-0.16779457
72	0x3d82e4d5	0.063913025
73	0xbe4e5dc8	-0.20152962
74	0xbca78675	-0.020449856
75	0x3d2a1bef	0.041530546
76	0x3cbae180	0.022812605
77	0xbf0825ba	-0.53182566
78	0xbd055d83	-0.032559883
79	0xbf03c4f8	-0.51472425
80	0x3e010e6a	0.12603155
81	0xbd53ef83	-0.051742088
82	0xbea37cd1	-0.31931165
83	0xbdf78f90	-0.12087929
84	0x3d8bf3dc	0.06833622
85	0xbea02137	-0.3127534
86	0x3d0cd9e3	0.03438748
87	0xbd8b9689	-0.06815822
88	0xbd416e8e	-0.047224574
89	0x3e5f694c	0.21817511
90	0xbe9a9cd7	-0.30197784
91	0xbce265d0	-0.027636439
92	0x3d618584	0.05505897
93	0xbe88f0d8	-0.2674625
94	0x3c847eee	0.016173806
95	0x3bcaa83e	0.006184607
96	0xbe645308	-0.22297299
97	0x3d27b275	0.040941674
98	0x3c933d3f	0.01797354
99	0x3d4c8e33	0.0499403
100	0x3ebe97f9	0.3722532
101	0xbced5056	-0.028968971
102	0x3df44678	0.11927503
103	0xbe1c4693	-0.15261297
104	0x3d329bf9	0.04360578
105	0xbe07bd3f	-0.13255785
106	0x3d405c33	0.046962928
107	0xbd4edc24	-0.05050291
108	0xbcf4395f	-0.029812513
109	0xbe11c567	-0.1423546
110	0xbc897ac2	-0.016782168
111	0x3ddb80c8	0.107179224
112	0x3c4adabb	0.012381251
113	0x3cf6c837	0.030124767
114	0x3e5db60b	0.21651475
115	0xbce081ad	-0.027405584
116	0x3c245352	0.010029631
117	0xbd74a350	-0.05972606
118	0xbdf5c798	-0.1200096
119	0xbe4f1621	-0.20223285
120	0x3d40132d	0.046893287
121	0xbe1130d2	-0.1417878
122	0xbdd9e4a6	-0.10639314
123	0x3d6c4286	0.05768063
124	0xbd8f46b1	-0.06995905
125	0x3da045d7	0.07825821
126	0xbe77b29d	-0.2418923
127	0x3e3fddbe	0.18736932
128	0xbd8ce777	-0.06880086
129	0x3cd5aee5	0.026084373
130	0x3e2402ab	0.16016643
131	0xbd2187fb	-0.03943632
132	0x3d8f9cf7	0.070123605
133	0xbdeff35c	-0.11716339
134	0x3d8ea973	0.069659136
135	0xbd657947	-0.056023862
136	0xbe32f1a5	-0.17474993
137	0xbf0ae9f2	-0.5426322
138	0x3db637ff	0.08897399
139	0xbe0d8ade	-0.13822505
140	0x3c4d3fb9	0.0125274
141	0x3c67ecdf	0.014155596
142	0xbddec75b	-0.10877868
143	0xbdd4e415	-0.10395066
144	0xbe26c536	-0.16286168
145	0xbdbc354c	-0.09189853
146	0x3d305b1e	0.043055646
147	0xbc7486bb	-0.0149247
148	0x3d0a65e7	0.033788588
149	0xbd6990ed	-0.057022978
150	0xbdc9ccd3	-0.0985352
151	0xbdac251b	-0.08405515
152	0x3d42a80e	0.04752355
153	0x3b808de4	0.0039231647
154	0xbdebf8f4	-0.115220934
155	0x3e0ae069	0.13562168
156	0x3c9be972	0.019032214
157	0x3cf50f79	0.029914604
158	0xbd2e695d	-0.04258095
159	0xbdea2792	-0.11433329
160	0xbd1c81ea	-0.038209833
161	0xbd007f4e	-0.031371407
162	0x3d793ffd	0.06085204
163	0xbcb83781	-0.022487404
164	0x3ce60db8	0.028082713
165	0xbe02fb1f	-0.12791108
166	0xbe8e5337	-0.27797863
167	0x3d43caf8	0.047800988
168	0x3d1a1825	0.037620682
169	0xbd0f213c	-0.034943804
170	0xbc635a67	-0.013876534
171	0x3d608bde	0.054820888
172	0x3d0a3e0d	0.033750582
173	0x3d4698ef	0.048485693
174	0xbf0035d2	-0.50082123
175	0x3e631951	0.22177626
176	0xbdd2a124	-0.102846414
177	0xbd08e76c	-0.033423826
178	0xbc22a112	-0.0099260975
179	0x3c9a87f6	0.01886366
180	0x3d895932	0.06706466
181	0x3e2f0f14	0.17095596
182	0xbdf29bd5	-0.11846129
183	0x3f26bc45	0.65131027
184	0xbce37869	-0.027767377
185	0x3bc87210	0.006117113
186	0x3c51c74d	0.012803865
187	0x3e8d56af	0.27605197
188	0xbd755896	-0.059898935
189	0x3dbba7a2	0.09162833
190	0x3d44b4f9	0.04802415
191	0xbe3b48f4	-0.18289548
192	0x3d92bff5	0.07165519
193	0xbdda3991	-0.10655511
194	0xbcd6c12f	-0.026215164
195	0xbd684537	-0.056706633
196	0x3d8fc7b2	0.07020511
197	0xbdd12a52	-0.1021315
198	0xbbd40d6e	-0.0064713275
199	0x3d004b50	0.031321824
200	0xbdfbd444	-0.12296346
201	0xbe233a23	-0.15940146
202	0xbea3edf4	-0.3201748
203	0xbe008691	-0.12551333
204	0xbded1d08	-0.11577803
205	0xbd463b61	-0.048396472
206	0x3e492045	0.19641216
207	0x3da6b1ce	0.08139382
208	0xbd182af7	-0.03715035
209	0xbd4d4c2e	-0.05012148
210	0x3dac8f5c	0.08425781
211	0x3e61e7a0	0.22061014
212	0xbe6d6e5c	-0.2318663
213	0xbdbf4844	-0.093399554
214	0x3d46fea6	0.048582695
215	0xbcb1cab4	-0.021703102
216	0x3d607f69	0.054809008
217	0xbd24ed46	-0.040265344
218	0x3bf3c3d0	0.007439114
219	0x3c6e1c90	0.014533177
220	0x3d5e3275	0.05424734
221	0xbcc84bfe	-0.024450298
222	0x3d6d41ef	0.057924207
223	0x3ec6b304	0.38808453
224	0xbd09c506	-0.03363516
225	0xbd8005f9	-0.06251139
226	0xbd621d09	-0.05520347
227	0xbdeb463e	-0.11488007
228	0xbe26f2bb	-0.16303532
229	0xbe144809	-0.14480604
230	0x3d03ec8e	0.032208018
231	0x3d9846b6	0.07435362
232	0xbf1489a8	-0.58022547
233	0xbe47150a	-0.1944162
234	0xbb299119	-0.0025873838
235	0x3d614bdb	0.055003982
236	0xbe4922ee	-0.19642231
237	0xbe93cffd	-0.2886962
238	0xbc82a5c3	-0.015948182
239	0xbe9cb848	-0.30609345
240	0xbd82e17c	-0.06390664
241	0x3eed1c28	0.46310544
242	0xbe1da286	-0.15394029
243	0xbd170259	-0.036867473
244	0x3e39eac9	0.1815597
245	0x3de2a092	0.110657826
246	0x3a2c0d43	0.00065632554
247	0xbd664223	-0.056215417
248	0xbd85c3e1	-0.065315016
249	0xbdf8852f	-0.12134778
250	0xbe2d06e9	-0.16897167
251	0x3d6b499f	0.057443257
252	0x3ea2340b	0.3168033
253	0x3d79c5b7	0.06097957
254	0x3e92abc6	0.28646678
255	0xbd4785f3	-0.04871173

output.bias f4 [4]
0	0xbd2ac79d	-0.041694272
1	0x3c20f2aa	0.009823481
2	0xbc0d02e6	-0.008606648
3	0x3d4cd27a	0.050005414
