best.pth (torch, 60011 bytes, 6 tensors)

linear1.weight f4 [50, 13]
0	0x3f48664e	0.78281105
1	0x3fa91d4a	1.3212063
2	0xbfbafd16	-1.4608486
3	0x3fcb90ff	1.5903624
4	0x3f7c5287	0.98563427
5	0x3ffbf2e2	1.9683497
6	0x4007973f	2.1186063
7	0x402b92de	2.680839
8	0xbfc55e0b	-1.5419325
9	0x3f3cc09f	0.73731416
10	0x3f08e090	0.53467655
11	0x3de226db	0.11042567
12	0x4095673f	4.6688533
13	0x3e91694a	0.28400642
14	0x3e978b06	0.29598254
15	0x40147835	2.3198369
16	0x3e9eb069	0.30993965
17	0x3f64a96a	0.89321005
18	0x3f0818fe	0.53163135
19	0x3e5c9194	0.21539909
20	0xbe0de9cb	-0.13858716
21	0x3fc210e9	1.516141
22	0xbf6edc50	-0.9330492
23	0x3f2df0ba	0.67945445
24	0x3e3342fb	0.1750602
25	0xc08889b7	-4.266811
26	0xbe6c399a	-0.23068848
27	0xbf805dcf	-1.0028628
28	0xbe9b0067	-0.30273744
29	0xbe891b01	-0.26778415
30	0xbe85efe0	-0.26159573
31	0x3e96d1ac	0.29456842
32	0xbdfc6f58	-0.12325925
33	0xbed245e9	-0.41068962
34	0xbf56d9ec	-0.8392627
35	0xbe46b14e	-0.19403574
36	0xbd8d1df3	-0.06890478
37	0xbd9af0b4	-0.07565442
38	0x3f4d7b50	0.80266285
39	0xbf04072e	-0.51573455
40	0x3ea4b0e8	0.3216622
41	0xbf3ec011	-0.7451182
42	0xbebafbcb	-0.36520228
43	0xbdeaacf2	-0.11458768
44	0xbef66539	-0.48124102
45	0xbef1a53c	-0.47196376
46	0xbc0c1995	-0.008551021
47	0x3ee623b0	0.44949102
48	0xbdb74ade	-0.08949827
49	0xbdc9d125	-0.09854344
50	0xbec4d00c	-0.38439977
51	0xbf37f0d7	-0.7185187
52	0x3e78b261	0.24286796
53	0xc04189f5	-3.0240452
54	0xbfd9c09c	-1.7011905
55	0x3f21aca2	0.6315404
56	0x3ee0da70	0.43916655
57	0x3ee39274	0.44447672
58	0x3f24e167	0.64406437
59	0x3fc818e2	1.5632594
60	0x3e8f6f34	0.2801453
61	0xbeab8a11	-0.33503774
62	0xbf63f7e8	-0.8905015
63	0x3ed4836c	0.41506517
64	0xc05d27dc	-3.4555578
65	0x3e075872	0.13217333
66	0x3f7ada95	0.9798978
67	0xbfaeec77	-1.3665913
68	0x3f66342b	0.8992335
69	0x3e23cca9	0.1599604
70	0x3f9e7290	1.2378712
71	0x3f94e70a	1.1633008
72	0x4004d63b	2.0755756
73	0xc00fe7f0	-2.2485313
74	0x3f829a6e	1.0203378
75	0xbf4f3995	-0.8094724
76	0x3e5592e1	0.20856811
77	0x409cd1a0	4.900589
78	0xbe8f0e42	-0.27940565
79	0xbf7a7dd0	-0.97848225
80	0xbe3f5bff	-0.18687437
81	0xbf396654	-0.72421765
82	0xbf47cd23	-0.7804739
83	0xbeea938a	-0.45815688
84	0xbf44b0b1	-0.7683211
85	0xbf92e67f	-1.1476592
86	0x3c78f6e2	0.01519558
87	0xbee5b4a7	-0.4486439
88	0x3e41d12d	0.1892745
89	0x3da7173b	0.08158728
90	0xbfa2daf5	-1.272307
91	0xbea50d1f	-0.32236573
92	0xbf5b5159	-0.85671
93	0x3e7f5603	0.24935155
94	0xbf8e1831	-1.1101133
95	0xbf15964c	-0.5843246
96	0xbf7cdb5c	-0.98772216
97	0xbf922228	-1.1416674
98	0xbfbf7ec6	-1.4960563
99	0xbe8e62bb	-0.278097
100	0x3d9b77ae	0.075911865
101	0x3e3f76d4	0.18697673
102	0xbe2fffed	-0.17187472
103	0x3ee0f1b8	0.43934417
104	0x3d898fed	0.06716905
105	0xbe2d8d17	-0.16948353
106	0xbed6def4	-0.41966975
107	0xbec26436	-0.3796708
108	0xbedd1fed	-0.4318842
109	0xbeb265b9	-0.34843233
110	0xbe77f86d	-0.2421586
111	0xbeb63e57	-0.35594437
112	0xbeb82771	-0.3596759
113	0x3e3138ec	0.1730687
114	0xbeea8820	-0.4580698
115	0xbeb1a688	-0.34697366
116	0x3f89e57b	1.0773157
117	0xbb68858f	-0.0035479998
118	0xbef5cf60	-0.48009777
119	0xbf9789c8	-1.1838923
120	0xbe8bb4dc	-0.27286422
121	0x3e9f1894	0.3107344
122	0xbf439078	-0.76392317
123	0x3cd108b3	0.025516843
124	0x3e1bfd27	0.15233289
125	0x3f015098	0.505136
126	0x3dfffdfa	0.12499614
127	0xbd06ffda	-0.032958843
128	0x3e4b4128	0.19849074
129	0xbe63127a	-0.22175017
130	0x3f11683f	0.5679969
131	0xbfecfe5e	-1.8515127
132	0x3faa361a	1.329776
133	0xbfadb601	-1.3571168
134	0xbfaf9aa2	-1.3719065
135	0xbf64be12	-0.89352524
136	0xbfeebc32	-1.8651183
137	0xc00c1b0f	-2.1891515
138	0xbf361cc5	-0.7113765
139	0x3f871567	1.0553406
140	0x3ce143f9	0.027498232
141	0x3e4c8ffc	0.199768
142	0x402b94bc	2.680953
143	0xbf816c13	-1.0111107
144	0x40674d7a	3.6141038
145	0xbf9d9512	-1.2311118
146	0xbf183043	-0.5944864
147	0x3edf53cd	0.43618622
148	0xbf977252	-1.1831763
149	0x3f153326	0.5828117
150	0x3f1b0161	0.6054898
151	0x40095644	2.1458902
152	0x3f2c7db6	0.6737932
153	0xbfa6475a	-1.2990525
154	0xbbeaa8de	-0.007161244
155	0xbfc0f28c	-1.507402
156	0x3f04866c	0.5176761
157	0x3ddbc922	0.107317224
158	0xbfc6eb52	-1.5540564
159	0x3f5f6736	0.8726686
160	0x3f679e78	0.9047618
161	0x3f6eacbd	0.9323233
162	0x3fb4f3e0	1.4136925
163	0x3ff8794a	1.9412014
164	0x3e05c9a8	0.13065207
165	0xbf375f48	-0.7162976
166	0x3eb41d96	0.35178822
167	0x3eba57a9	0.36395004
168	0xbf5cbe22	-0.8622762
169	0x3eaf8c92	0.34286934
170	0x3fa14656	1.259959
171	0xbea00ead	-0.31261197
172	0x3e3285f0	0.17433906
173	0x3ed26eba	0.41100103
174	0xbec4c01f	-0.38427827
175	0x3f1d2dbb	0.61397904
176	0x3f6e79bf	0.9315452
177	0x3fae3387	1.3609475
178	0x3f21e466	0.63239133
179	0xbf09adf4	-0.53781056
180	0xbf393d98	-0.7235961
181	0xbf14c039	-0.5810581
182	0x3e180c2f	0.14848398
183	0xbf4330f7	-0.7624659
184	0x3ff9ff0d	1.953096
185	0xbf9a139b	-1.2037233
186	0xbf1d4b15	-0.6144269
187	0xbfbd27cc	-1.477777
188	0xbfcc4e9f	-1.5961493
189	0xc02a5c32	-2.6618772
190	0x400eacd7	2.2292993
191	0xbeb07c51	-0.34469846
192	0x3f35e4aa	0.7105204
193	0x3e8543b1	0.26028207
194	0xc0a38215	-5.109629
195	0xbcfcc8b8	-0.030857429
196	0xbe814dc6	-0.2525465
197	0xbd856a80	-0.06514454
198	0x3e617fc4	0.22021395
199	0x3d95d084	0.07315162
200	0x3dbbf1fc	0.09177014
201	0xbe6ce1d2	-0.23133019
202	0xbdb5b7ba	-0.08872934
203	0xbe4020c4	-0.18762499
204	0xbe36571d	-0.17806669
205	0xbc652620	-0.0139861405
206	0xbe822820	-0.25421238
207	0x3e82fdcd	0.2558426
208	0xbe978370	-0.29592466
209	0xbdbd279c	-0.092360705
210	0xbe243ec1	-0.16039564
211	0xbc8f708d	-0.017509723
212	0xbde3a4e8	-0.11115438
213	0xbe38ef2b	-0.18059985
214	0x3e33d0de	0.17560145
215	0xbe9f8e4d	-0.31163254
216	0xbda91460	-0.08255839
217	0xbe278123	-0.16357855
218	0x3e8a4dd7	0.27012512
219	0xbe6f5f81	-0.23376276
220	0x3e5bb836	0.2145699
221	0xbe045df1	-0.12926461
222	0xbf61c8d6	-0.88197076
223	0xbf144a56	-0.5792593
224	0xbde83e63	-0.11340024
225	0xbd9c3ebd	-0.07629154
226	0xbf48fdd5	-0.78512317
227	0xbe97bfee	-0.29638618
228	0xbd1a7337	-0.037707534
229	0xbcfca8cd	-0.03084221
230	0xbed75196	-0.42054433
231	0xbf365991	-0.7123042
232	0xbd1d0d95	-0.03834303
233	0xbf46b3ed	-0.77618295
234	0x3edab779	0.42718104
235	0x400a6a46	2.1627364
236	0xbead9c53	-0.33908328
237	0x401134f9	2.2688582
238	0x3fdc19b4	1.7195344
239	0x4019c22c	2.4024763
240	0x4028b1e4	2.6358576
241	0x40431ecc	3.0487547
242	0xbfec571e	-1.8464086
243	0x3e8c2860	0.27374554
244	0x3fa95248	1.3228235
245	0x3e749902	0.23886493
246	0x40056c1e	2.084724
247	0x3daeedff	0.08541488
248	0xbe431de2	-0.19054368
249	0xbf51b747	-0.81920284
250	0xbe87fd09	-0.26560238
251	0xbf09e860	-0.538702
252	0xbe91c922	-0.28473765
253	0xbefe3701	-0.4965134
254	0xbe631ccc	-0.22178954
255	0xbea68acd	-0.32527772

linear1.bias f4 [50]
0	0x4004ae88	2.0731525
1	0xbea5058f	-0.32230803
2	0x3dbe3de8	0.092891514
3	0xbedbdcd2	-0.4294191
4	0x3e26047a	0.16212645
5	0x3fd26dd1	1.6439763
6	0xbf35e66b	-0.71054715
7	0xbf7f8d38	-0.9982486
8	0xbdf28c6b	-0.11843189
9	0xbeaadd9e	-0.33372205
10	0xbeabd4f9	-0.33560923
11	0xbf60d0e1	-0.87818724
12	0x3f531664	0.8245604
13	0x3cedaaf4	0.02901218
14	0xbf8d1bce	-1.102411
15	0x3d497340	0.049182177
16	0x3dcb0006	0.09912114
17	0xbf0c20af	-0.5473737
18	0x400541af	2.082134
19	0xbea108ac	-0.3145193
20	0x3fd731f5	1.6812121
21	0xbd60cbd9	-0.054881904
22	0xbe09d9f9	-0.13462056
23	0x3e0be7be	0.13662621
24	0xbf11b74f	-0.5692033
25	0xbf289fe6	-0.65868986
26	0xbe9952c9	-0.29945973
27	0x3f3f5bc6	0.7474941
28	0xbe880137	-0.26563427
29	0x3e4a1bc6	0.19737157
30	0xbe76b1cc	-0.24091262
31	0xbf110213	-0.5664379
32	0xbf31640a	-0.6929327
33	0xbf85b15f	-1.0444754
34	0xbf002787	-0.50060314
35	0x3e899cb5	0.2687737
36	0x3f1168c0	0.5680046
37	0xbe19e8c5	-0.15030201
38	0xbefafb70	-0.49019957
39	0x3eda90d2	0.42688614
40	0x3e4e7940	0.2016344
41	0xbe4a0917	-0.1973003
42	0xbe1f8ece	-0.1558182
43	0xbf2a0dd2	-0.6642734
44	0xbf1d9a05	-0.6156314
45	0x3e0556d5	0.13021405
46	0xbe0aa2c9	-0.1353866
47	0xbea891f8	-0.32923865
48	0xbf15f661	-0.5857907
49	0xbea79bce	-0.32736057

linear2.weight f4 [250, 50]
0	0x3e1e4001	0.15454103
1	0x3e36f0fd	0.17865367
2	0x3e234b0c	0.15946597
3	0x3e12ddd5	0.14342435
4	0x3cb355f0	0.021891564
5	0x3e26056c	0.16213006
6	0x3e03580a	0.12826553
7	0x3e4d6c99	0.20060958
8	0xbca6eb81	-0.020375969
9	0x3d73bd8e	0.059506945
10	0xbda551ee	-0.080722675
11	0x3dfbbdfe	0.122920975
12	0xbd8c55a3	-0.068522714
13	0xbd5846f2	-0.052802034
14	0x3e11bfa3	0.1423326
15	0x3d8b01ee	0.067874774
16	0xbd3ff18c	-0.046861216
17	0x3cdd3381	0.027002098
18	0x3d507c52	0.05089981
19	0x3e49713c	0.19672102
20	0x3defed5e	0.11715196
21	0x3de50d95	0.11184231
22	0x3d87cf3d	0.066313244
23	0x3c838610	0.016055137
24	0x3e37aa17	0.17935978
25	0x3e20880b	0.15676896
26	0xbd974266	-0.07385711
27	0x3d9ecaef	0.0775355
28	0xbd66e610	-0.05637175
29	0xbdd9d690	-0.10636628
30	0xbd957825	-0.072983064
31	0x3e25cf51	0.16192366
32	0xbca41c5f	-0.02003306
33	0x3d3e1874	0.04641004
34	0xbd3ac999	-0.045602415
35	0x3d9c2620	0.07624459
36	0x3e3951a4	0.1809755
37	0x3de4addb	0.11165973
38	0x3dc83271	0.09775246
39	0x3e40e7fe	0.18838498
40	0x3dc54c84	0.09633735
41	0x3d61acf5	0.055096585
42	0x3ca68c68	0.020330623
43	0x3d0d7980	0.0345397
44	0xbd5f7625	-0.05455603
45	0x3d91742a	0.07102235
46	0x3da3c6d2	0.07996906
47	0x3bda66e2	0.0066650966
48	0x3d8e75ce	0.06956063
49	0xbb34a4e3	-0.00275641
50	0x3f1a3c9b	0.60248727
51	0x3f9c5b8e	1.221544
52	0xbbe9edb8	-0.007138934
53	0x3f7ec822	0.9952413
54	0x3de89694	0.113568455
55	0x3e510c9d	0.20414968
56	0xbe055bfb	-0.13023369
57	0xbe87bf54	-0.2651316
58	0x3e125513	0.14290266
59	0xbe9ac8f7	-0.3023145
60	0xbf623386	-0.8835987
61	0x3f6e9bbc	0.9320638
62	0x3f8c23c3	1.0948414
63	0x3f1a0c37	0.6017489
64	0xbe25e4d3	-0.16200571
65	0x3d217e74	0.039427236
66	0x3dca3077	0.09872525
67	0x3c8de25f	0.017319856
68	0x3f657644	0.89633584
69	0x3e96a4ac	0.2942251
70	0x3f096de6	0.53683317
71	0x3ddaa016	0.10675065
72	0x3e2574a5	0.16157778
73	0xbc381974	-0.011236537
74	0xbdcd8c17	-0.10036486
75	0x3e2b8a96	0.16752085
76	0x3ff553ae	1.9166162
77	0x3eacfdc3	0.33787355
78	0x3dc59486	0.09647469
79	0xbc5b57a0	-0.013387591
80	0x3f03e7a9	0.5152536
81	0x3d2e0ea7	0.042494442
82	0xbe724ede	-0.23662898
83	0xbf6d0be2	-0.92596257
84	0xbc6edf34	-0.014579583
85	0xbd9d1c38	-0.07671398
86	0x3f929e18	1.1454496
87	0x3f2956af	0.66147894
88	0xbd80b29f	-0.06284069
89	0x3fc219ce	1.5164125
90	0x3f8ce3d7	1.1007031
91	0xbe17b916	-0.14816698
92	0xbe14fa75	-0.14548667
93	0x4027990e	2.6187167
94	0xbd23b8df	-0.03997123
95	0xbe1e8466	-0.15480193
96	0x3dc42014	0.09576431
97	0x3d913077	0.07089322
98	0xbee843ff	-0.45364377
99	0xbe7175e1	-0.23580123
100	0xbb338e27	-0.0027397962
101	0xbe35407a	-0.17700377
102	0xbdd3c5df	-0.10340475
103	0xbca4c919	-0.020115422
104	0xbe088cd0	-0.13334966
105	0x3d491348	0.049090654
106	0x3d31ecbc	0.043438658
107	0xbe3645d6	-0.17800078
108	0x3cb0abf4	0.021566369
109	0xbdc394a1	-0.09549833
110	0xbeeda455	-0.46414438
111	0xbdf96815	-0.12178055
112	0xbdff39ec	-0.124622196
113	0xbd7f35bb	-0.0623071
114	0xbe05143b	-0.12995999
115	0xbd32f11e	-0.04368698
116	0x3d1e5a86	0.03866055
117	0x3be3a7f5	0.0069475123
118	0xbedcb816	-0.43109196
119	0xbe32a209	-0.17444624
120	0xbd7e63aa	-0.062106766
121	0x3dbc7839	0.09202618
122	0xbc83d26f	-0.016091553
123	0xbdc11d30	-0.09429395
124	0xbdca82b1	-0.09888209
125	0xbd8d8a62	-0.0691116
126	0x3c9d35dd	0.019190723
127	0xbed675ee	-0.41886848
128	0xbda828e4	-0.08210924
129	0xbd068690	-0.032843173
130	0xbca806bc	-0.020511024
131	0xbe4274a6	-0.1898981
132	0xbe01d6c2	-0.1267958
133	0xbea86db3	-0.32896194
134	0x3d2d91c8	0.042375356
135	0x3d9c7194	0.07638851
136	0xbe072adf	-0.13199948
137	0x3e940428	0.2890942
138	0x3d254c04	0.040355697
139	0xbdb6ba45	-0.08922247
140	0xbe3b2d1c	-0.18278927
141	0xbe51ec7a	-0.20500365
142	0xbe55e061	-0.20886375
143	0xbe1caac8	-0.15299523
144	0x3cad2403	0.021135336
145	0xbe1a2360	-0.15052557
146	0x3db5fb76	0.08885853
147	0xbe11ed5a	-0.14250699
148	0x3c21ea08	0.009882458
149	0xbda2f1eb	-0.079562984
150	0xbe92d82f	-0.2868056
151	0xbead52f2	-0.33852345
152	0xbe0d5dbe	-0.13805291
153	0xbdce66a9	-0.100781746
154	0x3d34fddd	0.044187415
155	0xbe52e71d	-0.20595975
156	0xbce92e28	-0.028464392
157	0xbd883859	-0.066513725
158	0x3cd1cb56	0.025609653
159	0x3e5501a9	0.20801415
160	0xbec3c2e4	-0.38234627
161	0x3d75ea5d	0.06003796
162	0xbe08e001	-0.133667
163	0xbdcc8e92	-0.09988131
164	0xbe93db6e	-0.2887835
165	0x3d8ff63a	0.07029386
166	0xbd4a10f0	-0.04933256
167	0xbd9064d2	-0.0705048
168	0xbe7c82d3	-0.2465928
169	0x3e136741	0.14394857
170	0xbec38da9	-0.38194016
171	0x3d342764	0.04398288
172	0xbddf4562	-0.109019056
173	0xbdc850fc	-0.097810715
174	0xbe17ea22	-0.14835408
175	0xbe1188c3	-0.14212327
176	0x3e5a1849	0.21298327
177	0xbe75f362	-0.24018624
178	0xbcd829a8	-0.02638705
179	0xbe07c4e7	-0.13258706
180	0x3d8c6ab5	0.0685629
181	0xbdeb3a47	-0.11485725
182	0xbc7cb341	-0.015423597
183	0xbef6f9aa	-0.48237354
184	0x3d8d9d9d	0.06914828
185	0xbc3c6d00	-0.011500597
186	0x3dd45502	0.103677765
187	0xbe228738	-0.15871894
188	0xbdcdfc5c	-0.10057899
189	0xbec27c0d	-0.37985268
190	0xbed477d2	-0.41497666
191	0xbdd988b6	-0.10621779
192	0xbd3cb3ee	-0.04607003
193	0xbdde465e	-0.10853265
194	0xbd9f9d1e	-0.077936396
195	0xbe3b8f17	-0.18316303
196	0xbdd403dc	-0.103522986
197	0xbe1f0f4a	-0.15533176
198	0xbe2f695c	-0.17130035
199	0xbe064291	-0.1311133
200	0xbed0f9cd	-0.40815583
201	0xbf082830	-0.5318632
202	0xbe86de7e	-0.26341623
203	0x409165a9	4.5436597
204	0x3fa3ab3c	1.2786632
205	0xbe1ceef4	-0.15325528
206	0xbe78e2f0	-0.2430532
207	0xbf1c9b6f	-0.6117467
208	0xbedeefd5	-0.43542352
209	0x3f2ff7fd	0.68737775
210	0xbf59a1bb	-0.85012406
211	0x3ee03ef0	0.43798018
212	0x3e8eb448	0.2787192
213	0x3e549872	0.20761278
214	0xbea1e181	-0.31617358
215	0xbd95aae9	-0.07307989
216	0xbd452a94	-0.04813631
217	0x3dbd1346	0.09232192
218	0xbf48a193	-0.7837154
219	0xbe983958	-0.2973125
220	0xbdf359a4	-0.11882332
221	0x3d90b2d2	0.07065357
222	0xbe4b6425	-0.19862421
223	0x3dcb2872	0.09919824
224	0x3e06c6e4	0.13161808
225	0x40b5fc57	5.687053
226	0x3f25d587	0.6477894
227	0xbf010461	-0.50397307
228	0x3db00670	0.08594978
229	0x3dbff076	0.09372036
230	0x403f560d	2.9896271
231	0xbdfb3bc8	-0.12267262
232	0xbe854547	-0.26029417
233	0xbcabf5c0	-0.020991206
234	0x3f7d0534	0.98836064
235	0x3c3d3eb0	0.01155059
236	0xbf20cb09	-0.6280981
237	0xbe8e90c1	-0.27844813
238	0xbee42365	-0.44558254
239	0x3f5f77ef	0.8729238
240	0xbed52082	-0.41626364
241	0xbe9aa7ec	-0.3020624
242	0xbf292eec	-0.6608722
243	0x3fce46d7	1.6115369
244	0xbf2e5fec	-0.68115115
245	0x3f62b0f9	0.8855129
246	0x3d845e66	0.064633176
247	0xbee7bc6d	-0.45260945
248	0xbdf990dd	-0.121858336
249	0xbeade641	-0.33964732
250	0xbeb89a21	-0.3605509
251	0x3d9631c3	0.0733371
252	0xbede728a	-0.4344676
253	0xbdf4b913	-0.119493626
254	0xbe85febf	-0.26170918
255	0xbf1fab8b	-0.6237113

linear2.bias f4 [250]
0	0xbd7efc8b	-0.062252562
1	0x3e04bf3a	0.12963572
2	0xbceb3db8	-0.028715953
3	0xbeba34f5	-0.36368528
4	0xbf58b9a9	-0.84658295
5	0xbea7d78e	-0.32781643
6	0xbe841d70	-0.2580371
7	0x3d2e812c	0.042603657
8	0xbe480502	-0.1953316
9	0x3c834612	0.016024623
10	0x3e4b984f	0.1988232
11	0xbf057ce3	-0.52143687
12	0xbdaf1793	-0.08549418
13	0xbcae904d	-0.021309042
14	0xbceb1fe5	-0.028701732
15	0x3ead9406	0.33901995
16	0xbd7ab198	-0.061204523
17	0x3c1a0226	0.009399926
18	0xbef9a989	-0.48762158
19	0xbd7a5387	-0.061114814
20	0xbe79e6b9	-0.2440442
21	0xbdc66800	-0.09687805
22	0xbdd4c3d3	-0.10388913
23	0x3dcec535	0.10096208
24	0xbf1a9b9b	-0.60393685
25	0xbf6392da	-0.8889595
26	0xbf36bac6	-0.71378744
27	0xbe86df8e	-0.26342434
28	0xbe8882c6	-0.26662272
29	0xbdc1e63a	-0.0946774
30	0xbd8948f4	-0.06703368
31	0xbeda1e3a	-0.42601186
32	0x3ed383e8	0.41311574
33	0xbd2fa53e	-0.042882197
34	0xbf75a228	-0.95950556
35	0x3e280124	0.16406685
36	0xbdadba8e	-0.08482848
37	0xbd991033	-0.07473793
38	0xbe496f3c	-0.19671339
39	0x3e841888	0.25799966
40	0xbd5a394d	-0.053277303
41	0x3ec2ce7f	0.3804817
42	0xbe8c0f2f	-0.27355334
43	0x3e06c178	0.1315974
44	0xbe971f5b	-0.2951611
45	0x3e94829c	0.29005897
46	0xbf547c02	-0.8300172
47	0x3eab7d16	0.3349387
48	0xbea116f2	-0.31462818
49	0xbd6776ba	-0.05650971
50	0xbe6c28ae	-0.23062393
51	0xbebced0f	-0.3689961
52	0x3e87e9c4	0.26545537
53	0x3e256528	0.1615187
54	0x3ed879d0	0.42280436
55	0x3e4493d1	0.19197012
56	0x3e95daa4	0.29268372
57	0x3f225574	0.6341164
58	0xbe09f96c	-0.13474053
59	0xbe076926	-0.13223705
60	0xbe57889c	-0.21048206
61	0x3d0490a4	0.032364503
62	0xbe171c81	-0.14756967
63	0xbedb2005	-0.42797866
64	0x3d826c7d	0.06368349
65	0xbd496c9e	-0.04917585
66	0x3c3d1ce2	0.011542531
67	0xbe913d57	-0.2836711
68	0xbee26aeb	-0.44222197
69	0xbe3e73c5	-0.1859885
70	0xbf309399	-0.68975216
71	0x3d9d98ab	0.07695135
72	0x3e89442d	0.26809826
73	0xbdacf40b	-0.08444985
74	0xbed4cc12	-0.41561943
75	0xbea21089	-0.3165324
76	0xbf5cb1b0	-0.8620863
77	0xbda9c9ea	-0.08290465
78	0xbe20b40c	-0.15693682
79	0xbdfc7eab	-0.123288475
80	0xbf097505	-0.5369418
81	0x3d5dddbc	0.05416654
82	0x3da10021	0.07861353
83	0xbf974407	-1.1817635
84	0xbebd574c	-0.36980665
85	0xbf80629b	-1.0030092
86	0x3d88af02	0.06674005
87	0x3e246fda	0.16058293
88	0x3e0e0709	0.13869871
89	0xbef98455	-0.48733774
90	0xbf1dd64b	-0.6165511
91	0xbe8392fd	-0.2569808
92	0xbe53b2b9	-0.20673646
93	0x3e938a50	0.28816462
94	0xbe195399	-0.14973296
95	0x3d9d0ee4	0.07668856
96	0x3e309e55	0.17247899
97	0xbd8ce18d	-0.06878958
98	0x3e63531c	0.22199672
99	0xbd1fa994	-0.03898008
100	0x3f0d52fc	0.5520475
101	0xbc18cacd	-0.009325695
102	0x3e2d5d67	0.16930161
103	0x3ef99dc1	0.4875317
104	0xbef1da09	-0.4723666
105	0x3b57d549	0.0032933524
106	0x3e1e7e83	0.15477948
107	0xbeb68fe5	-0.35656658
108	0xbf0b65c8	-0.5445218
109	0xbe5dd78b	-0.21664254
110	0x3e17d388	0.14826787
111	0x3c2d927c	0.010594007
112	0x3e8deb17	0.27718422
113	0xbf00e30f	-0.50346464
114	0xbb36936b	-0.0027858864
115	0x3e14627e	0.14490697
116	0xbd91e0bd	-0.071229436
117	0xbeb6be6d	-0.35692158
118	0xbe35926c	-0.17731637
119	0x3e4a0f0b	0.19732301
120	0xbe68fce6	-0.22752723
121	0xbd7e1f16	-0.062041365
122	0xbf2226df	-0.6334056
123	0xbc89d102	-0.016823296
124	0xbe87a428	-0.2649243
125	0xbeb59d24	-0.3547145
126	0xbf9b2311	-1.2120076
127	0x3dbba515	0.09162346
128	0xbe9363a8	-0.2878697
129	0x3dc97ee5	0.09838656
130	0xbf98b45a	-1.1930039
131	0x3dae5416	0.08512132
132	0x3eadd23d	0.33949462
133	0xbea346c2	-0.3188992
134	0x3daee104	0.08539012
135	0x3e38b148	0.18036377
136	0xbefd7822	-0.49505717
137	0xbebd8b51	-0.37020352
138	0xbd6d8d51	-0.057996098
139	0xbe693ca2	-0.22777036
140	0xbed3b080	-0.41345596
141	0xbe5dad28	-0.21648085
142	0x3e10bf97	0.14135586
143	0x3f24cb41	0.6437264
144	0xbc9ee4d8	-0.01939623
145	0x3ef1306c	0.47107255
146	0xbe10d4c8	-0.1414367
147	0xbe4ca24e	-0.1998379
148	0x3d937275	0.07199565
149	0xbd2e8a4e	-0.042612366
150	0x3ddbf89d	0.107407786
151	0x3e75c8d2	0.24002388
152	0x3e98a216	0.29811162
153	0xbe4d89d0	-0.20072103
154	0x3e49432f	0.19654535
155	0x3f9324d2	1.1495612
156	0xbd46499c	-0.048410043
157	0x3deb3332	0.11484374
158	0xbd124b15	-0.035716135
159	0xbec4d5da	-0.38444406
160	0xbebed527	-0.37271997
161	0x3dd35e3c	0.10320708
162	0xbe2a0b70	-0.16605926
163	0xbf121b00	-0.5707245
164	0xbf797d42	-0.97456753
165	0xbe5c6c8b	-0.21525781
166	0x3ec290f1	0.38001207
167	0xbe841205	-0.25794998
168	0x3f08da82	0.53458416
169	0x3eec5a8f	0.4616284
170	0xbf345b01	-0.7045136
171	0x3e841dc2	0.25803953
172	0xbfa84446	-1.3145835
173	0x3d8c2320	0.06842637
174	0xbe06efcb	-0.13177411
175	0xc03086f8	-2.7582378
176	0x3dfb89f7	0.12282174
177	0xbe845c53	-0.25851688
178	0xbe4b5647	-0.19857131
179	0x3e3e00cb	0.1855499
180	0xbdd71cc5	-0.10503534
181	0xbe543083	-0.20721631
182	0xbd7baa81	-0.061441902
183	0x3c865fd2	0.016403113
184	0xbecf04b7	-0.40433285
185	0x3f3df2ae	0.74198425
186	0xbf4719f8	-0.77774
187	0x3d5250dd	0.05134665
188	0x3e2e7085	0.1703511
189	0xbe754d1f	-0.239552
190	0xbe02fbdb	-0.12791388
191	0x3e1c09e7	0.15238152
192	0x3e3f26be	0.18667123
193	0xbe6e62df	-0.23279904
194	0xbf04c78b	-0.5186698
195	0xbd9756e9	-0.07389624
196	0x3d74ba2e	0.059747867
197	0xbf96f43c	-1.1793284
198	0x3ee1cd78	0.44102073
199	0xbe578a2a	-0.21048799
200	0x3c05cf5b	0.008167113
201	0xbed83eb1	-0.4223533
202	0xbda14d11	-0.078760274
203	0xbdce503c	-0.10073897
204	0xbe61c458	-0.22047555
205	0xbe26eb1a	-0.16300622
206	0x3ca8be03	0.020598417
207	0xbf571ad2	-0.840253
208	0x3e810b03	0.25203714
209	0xbef4be00	-0.47801208
210	0x3dd5412f	0.104128234
211	0xbdbdbf71	-0.0926503
212	0xbe6b0c97	-0.22954021
213	0xbeea040e	-0.45706218
214	0xbea761ff	-0.32691953
215	0x3e03e0dc	0.12878746
216	0x3f047694	0.51743436
217	0xbe6c602a	-0.23083559
218	0x3da71632	0.0815853
219	0xbe929e47	-0.2863638
220	0xbe8da8b2	-0.27667767
221	0xbdbb6c5d	-0.09151528
222	0x3da106b9	0.0786261
223	0xbdad8a18	-0.08473605
224	0xbd00d236	-0.031450473
225	0xbdbdc874	-0.09266749
226	0x3e136c85	0.14396866
227	0xbe880739	-0.2656801
228	0xbe03ea5b	-0.12882368
229	0x3dd7beaf	0.10534417
230	0x3e21cabb	0.15799992
231	0x3d63a649	0.055578504
232	0xbe842ce3	-0.25815496
233	0x3dd000eb	0.10156425
234	0xbe7d415f	-0.24731968
235	0x3ee9e1fc	0.45680225
236	0xbd03b09b	-0.032150846
237	0x3e275731	0.16341855
238	0x3e0de6a5	0.13857515
239	0x3e2078a3	0.1567102
240	0x3d090da6	0.03346028
241	0x3c9c496d	0.01907798
242	0x3d0dfe9a	0.034666635
243	0xbd51b76a	-0.051200308
244	0xbd70bd44	-0.058774248
245	0x3dedac39	0.116051145
246	0x3e36b68c	0.17843074
247	0x3e72c76b	0.23708884
248	0x3e8b2f01	0.271843
249	0xbe55ac46	-0.20866498

output.weight f4 [4, 250]
0	0xbcbadf64	-0.0228116
1	0x3d45e5dc	0.048314914
2	0x3c32550e	0.010884536
3	0x3e631aeb	0.22178237
4	0x3f4a213b	0.78956956
5	0x3dcaf82e	0.09910618
6	0x3aa8f667	0.0012890816
7	0xbd3af8b2	-0.04564733
8	0xbcbc1fad	-0.022964323
9	0xbc360701	-0.011110068
10	0x3c99e63b	0.01878654
11	0x3f835177	1.0259236
12	0x3be33c85	0.0069347047
13	0xbcefa7c8	-0.029254809
14	0xbd80b534	-0.06284562
15	0xbe1e09fa	-0.15433493
16	0x3c899ab0	0.016797394
17	0xbc1009d9	-0.00879141
18	0x3ce87567	0.028376294
19	0xbcda09ec	-0.02661606
20	0xbd83927f	-0.06424426
21	0xbd71e2d9	-0.05905423
22	0xbd31c278	-0.04339835
23	0x3d868a99	0.06569404
24	0xbec7ac69	-0.38998726
25	0x3e6920e1	0.22766449
26	0x3f79b1e8	0.9753709
27	0xbcf5120c	-0.029915832
28	0xbeca9b58	-0.39571643
29	0x3d487f97	0.048949804
30	0x3d0f7005	0.03501894
31	0xbcd422fb	-0.025895586
32	0xbe65fe8f	-0.22460388
33	0xbc4a379a	-0.012342358
34	0x3dec10e3	0.115266584
35	0xbd7358cf	-0.059410866
36	0xbdccb472	-0.09995355
37	0xbe9bc621	-0.30424598
38	0xbc56d970	-0.013113365
39	0x3c1d475e	0.009599535
40	0xbd062715	-0.032752115
41	0x3cf077ab	0.029353937
42	0xbe36c01e	-0.17846724
43	0x3eb06cb3	0.3445793
44	0x3a4bc5bc	0.00077733
45	0xbd3fd37c	-0.046832547
46	0xbe8dca00	-0.27693176
47	0x3db1216a	0.08648951
48	0xbd747d35	-0.05968972
49	0x3e669e4f	0.22521327
50	0xbf95bf28	-1.1698961
51	0x3ea0ef34	0.31432498
52	0xbd49c797	-0.04926261
53	0xbdab74e9	-0.08371908
54	0x3dd27c19	0.10277576
55	0xbf0743d2	-0.5283786
56	0x3ddbb860	0.10728526
57	0x3daa39c6	0.08311801
58	0xbc19e079	-0.009391897
59	0xbc996d90	-0.018729001
60	0x3c339aa4	0.010962162
61	0xbceb06c8	-0.028689757
62	0x3e45122e	0.19245216
63	0xbea436c3	-0.3207303
64	0xbd8ed646	-0.06974463
65	0x3c093036	0.008373311
66	0x3d20a701	0.039221767
67	0x3d82f37f	0.063940994
68	0x3ebd2205	0.36940017
69	0xbcc6e636	-0.024279695
70	0xbe70f968	-0.23532641
71	0xbc21e121	-0.009880335
72	0xbda69c8b	-0.08135327
73	0xbd83cbcc	-0.064353555
74	0xbc18edb9	-0.009334021
75	0x3df26f17	0.11837595
76	0xbd37f752	-0.044913597
77	0xbd04147d	-0.0322461
78	0xbd375162	-0.044755347
79	0xbd805206	-0.06265645
80	0xbe928c14	-0.28622496
81	0xbc1184e1	-0.008881778
82	0x3c68df94	0.014213461
83	0x3fdbd196	1.7173336
84	0xbe4674a9	-0.1938044
85	0x3f8040af	1.001974
86	0x3a0c2130	0.00053455215
87	0xbf9132a7	-1.1343583
88	0xbbe93344	-0.007116707
89	0x3e902820	0.28155613
90	0x3dfcfcbe	0.12352894
91	0xbdfe9cbe	-0.1243224
92	0xbe8aacf8	-0.2708509
93	0xbcea4914	-0.0285993
94	0xbc8b130b	-0.016976854
95	0xbd69cc94	-0.057079867
96	0xbecebd63	-0.40378866
97	0xbd373d00	-0.04473591
98	0xbd5e4c8c	-0.05427222
99	0x3d08a678	0.033361882
100	0x3ee3006d	0.44336262
101	0xbd89cec0	-0.067288876
102	0x3cd00516	0.02539305
103	0x3e2f58e8	0.17123759
104	0xbea203c9	-0.31643513
105	0xbd3963b9	-0.04526112
106	0xbc030f16	-0.007999202
107	0x3e85668c	0.260548
108	0x3d3e4aae	0.04645794
109	0xbe96be91	-0.29442266
110	0x3a91d060	0.0011124723
111	0xbe4b913d	-0.19879623
112	0xbe1293e0	-0.14314222
113	0x3e06cd04	0.13164145
114	0x3e4d289b	0.20035021
115	0x3d2e20b1	0.042511646
116	0xbda94ff4	-0.08267203
117	0xbd1dfb0a	-0.038569488
118	0xbdb05215	-0.08609406
119	0x3c0c6eda	0.008571351
120	0x3e40ec78	0.18840206
121	0xbca2005c	-0.019775562
122	0x3e5b0c4a	0.21391407
123	0xbbc83f61	-0.006111071
124	0xbda80296	-0.08203618
125	0xbe3286bc	-0.1743421
126	0x3f43a310	0.7642069
127	0xbd16816c	-0.03674452
128	0xbc815230	-0.01578626
129	0xbe4017f7	-0.18759142
130	0x3e27b791	0.16378619
131	0xbcdf2fa0	-0.027244389
132	0x3dbe282d	0.09285007
133	0x3d942a39	0.07234616
134	0xbd41cf6b	-0.04731695
135	0xbf9bbc61	-1.2166864
136	0xbf52671f	-0.821886
137	0x3cdb5790	0.026775151
138	0xbd6b56bc	-0.057455763
139	0xbf13787d	-0.57605726
140	0x3cffa223	0.031205242
141	0xbc6e0c70	-0.0145293325
142	0xbcbf9004	-0.023384102
143	0x3e2504f0	0.16115165
144	0x3c0f6203	0.008751395
145	0xbd524041	-0.05133081
146	0xbb8488e4	-0.004044639
147	0x3dfbbe43	0.12292149
148	0x3d77fec9	0.060545716
149	0xbc89e721	-0.016833844
150	0x3e769b2f	0.24082635
151	0x3cf2350a	0.029566307
152	0xbc545da4	-0.012961779
153	0x3e96567b	0.29362854
154	0xbf03dae5	-0.5150588
155	0xbf5f7c0d	-0.8729866
156	0x3e4ec410	0.2019198
157	0xbd2a2df7	-0.04154774
158	0xbd67c8ac	-0.05658786
159	0x3d8254c8	0.06363827
160	0x3e1a298e	0.15054914
161	0xbbca3e0a	-0.0061719464
162	0xbdb9dbe5	-0.09075145
163	0x3b6e911d	0.0036402412
164	0xbe8b6b30	-0.27230215
165	0x3bf1b380	0.0073761344
166	0xbca51dbd	-0.020155782
167	0x3c19f1a2	0.009395989
168	0x3c89718c	0.016777776
169	0x3ea3fb54	0.32027686
170	0x3f339c3c	0.7016027
171	0xbdea7455	-0.1144797
172	0xbd02ff01	-0.031981472
173	0xbd45783a	-0.04821036
174	0x3cd20e0e	0.025641467
175	0x3ed3fecb	0.4140533
176	0xbd22b3f3	-0.039722394
177	0xbd4d8c19	-0.050182436
178	0xbdabe165	-0.083926
179	0xbd256e48	-0.040388376
180	0xbd476ea6	-0.048689507
181	0xbb46ff72	-0.003036466
182	0x3d0a92a8	0.03383127
183	0x3aacb512	0.0013176522
184	0x3bc2e110	0.0059472397
185	0x3d8422b9	0.06451935
186	0x3e547a46	0.20749769
187	0x3d1ffb56	0.039058052
188	0xbf5c46d0	-0.8604555
189	0xbc477df7	-0.012176028
190	0xbc9ee434	-0.019395925
191	0xbc79763c	-0.015225943
192	0x3e11b495	0.14229043
193	0xbc95d944	-0.018292077
194	0xbe04e023	-0.12976126
195	0xbd3fb29e	-0.046801202
196	0x3ce510a3	0.027962035
197	0x3eff144c	0.49820173
198	0x3ce24240	0.027619481
199	0xbd8e3296	-0.06943242
200	0xbc89f46d	-0.016840184
201	0x3e3f9f2d	0.18713064
202	0xbc99620e	-0.018723514
203	0xbb032c78	-0.002001552
204	0x3d209e8d	0.039213706
205	0xbcc350ad	-0.02384218
206	0xbc0aa25e	-0.008461563
207	0xbfac4878	-1.3459616
208	0xbe6b120f	-0.22956108
209	0xbdaae820	-0.083450556
210	0xbe7c5a9d	-0.24643941
211	0x3ea172d2	0.31532913
212	0xbe5eda23	-0.217629
213	0xbe5d510b	-0.21612947
214	0x3d462d83	0.048383247
215	0xbc113f7f	-0.008865236
216	0x3e290869	0.16507114
217	0x3c7d2d11	0.015452639
218	0xbc87f1f8	-0.016594872
219	0xbe2b8274	-0.16748983
220	0x3c560ae4	0.01306412
221	0x3d04d7b2	0.032432266
222	0xbd38b085	-0.045090217
223	0xbd0b3049	-0.033981595
224	0xbd0031d6	-0.031297527
225	0xbd10d9de	-0.035364024
226	0xbd08bc8c	-0.033382937
227	0xbea7cac7	-0.32771894
228	0xbd8e9c5f	-0.06963419
229	0xbd475007	-0.048660304
230	0xbb76e6b6	-0.0037674136
231	0xbeecdadc	-0.46260726
232	0x3d421581	0.04738379
233	0xbd1e6b8c	-0.038676783
234	0xbb4c99c6	-0.0031219586
235	0x3d58d40c	0.0529366
236	0x3d9ffb79	0.078116365
237	0xbcedffa7	-0.029052569
238	0x3d6c697a	0.057717778
239	0x3dfb116c	0.12259182
240	0xbc540e3e	-0.012942849
241	0xbd0b0615	-0.033941347
242	0x3da786e2	0.08180024
243	0xbc7e4135	-0.015518476
244	0xbd895e5f	-0.06707453
245	0xbd1f22ef	-0.038851675
246	0xbd041881	-0.03224993
247	0xbce05ebc	-0.027388923
248	0x3cff9463	0.031198686
249	0x3a882225	0.0010386152
250	0xbb5b461c	-0.0033458536
251	0x3e38bef2	0.1804159
252	0x3c95a854	0.018268742
253	0xbeaa4443	-0.33255205
254	0xbf65bff1	-0.89746004
255	0x3ebfb469	0.3744233

output.bias f4 [4]
0	0xbd41a146	-0.047272943
1	0xbb22b05c	-0.0024824357
2	0xbde699c3	-0.112597965
3	0x3d9e2ba4	0.077231675
