model_2.pth (torch, 60011 bytes, 6 tensors)

linear1.weight f4 [50, 13]
000000 16 8b 2c 3f 12 7f 47 be 50 55 df be 04 34 92 be
       0.6739973 -0.19482067 -0.43619776 -0.2855531
000010 4d 29 4a be d9 1b 7e be 41 64 e7 3c ce 41 87 be
       -0.19742317 -0.2481531 0.028246047 -0.26417392
000020 74 0b 07 3e 70 8c 8a bc 23 43 2f be 09 f2 56 3e
       0.13187963 -0.016912669 -0.17115454 0.20990767
000030 63 ef 98 bd 1a 43 1c bf 7f 1e 5b 3e fe 33 ec 3e
       -0.074675344 -0.6103989 0.21398352 0.46133417
000040 e7 9d 92 3d 24 6c ee bd d7 1d af 3d 50 54 35 be
       0.07159024 -0.1164172 0.085506134 -0.17707944
000050 9c fb 5a 3e ce 56 b0 bd ea 09 e2 bd bc a8 5a be
       0.21385044 -0.08610307 -0.11037047 -0.2135343
000060 bc 22 b4 3d 8b 52 05 3e c3 f4 88 3e 9a 64 e8 3c
       0.087956876 0.13019769 0.26749238 0.028368283
000070 3d 3c 8d 3e 73 b2 8c 3e 22 c8 8e 3e 19 9a 5f 3e
       0.2758502 0.27479896 0.27887064 0.21836127
000080 d4 eb 42 3e 93 8f a5 bc 45 df ef 3d 35 81 b0 3d
       0.19035274 -0.020210063 0.11712507 0.08618394
000090 36 c2 00 bc 7c ef 6a be 1c ce 1c be 50 a7 21 be
       -0.0078588035 -0.22942919 -0.15313 -0.15786481
0000a0 f9 b8 ed 3e 41 db ea be 83 21 0a bd 35 4a 0f be
       0.46430185 -0.45870402 -0.033723366 -0.13993151
0000b0 04 29 0f bd 85 42 5f be 13 87 51 bd 97 8c 6b 3e
       -0.034951225 -0.21802719 -0.051154207 0.2300285
0000c0 47 72 42 3e 07 06 82 be e1 c2 b1 3c a5 1f 09 be
       0.18988906 -0.25395223 0.02169937 -0.13390978
0000d0 17 ed 7b be 20 e5 a3 bd bb b7 82 be b3 d3 7b be
       -0.24602161 -0.080026865 -0.255308 -0.24592476
0000e0 5a ff 9f bd 1e 32 1d 3e 84 49 a7 bd f9 8d 10 be
       -0.07812376 0.1535115 -0.08168319 -0.14116658
0000f0 b1 84 c3 3c ed 2f 3f 3d ec d0 7d bd f5 42 75 be
       0.023866983 0.046676565 -0.06196682 -0.23951323
000100 58 1a dd bd ed 51 53 be 8a ab 00 3e b8 27 89 3e
       -0.1079604 -0.20636721 0.12565437 0.26788116
000110 0f a5 4e 3e 19 4e ee 3d 07 76 4d 3e 18 b0 eb bd
       0.20180152 0.1163599 0.20064555 -0.115081966
000120 7c 07 e8 bd ed 8b 48 3e 33 83 a0 bd e3 92 eb bd
       -0.113295525 0.19584627 -0.07837524 -0.11502626
000130 02 2a 71 be 1c 33 45 3e 22 26 9a 3e cf ac ee 3c
       -0.23551181 0.19257778 0.30107218 0.029135136
000140 10 e5 cb be 3c cf 8a bd ab a0 23 3e 4f a2 89 bd
       -0.39823198 -0.06777808 0.15979259 -0.06720411
000150 69 a5 56 be c1 01 c5 bd d2 09 58 bd 63 29 b9 be
       -0.20961536 -0.09619475 -0.05274374 -0.36164388
000160 08 b4 a5 bd d2 b8 78 3e 9f 87 50 3e e1 c6 86 be
       -0.08090979 0.24289253 0.20364235 -0.26323608
000170 5c f8 4f be c6 6f 75 3e d2 97 df bd 93 56 8d 3e
       -0.20309585 0.2396842 -0.10917629 0.27605113
000180 bb a0 eb 3c 76 00 ed bd 5d 77 94 3e 87 f9 99 3c
       0.028763166 -0.115723535 0.28997317 0.018795742
000190 f1 b4 98 3e fe 2a 89 be 3a b5 29 be 06 37 d2 3d
       0.29825547 -0.26790613 -0.16573039 0.10264401
0001a0 28 8d 93 3d 29 96 36 3e c8 3f a9 3e c1 2c 4c be
       0.07204658 0.17830719 0.33056474 -0.19938947
0001b0 77 31 7b be 5b 79 64 bd 92 71 c4 3d 53 f4 68 3e
       -0.24530588 -0.055779796 0.09591974 0.22749452
0001c0 6b 26 90 3e 3e 25 82 be d1 08 50 be 68 47 4d 3e
       0.2815431 -0.2541904 -0.20315863 0.2004677
0001d0 3f 30 6c 3e 01 f8 96 be 62 61 22 bc d3 98 7b 3e
       0.2306528 -0.29486087 -0.009910913 0.24570017
0001e0 47 6a 31 3a 21 87 fe bc ca 6a 83 3e 78 6f 81 bd
       0.0006767851 -0.031070294 0.2566741 -0.06320089
0001f0 57 41 1a be 1e 46 6b be 6f a6 ac 3d 1c 53 ba bd
       -0.15063988 -0.22975966 0.08430182 -0.09097883
000200 a2 af ce 3b 34 ed c5 3d 60 9b 9c bd 5e ea 1a 3e
       0.006307558 0.096643835 -0.07646823 0.15128466
000210 00 f0 a8 39 b2 20 75 be 46 b5 6b be 4a ae 1b be
       0.0003222227 -0.23938254 -0.23018369 -0.15203205
000220 7e 4e 2d 3e 8a ea 56 3e 46 0e 68 3e 9c 10 38 be
       0.16924474 0.20987907 0.22661695 -0.17975086
000230 84 11 01 be 2e 10 66 be 01 1b 81 3e 36 07 47 be
       -0.12604338 -0.2246711 0.25215915 -0.19436345
000240 77 a5 37 be 6a 42 20 3e b5 7d 86 3e 31 21 5f be
       -0.17934214 0.15650335 0.26267782 -0.21790005
000250 5d a7 5b 3e cf 4b 18 be 0d 03 2e bd 36 86 44 be
       0.21450563 -0.14872669 -0.04248338 -0.19191822
000260 42 78 1d 3e 39 d4 a7 bc bd 93 5a be 70 8f ca 3d
       0.15377906 -0.020486938 -0.2134542 0.0989064
000270 bd 07 22 3e ba b3 c0 bd eb ef 00 3d 85 3e b3 3d
       0.15823264 -0.0940928 0.031478804 0.08752159
000280 84 16 64 3e bd 19 10 3e 37 f7 b6 bd c0 dc 71 be
       0.22274214 0.14072318 -0.08933871 -0.23619366
000290 82 e1 04 be 82 d6 80 bd 75 ee 6e be e8 1a 68 3e
       -0.1297665 -0.06290914 -0.23333152 0.22666514
0002a0 bf af 68 3e d9 1c 65 be eb 3e 45 3e 0b 63 ca 3e
       0.22723292 -0.22374286 0.19262283 0.3952869
0002b0 57 0d 91 3e 61 4a 92 3e 5d b2 64 be 15 df 34 bc
       0.2833049 0.28572372 -0.22333665 -0.011039515
0002c0 0a 73 b3 3d ac 91 9a 3e 70 bd 39 3c 20 80 b8 bd
       0.08762176 0.30189264 0.011336669 -0.09008813
0002d0 cc d6 56 bb dd 04 62 3e 67 79 03 3f 9a 82 2d 3e
       -0.0032781838 0.22072168 0.5135712 0.16944352
0002e0 9a 2f ac be 12 4e 05 3e dc d7 66 3d 52 db 1e bd
       -0.33630067 0.13018063 0.056358203 -0.03878338
0002f0 c2 13 32 3e af ee 69 3e d0 12 26 be 6a e6 83 3e
       0.1739035 0.22844957 -0.16218114 0.2576173
000300 91 71 46 3e 2a 74 0e 3e ff 55 aa 3d 2e 18 6f 3e
       0.1937926 0.139115 0.08317184 0.23349068
000310 fa 14 07 bc 7a 39 4d be 93 3f 8a be 25 fb 1a 3e
       -0.008244747 -0.20041457 -0.27001628 0.15134867
000320 8a 8e cb 3d 54 fa ea 3c 62 4b 17 bd c9 53 d6 bd
       0.099392965 0.028683819 -0.036937125 -0.104651995
000330 0a 39 1a 3c d9 e5 47 3e 22 f6 7e bd 83 6a bf bd
       0.009413013 0.19521274 -0.06224645 -0.093464874
000340 99 68 50 3e 4b 48 c3 be 87 4b 15 be 4d 7c 38 bc
       0.20352401 -0.38141093 -0.14579593 -0.011260104
000350 48 e9 47 be 29 7e 13 3d 3e 23 44 3e ce c1 fa bc
       -0.19522583 0.036008988 0.19154069 -0.030609991
000360 97 93 c0 bc 38 f5 1e 3e 33 cf 83 be 45 72 b0 3d
       -0.023507876 0.15523231 -0.25744018 0.08615545
000370 7f 09 5a bc 17 4a 44 3e 2e ff 12 3e cf e1 3a 3e
       -0.013307928 0.19168888 0.14355156 0.18250202
000380 e2 b3 e5 bd b8 d0 82 bd c7 fd 2c be d7 b9 90 3c
       -0.112159505 -0.06387466 -0.16893683 0.01766674
000390 ee e0 24 bc b0 f4 9c 3c a2 f8 dc bd 39 80 d2 3c
       -0.010063393 0.019159645 -0.107896104 0.025695907
0003a0 f1 d2 6e be e2 d4 47 be 72 8a 0f 3f a4 ea a4 3e
       -0.23322655 -0.19514802 0.56070626 0.32210267
0003b0 7e 9a f9 be 0d 80 3c 3e 32 31 db bd a1 e0 43 be
       -0.4875068 0.18408222 -0.10702743 -0.19128658
0003c0 50 16 03 be 94 b7 1b be 2f 10 9e 3d 26 18 17 3d
       -0.1280148 -0.15206748 0.077179305 0.036888264
0003d0 8f cf 4a 3e 7b c9 e6 3c 04 50 d6 3d d2 19 09 3f
       0.1980574 0.028172245 0.104644805 0.53555024
0003e0 5c 29 8d be 98 e6 8b 3e de 0c ae be 12 b7 0b be
       -0.27570617 0.27324367 -0.33994192 -0.13644055
0003f0 e6 a6 c9 bd 6a 74 f5 ba 72 87 13 be ff 62 38 3e
       -0.098462865 -0.0018726711 -0.14407137 0.18006514

linear1.bias f4 [50]
000000 00 5a d9 bd 5d 29 69 bc 39 cb 7d 3e f7 e9 07 3e
       -0.10612869 -0.014231053 0.24784555 0.13272844
000010 06 76 c1 bc 65 91 8b 3e fb fa 50 3e 3c d3 8a be
       -0.023615848 0.27259365 0.20408241 -0.27114284
000020 41 70 65 be 41 c9 e0 3d 39 c0 37 be f4 1a 67 3c
       -0.22406103 0.10975886 -0.17944421 0.014105547
000030 69 d5 6f 3e 65 1e c5 bd d6 8f 36 be db 7f 8a be
       0.23421253 -0.09624938 -0.17828307 -0.2705067
000040 57 f1 44 bd 99 02 a9 bd d6 58 ec bd e9 74 88 be
       -0.048081722 -0.082524486 -0.115403816 -0.26651695
000050 a7 ce 2d bd 7e 9c 01 3c ca 39 67 3c f2 b3 c6 3d
       -0.042433407 0.007910846 0.014112899 0.097022906
000060 41 5f 2b be 0a c2 3b 3e f2 04 4e 3e 35 fb eb 3d
       -0.16735555 0.18335739 0.20119074 0.11522523
000070 aa 9c 1d bd 0c ef 2a 3e a6 12 75 3d 2c 8c aa bd
       -0.038479485 0.16692752 0.059832238 -0.08327517
000080 23 88 07 3e 18 95 11 be ba d3 c4 bc 1f 71 11 bd
       0.13235526 -0.14217031 -0.02402674 -0.03550827
000090 b0 8b 52 3e b1 2f 5e 3e 31 a3 a6 bb 90 10 d8 bd
       0.20561099 0.2169788 -0.005085372 -0.10550034
0000a0 ce 9e eb 3c 94 fc 82 be 2a 21 0c 3e 6b 6f 70 3e
       0.028762247 -0.25583327 0.13684526 0.23480003
0000b0 74 5d 84 3e bc 60 1b be ec 3e 80 3e d8 58 85 be
       0.2585255 -0.1517362 0.25048006 -0.26044345
0000c0 63 5c c1 bc db 24 98 bd
       -0.023603624 -0.074289046

linear2.weight f4 [250, 50]
000000 0b a9 af bd 8a 18 9f 3b 20 e3 be 3d 74 ea e8 3d
       -0.08577164 0.00485522 0.093206644 0.113728434
000010 9c 5d 8b bd 53 8a 47 3b 4b 92 f3 bd b1 58 07 3d
       -0.06804964 0.0030447438 -0.118931375 0.033043567
000020 a7 f0 c6 bd 8a 0f 31 bd 76 32 ce 3d a0 49 8c 3d
       -0.097138695 -0.04322771 0.100682184 0.0684998
000030 4f 92 8b 3d 57 75 8d 3d 1c f8 64 ba b8 55 15 3d
       0.068150155 0.069071464 -0.0008734481 0.0364587
000040 09 3d 4a bd 05 4e e0 3d 67 f6 46 bd 71 49 44 bd
       -0.049374614 0.10952381 -0.04857483 -0.0479216
000050 e5 5e ec 3d 26 6b b8 bd 19 1f 8e bd 83 31 9d 3d
       0.11541537 -0.09004812 -0.06939525 0.07675459
000060 37 e6 ee bd 5c 10 0c 3e e9 9b 09 3e aa 5d ac 3d
       -0.11665004 0.13678116 0.13438381 0.084163025
000070 61 7d a0 3d d6 99 e4 bd 8f e0 9c 3b 46 e4 4e bd
       0.07836414 -0.111621544 0.0047875117 -0.050510667
000080 a6 94 ef 3d aa 6d 04 3d 4f e1 06 3d 13 48 99 3c
       0.11698274 0.032331146 0.032929715 0.018711125
000090 c3 b6 e3 bd 54 7e a3 bc ae 58 39 3d ed 9d 92 bd
       -0.111188434 -0.019957699 0.045250587 -0.07159028
0000a0 d2 b1 d8 bc a8 8d 9b bc 50 f1 1b bd 23 10 24 3d
       -0.026451979 -0.018988445 -0.03807193 0.04005445
0000b0 58 e6 5d 3d d1 8a ef 3d 05 4f 80 bd c7 0c 30 3d
       0.05417475 0.11696399 -0.06265072 0.042980935
0000c0 4f 77 82 bd 95 fa f0 bd 5b 61 d8 bd 63 43 95 3d
       -0.063704126 -0.11766545 -0.10565444 0.072882436
0000d0 a8 24 03 bd 28 ac ce bd 8d ef 21 bd 72 67 9b bc
       -0.03201738 -0.1009143 -0.039535094 -0.018970225
0000e0 08 0d 0d bd 67 5a 71 bc 77 4f 01 bc 2f 8b 17 bd
       -0.034436256 -0.014731026 -0.007892481 -0.03699797
0000f0 d0 86 58 bd af 02 bd bc 01 77 77 bd 74 ec bf 3d
       -0.052862942 -0.023072569 -0.060416225 0.09371272
000100 67 a8 9f 3d c4 91 18 3d 82 f4 00 3e 1d 36 2f bd
       0.07795792 0.037248388 0.12593272 -0.042776216
000110 26 7d f0 bc 5c b4 e3 3d ed 5a db bc c5 83 56 3d
       -0.02935655 0.11118385 -0.026776755 0.05237176
000120 d6 00 12 3b 7c f7 d6 bd 37 67 d1 3d aa ff c7 3d
       0.002227833 -0.10496423 0.10224765 0.09765561
000130 ab 00 9e 3d 86 cc 03 be 1c f8 84 bd d3 b4 03 3c
       0.07714971 -0.12870988 -0.064926356 0.008038717
000140 90 ef 13 38 86 c2 da bd d6 c5 a3 3d bc c8 7b 3d
       3.527064e-05 -0.10681634 0.079967186 0.061470732
000150 b9 de b3 bd 87 b6 39 3b 58 8f f5 bd 57 a1 81 bd
       -0.08782715 0.0028337555 -0.11990231 -0.06329601
000160 3a 2b 3d 3c 00 e8 bf bd 83 64 ea bb de f7 f3 bd
       0.011545951 -0.09370422 -0.007153095 -0.11912511
000170 34 22 e8 3d 18 e8 b6 3d 13 70 df 3b 6c 64 0c be
       0.11334649 0.08930987 0.00681878 -0.13710183
000180 6b 98 12 3e 9a f3 59 bc 22 09 e0 bc 2f 16 81 3d
       0.14315955 -0.013302708 -0.027348105 0.06303059
000190 63 91 d5 3d d9 56 13 3e b2 69 01 3e aa 77 e3 3d
       0.10428121 0.14388599 0.12637976 0.111068085
0001a0 b0 99 15 bc e0 29 ff bd 6f aa c3 bd 77 7f 01 3e
       -0.00913088 -0.12459159 -0.09553992 0.1264628
0001b0 c6 94 72 bd 5b 40 96 bd 48 6f 1f bd 03 7d 4b bd
       -0.059223913 -0.073364936 -0.038924485 -0.049679767
0001c0 0a ca cb bd d4 9d 4f bd 23 95 00 be 6b a0 74 bd
       -0.09950645 -0.050687626 -0.12556891 -0.0597233
0001d0 1e 2f 85 bd 61 7c 23 bd ad f5 89 bc 93 05 91 3d
       -0.065031275 -0.03991354 -0.01684078 0.07081141
0001e0 2b 88 bc bd 11 88 b6 3d 96 f2 c2 bd d3 f1 5f bd
       -0.092056595 0.08912671 -0.09518926 -0.05467398
0001f0 31 a6 00 be 40 6b d8 bd ea bd 8a bc 89 e5 9b bd
       -0.12563397 -0.10567331 -0.016936261 -0.0761214
000200 ab 48 82 3b cf b7 ae bd 2e 78 9d bb 18 ab 92 bd
       0.003975948 -0.085311525 -0.0048055863 -0.0716154
000210 08 2a 0d be 45 4f aa 3b 18 0c fa 3d 58 ea 5c 3d
       -0.13785565 0.005197438 0.12209338 0.053934425
000220 72 62 e0 3d 56 a0 03 be 7c 1b c0 3d a5 db fd 3d
       0.10956277 -0.12854132 0.09380242 0.123954095
000230 84 57 f9 3d fa c2 f5 bd ab 17 52 bd 2f 1d d9 bd
       0.121748954 -0.120000795 -0.051292103 -0.106012695
000240 85 a4 e9 bd d6 bb a8 bd 88 b0 d2 3b 01 a0 9a bd
       -0.11408333 -0.08238952 0.0064297356 -0.075500496
000250 cd 30 cd 3d a2 1f 82 3d 9f cb 01 be d2 3e 9e 3d
       0.10019074 0.0635369 -0.12675332 0.07726826
000260 82 7b d7 3d 2d 04 7f 3d 16 8c 21 bd 97 ea 0a be
       0.10521604 0.06225984 -0.039440237 -0.13566051
000270 ed 03 ef bd 34 1f 2f bd 53 fa 37 3c 7b b6 47 3c
       -0.11670671 -0.042754367 0.011229116 0.012189503
000280 ac 08 62 3d 20 d6 c6 bd ee 2a d1 bc 1e e6 0f 3d
       0.05518405 -0.0970881 -0.025533166 0.035131566
000290 7e 80 d8 3d ef 20 7b bd a5 91 9b 3d 32 9a d5 3d
       0.10571383 -0.061310705 0.07596139 0.10429801
0002a0 a7 78 24 3d 6a df 8a 3d bc 1c 60 bd e1 06 e2 3d
       0.040154126 0.06780894 -0.054714903 0.11036468
0002b0 a7 1b aa 3d 53 3b b7 3d be 66 e8 3d d0 3f f2 3c
       0.083060555 0.08946862 0.113477215 0.029571444
0002c0 38 5b 4e bd b5 e1 b8 3d cc 83 d1 3d cf 86 a5 3d
       -0.05037996 0.09027425 0.102302164 0.08082353
0002d0 10 b8 00 3d c6 50 af 3d a3 1f c6 3d aa f0 e3 3d
       0.031425536 0.08560328 0.09674003 0.111298874
0002e0 79 8b b6 3d 0a a0 0a 3e d2 80 cb 3d 2e 7e ef 3d
       0.08913321 0.13537613 0.0993668 0.11693989
0002f0 80 0c 05 3c 24 17 bb bc 97 4d 8c 3d ef 10 3c bd
       0.008120656 -0.022838183 0.068507366 -0.045914587
000300 b9 d3 fd bd 38 4f f9 3c 9d a9 e8 bd 53 54 a9 bd
       -0.123938985 0.030433282 -0.11360476 -0.08268037
000310 19 09 18 bd 15 ba 86 3d b9 c8 04 3d a1 0e a0 bd
       -0.03711805 0.06578461 0.032417987 -0.0781529
000320 6a 67 9a 3d a9 64 5b 3b 6e f2 85 bd f2 e3 fd 3d
       0.07539256 0.0033476746 -0.065403804 0.12396993
000330 78 f1 57 bd 75 31 af bd 76 4f 1c 3d eb 0c d3 3d
       -0.052720517 -0.08554355 0.038161717 0.10305198
000340 9c 26 d4 bc 49 8a a8 bd 72 80 db 3d b6 b9 b3 3d
       -0.025897317 -0.08229501 0.107178584 0.08775656
000350 64 3f 94 3d 9d 11 68 bd 4e 2a d8 3d 07 d7 03 be
       0.07238653 -0.056657422 0.10554944 -0.12874995
000360 2c 92 a4 bd e7 f8 51 3d 23 58 bd bd 0b 61 be 3d
       -0.080356926 0.051262762 -0.09245326 0.09295853
000370 88 c8 8f bd d8 f1 6c 3d 1f 71 10 3e 53 9b 0a 3e
       -0.0702067 0.057847828 0.14105652 0.13535814
000380 b4 e4 c1 3d c3 4b 01 be 0c f0 4d 39 26 75 be 3d
       0.0946745 -0.12626557 0.00019639748 0.09299688
000390 00 45 4e bd a8 9b 96 3d c7 da e8 3c 2c bb 0a 3e
       -0.050358772 0.07353908 0.028424634 0.13547963
0003a0 c0 b7 66 3c fd 8f cd bd 59 21 72 3d 65 5d 0c be
       0.014081895 -0.10037229 0.059113834 -0.13707502
0003b0 10 97 24 bd 3c 2d 98 3d e2 4a 3d bd ec 70 79 3d
       -0.040183127 0.07430503 -0.046213992 0.060898706
0003c0 54 e6 3a 3c 27 d8 4a 3d a5 93 a8 3d 51 3c 0b be
       0.011407454 0.049522545 0.08231286 -0.13597228
0003d0 9d 0e b6 3d 58 1e dc 3c 2b e2 a3 3c 5c 88 ef 3d
       0.08889506 0.026869938 0.020005306 0.1169593
0003e0 84 ba b7 bc 14 cb 93 bd 94 11 8b 3d a6 d8 8b 3d
       -0.022427805 -0.072164685 0.06790462 0.06828432
0003f0 7b e2 09 3e 66 26 1c bc 1f 68 8d bd c8 84 5a 3d
       0.13465302 -0.009530639 -0.06904625 0.053349286

linear2.bias f4 [250]
000000 bc d0 73 3d 81 b8 d1 3d 9a 3a 56 bd 58 97 d7 bd
       0.059525236 0.102402695 -0.05230198 -0.105269134
000010 8b 61 6a bd e0 6e 3a 3c 18 88 36 3d 5f 8b d8 bd
       -0.05722193 0.011378974 0.044563383 -0.10573458
000020 a0 3d 8b 3c 69 01 96 bb 42 2f ad 3d b4 c0 fc 3d
       0.016997159 -0.004577805 0.08456279 0.12341443
000030 64 ec 95 bc 0f 76 43 bd 48 b8 82 bd fe 53 0d 3d
       -0.018301196 -0.04772001 -0.06382805 0.03450393
000040 5b 7e 05 3e 47 44 eb 3c 14 25 84 3d 18 77 74 bd
       0.13036482 0.02871908 0.064523846 -0.05968389
000050 0e 79 17 bc 59 55 55 bd 50 88 68 3d 48 4a b9 bd
       -0.00924517 -0.052083347 0.056770623 -0.09047371
000060 96 a5 0d be 12 e3 a8 bd 3d 13 a6 3d c8 d6 53 bd
       -0.13832697 -0.08246435 0.08109138 -0.051718503
000070 f9 e1 92 3d f1 60 0f be 6c a7 a3 bd d9 66 9c bd
       0.07172007 -0.14001824 -0.079909176 -0.07636804
000080 5b 51 e3 3d 13 99 53 3d a2 46 1f bd e2 16 e7 3d
       0.11099502 0.051659655 -0.03888572 0.112836614
000090 13 09 18 3c 8d c9 b4 3d 49 0d b6 3d 05 bd fe 3d
       0.009279507 0.08827505 0.08889253 0.12438396
0000a0 dc f0 71 3d bb e6 a6 3d 2f c7 0f 3e 69 69 ae 3c
       0.059067592 0.08149477 0.14040826 0.021290498
0000b0 09 d1 e1 3d 8a 98 c2 3d d9 8b d0 3d e6 bc 8e bd
       0.110261984 0.09501751 0.10182924 -0.06969623
0000c0 92 5f ed bd b6 64 ee 3c bc 4d bc 3d ef 0a 9b bc
       -0.11590494 0.029100757 0.09194514 -0.018926112
0000d0 4b 9c 66 3d 1e 1d 0e 3d 0a b3 b3 bd 80 9f 8f 3d
       0.056301396 0.034695737 -0.08774383 0.07012844
0000e0 2b 6d 94 3d f9 ed 80 3d fa 22 bb bd 25 14 23 3c
       0.07247385 0.0629539 -0.091375306 0.009953533
0000f0 61 73 8c bd 44 ad 03 be f5 38 9b bd 9e 32 a2 3d
       -0.06857944 -0.12859064 -0.07579223 0.07919811
000100 b8 72 97 bd 79 dd f8 3c e2 40 91 bc 95 e6 9b bd
       -0.07394928 0.030379044 -0.017731134 -0.076123394
000110 05 63 b8 3c f6 0c 02 3e 8f c4 57 bd 29 ec 24 3d
       0.022508154 0.12700257 -0.052677687 0.040264282
000120 b0 e2 52 3d a3 9b b3 3d ae 39 94 bc 18 57 bd bd
       0.051485717 0.0876992 -0.01809391 -0.092451274
000130 43 89 c0 bd 1b 9b f3 bd f0 d6 08 3c 4f 5b 05 be
       -0.094011806 -0.118948184 0.008352026 -0.13023113
000140 a1 02 f0 3c 48 94 c6 bd 7e 91 92 3d 78 cf da bd
       0.029298129 -0.09696251 0.07156657 -0.10684103
000150 5d 27 93 3c 17 43 b2 bd 39 e1 8a 3d c2 59 a5 3d
       0.017963106 -0.087042026 0.06781239 0.080737606
000160 6d ab b7 3d 7a a1 54 bd 1e 34 94 bd 2d 6e 04 bd
       0.08968244 -0.05191181 -0.07236503 -0.032331634
000170 47 39 8a bd 74 04 70 bd 3f e9 cb bd b1 b5 65 bd
       -0.06749206 -0.058597997 -0.099565975 -0.056081478
000180 9d 1e 86 bd c2 24 b9 3d 41 a2 9c bc 95 04 c0 bd
       -0.06548808 0.09040214 -0.019120337 -0.09375874
000190 c6 d7 c7 3b 54 7a 5d 3d e9 f9 b6 bd fe 67 ec 3d
       0.0060987202 0.05407174 -0.08934385 0.115432724
0001a0 88 35 f6 3c 09 ad e1 bd 10 46 42 3d 30 0e c6 3c
       0.030054823 -0.11019332 0.047430098 0.024176687
0001b0 38 dc bd bd 06 e3 b9 3c 86 f0 5c 3d 93 eb 24 3c
       -0.09270519 0.022691261 0.05394032 0.010065931
0001c0 3e 8a 96 bd 4b 33 b9 3d 1e 81 e8 bd d5 96 98 3d
       -0.07350586 0.090429865 -0.11352752 0.07450644
0001d0 e8 4e ab 3d 06 95 c8 3c a3 7b 0e be e1 95 d2 3d
       0.083646595 0.024485122 -0.13914351 0.102824934
0001e0 f2 51 66 bb f6 25 e9 3d d3 15 f4 bd f4 bd f6 ba
       -0.0035144058 0.113841936 -0.11918225 -0.0018824921
0001f0 6c c1 c8 bd ab 89 e9 bd 0e d4 24 3d 90 f8 55 bd
       -0.09802517 -0.11403211 0.040241294 -0.052239
000200 75 24 7b 3d 36 49 9d 3c a2 19 f6 bd 4a cd 4c 3c
       0.061314065 0.019199949 -0.12016608 0.012500117
000210 05 e9 fc 3d 09 46 7f bd 76 f0 0f 3e bc d6 8d bd
       0.123491324 -0.06232265 0.14056572 -0.06925723
000220 c6 f5 f0 3d 17 7b 76 3d a5 7c 06 3d 6a 78 01 3d
       0.117656276 0.06017598 0.032833714 0.031608976
000230 4f c5 cf bd 0a df 09 3e 42 69 61 bd 27 c6 ca bd
       -0.101450555 0.13463989 -0.055032022 -0.09901076
000240 16 e1 eb 3d e3 f5 22 3d 03 ca a1 3d 4c 76 b5 bd
       0.11517541 0.039785277 0.07899859 -0.08860454
000250 df 00 4f 3d 9b a7 0e bd 51 e1 92 3d 8b 6d e6 bd
       0.05053794 -0.03482781 0.07171882 -0.112513624
000260 da 63 89 bc 17 ba 76 3d 9f 76 ec bc b4 eb d1 3c
       -0.016771246 0.060236063 -0.028865157 0.025625087
000270 94 b1 9c bd 02 a9 81 3d d0 fd 43 bd 3f b8 b2 3d
       -0.07651058 0.06331064 -0.047849476 0.087265484
000280 8d 8a 01 3e 52 bb 87 bd 6f 3d c3 bd e2 e2 8a 3d
       0.12650509 -0.066275254 -0.09533202 0.06781556
000290 c4 f2 cf bd 27 ad e2 bd 12 5a ac 3d 59 15 3a bc
       -0.10153726 -0.110681824 0.08415617 -0.011357629
0002a0 83 b9 d8 3d aa b7 02 3e c9 77 64 3d a9 41 2b 3c
       0.105822586 0.12765375 0.0557783 0.010452666
0002b0 90 3f f8 3d 66 05 a5 3d 68 b6 c9 bd 01 34 ae 3d
       0.121214986 0.0805767 -0.09849244 0.08506013
0002c0 67 7f db bd 85 76 b9 3c d8 f9 aa 3d eb ae c4 3d
       -0.107176594 0.022639522 0.08348435 0.096036755
0002d0 96 5f a6 3c 8b 0e d7 bd 34 e6 a3 bd 3e 81 08 3e
       0.02030925 -0.10500821 -0.08002892 0.13330552
0002e0 be 56 f2 3b c0 3f 94 3d ea 9c dd 3d 58 69 04 3e
       0.0073955944 0.07238722 0.108209446 0.1293081
0002f0 fb 42 fc bd 96 cb d3 3d 7f 89 b9 3d 1b 9b a8 3d
       -0.12317463 0.10341565 0.090594284 0.08232709
000300 13 90 08 be cc c0 09 bd d3 10 b2 3d 0c a8 1a bd
       -0.1333621 -0.03363113 0.08694615 -0.03775792
000310 b7 f9 12 bd d6 1c 06 3e e1 35 35 bd ae d2 04 be
       -0.035882678 0.13096938 -0.044240836 -0.12970993
000320 41 43 cf 3d 4d 2d 4f 3c 3e a2 84 3c 64 ba c0 bc
       0.101202495 0.012645078 0.016190644 -0.023526378
000330 00 bf 0c be bd 14 dd 3d c5 2e f9 bd d7 8e a8 3d
       -0.13744736 0.10794971 -0.12167124 0.082303695
000340 f6 bf a7 3d 9f 7d c6 3d 70 a1 32 3d da 5d 0c be
       0.081909105 0.09691929 0.04361099 -0.13707677
000350 ee 04 73 bd f8 d3 56 3d 26 4a 45 3d bf d6 87 3c
       -0.059330873 0.052448243 0.048166417 0.016581891
000360 06 f7 7b 3d 9c 42 d9 bd 94 73 b3 bd 5c 06 06 be
       0.061514877 -0.10608408 -0.08762279 -0.13088363
000370 9a 43 9c 3c ce 18 07 3e db 92 62 3d f8 3e 74 bd
       0.019075204 0.13193056 0.055315834 -0.059630364
000380 88 b7 9c 3d 8e fd e7 3d 51 2b fb 3d d5 04 ec 3d
       0.07652193 0.113276586 0.12264121 0.11524359
000390 85 a4 21 3d 8a ef b4 3d 57 45 45 3d fa 50 ac bd
       0.03946354 0.08834751 0.04816183 -0.084138826
0003a0 78 f7 5c bd 88 a1 cb 3c ef 8b 85 bd cf dc 5d bd
       -0.053946942 0.024857298 -0.06520831 -0.054165658
0003b0 4f f2 a0 3d 5b 80 f1 bd 90 7e 6e bd 60 58 13 bc
       0.07858717 -0.1179206 -0.05822617 -0.008993238
0003c0 3f 67 0a be c4 40 9b 3d c6 6c 33 3d bf e4 d0 3d
       -0.13515948 0.075807124 0.043804906 0.1019988
0003d0 39 2c fb bd 59 13 a5 3d 4e e8 0d be ec 33 9b bc
       -0.12264294 0.08060331 -0.13858148 -0.018945657
0003e0 61 51 24 3d 20 e0 9c bb
       0.04011667 -0.00478746

output.weight f4 [4, 250]
000000 d8 d3 bc bb b5 6e 50 bd fd 29 a2 bc 05 fc c9 3c
       -0.0057625584 -0.05088683 -0.019795412 0.024656305
000010 23 03 59 3c 87 b3 c9 3c 8b 21 32 bd 54 f0 8b bc
       0.013245377 0.024621738 -0.04348902 -0.01708237
000020 35 f1 4c bd 52 fc b1 bd 50 d2 09 3c 67 17 5d 3c
       -0.05003472 -0.086907044 0.008411959 0.013494349
000030 9f 5b 03 bd 0d 1a 2d 3d 25 98 9d 3c 7d 18 54 bc
       -0.0320698 0.042261172 0.019237587 -0.012945292
000040 83 b9 9e 3d 2c fb f1 bb 4c 03 43 bb bc 07 89 bc
       0.07750227 -0.0073846783 -0.0029756604 -0.01672732
000050 40 b7 3e bc f3 04 93 bd 5b d1 9d 3c fe f1 0c bd
       -0.01164037 -0.07178678 0.019264868 -0.03441047
000060 69 12 88 bd 17 b1 02 3c 14 b4 33 3a 9c fe e4 3a
       -0.066441365 0.007976792 0.0006855142 0.0017470899
000070 81 dd 84 bd 8d a5 e3 bc f4 dd db 3c 28 83 8e bd
       -0.06487561 -0.027788902 0.026839234 -0.0695861
000080 ae e5 1f 3d b4 69 aa bc 58 e6 20 bd 26 10 f6 3c
       0.0390374 -0.020802356 -0.039282173 0.030036997
000090 e5 ce 38 3d bd db c7 bc 20 ba 94 bd ae c9 78 bd
       0.045119185 -0.024396772 -0.07262063 -0.06073921
0000a0 3b 98 a0 3c 6a f5 40 3d ab dd af bb 7e 6a cb bc
       0.01960384 0.047109045 -0.005367001 -0.024831053
0000b0 af 48 9f 3d 91 d5 12 3d 02 ca 4e bc c7 b4 cf bc
       0.07777535 0.035848204 -0.012621405 -0.025354756
0000c0 57 3a 0f bd 68 8a 4d bd ce 8b 7a bd ad 61 b2 3c
       -0.034967747 -0.050180823 -0.061168484 0.021775091
0000d0 73 10 4e bd fb f4 82 bd 40 59 3a bd 61 af 27 3c
       -0.050308656 -0.063943826 -0.04549527 0.010234685
0000e0 13 b0 ba bc aa ec f2 bc b4 ee f2 bb 46 c0 fb 3c
       -0.022789037 -0.029653866 -0.0074137095 0.030731332
0000f0 59 80 27 bc ff a2 39 3d c9 c4 84 bd 03 54 a9 3c
       -0.010223472 0.04532146 -0.06482846 0.020669943
000100 ce b2 a6 3c 0d b5 f1 3b d2 a3 80 bd 1a 1e 05 bc
       0.020348933 0.0073763193 -0.06281246 -0.008124853
000110 90 3d 44 bd f7 39 a7 bc de 3f a9 3c de c0 1f 3d
       -0.047910273 -0.020413382 0.020660337 0.03900229
000120 8a d1 c8 bc 89 71 f1 3c f1 ca 53 3d ef 27 53 bc
       -0.024513979 0.029473083 0.051707212 -0.012887939
000130 fc 02 67 3c f2 03 2a bd fd 2c 10 bd c4 62 47 bd
       0.014099833 -0.04150767 -0.035199154 -0.048678175
000140 f7 ec e0 bc a8 7c 54 bc 51 e1 28 bd 4e 42 c8 bc
       -0.027456744 -0.0129691735 -0.041230503 -0.024445679
000150 fd 90 dd bc 05 28 50 bd c7 f1 4e 3d b4 66 58 bd
       -0.027046675 -0.050819416 0.050523546 -0.05283232
000160 2c 87 de 3c 81 22 36 bd 83 70 b2 bd 66 26 43 3d
       0.027164064 -0.0444665 -0.08712866 0.04764404
000170 a1 e8 92 bd 71 be 6b 3b 52 09 82 bd d6 42 ba bc
       -0.07173277 0.0035971666 -0.06349434 -0.022736948
000180 d3 0c 6e bc 98 ff 0f bd 2c ad 47 3d 04 e3 54 bd
       -0.014529425 -0.035155863 0.048749134 -0.05197431
000190 2b 28 27 3d 85 4c 2c bd 92 62 91 3c 63 f8 91 bc
       0.04080979 -0.042065162 0.017747197 -0.017818635
0001a0 3f 81 4d 3c c4 24 f1 3a 4e a3 47 3d a1 6f fd 3c
       0.012543022 0.0018397798 0.048739724 0.030937018
0001b0 dd 06 38 bd 8d 8b 6d bd 3d 8a 28 3d 12 65 70 bd
       -0.04492842 -0.057994414 0.04114746 -0.05869014
0001c0 e8 3b b2 bd be 0e 74 3d 89 89 21 bd 7a 8c 4f 3d
       -0.087028325 0.05958437 -0.039437804 0.05067108
0001d0 da b5 ef 3c 51 89 07 bd f2 8e 39 3d 05 ec 31 bd
       0.029261518 -0.03308994 0.04530234 -0.043437976
0001e0 5a f9 33 3d ae 31 02 3d 1f 79 56 bd 8c de 80 3a
       0.043938972 0.03178566 -0.052361604 0.0009831949
0001f0 92 77 11 bd 14 4b 0b bd 71 a0 7c bb 98 e6 06 bd
       -0.03551442 -0.034007147 -0.003854778 -0.032934755
000200 dd d3 8b bd 0f 23 8c 3c 10 9f cf 3c be 6a 16 bc
       -0.06827519 0.017106561 0.025344402 -0.009180723
000210 f5 b1 2e bd fc 67 24 3d bb 35 19 3d 83 a2 ca bd
       -0.04265018 0.04013823 0.037404757 -0.09894278
000220 83 cb 34 3d d7 78 80 bd 28 15 34 bd dd 0f f8 bc
       0.044139396 -0.06273048 -0.04396549 -0.030281002
000230 4b 91 73 bd 9c fa 97 bd a0 bb 00 3d 50 ef 0c 3d
       -0.059464734 -0.07420847 0.031428933 0.034407914
000240 fa ce 36 3c fc 4c d1 bb 90 96 38 bd fa ab 89 bc
       0.0111577455 -0.006387351 -0.045065463 -0.016805638
000250 fa 00 1e bd 7a 3b d0 ba 52 32 b8 3c 23 af 5d 3d
       -0.03857515 -0.0015886866 0.022484932 0.0541221
000260 fb 68 26 bc 76 cb 4f bb b6 23 32 3d c8 c1 38 bd
       -0.010156865 -0.0031706966 0.043491088 -0.04510668
000270 ef 12 53 bd ed ae 51 3b c2 43 53 bd a8 65 cb bb
       -0.05153173 0.0031995133 -0.05157829 -0.0062071867
000280 78 04 4b bd cb 62 3b bd 5a 52 f7 3b 93 2f 63 3d
       -0.04956481 -0.045748513 0.007547659 0.055465292
000290 38 0c a0 3b 8a d1 45 bd f6 15 5c bd ff 5e 1e 3c
       0.004884269 -0.048295535 -0.05373188 0.0096662035
0002a0 18 54 e8 bc 01 d1 e8 bb 81 7f fa bc d9 24 12 3d
       -0.028360412 -0.0071049933 -0.030578377 0.035679672
0002b0 1b 66 61 3d 78 ee f9 3b f6 22 01 bd 34 f7 23 3d
       0.055029016 0.0076273046 -0.031527482 0.040030673
0002c0 74 59 37 bd 0e ef 90 bd 24 fb fe bc 72 b3 96 bd
       -0.044763044 -0.07076846 -0.031125613 -0.07358445
0002d0 8e 31 18 3d b6 43 12 3d ad 38 7e bc 2b 25 cc bc
       0.037156634 0.035709105 -0.015516442 -0.024920067
0002e0 df c8 d1 bd 33 b8 28 bd b1 22 7a 3d f7 55 5d 3d
       -0.10243391 -0.04119129 0.06106824 0.05403706
0002f0 7f 36 c1 bd 20 fc fb 3c 9f 6d 28 bc ea 0f 47 bd
       -0.094342224 0.030759871 -0.010280042 -0.04859916
000300 70 3c cd 39 21 47 d2 bd 15 92 a7 bc b2 db 94 bd
       0.00039145676 -0.10267473 -0.0204554 -0.07268466
000310 58 7e 00 bd c0 8d a4 3c d8 29 75 3c dd cf 06 3c
       -0.03137049 0.020087123 0.01496359 0.008228269
000320 87 a9 71 bd d7 b6 34 3b 68 88 de bc f3 8a 1b bd
       -0.058999564 0.0027574801 -0.027164653 -0.03797431
000330 cc f4 33 3d 5e d9 4c bc 0f da b9 3c 2f 95 a5 bd
       0.04393463 -0.012502996 0.022686986 -0.08085095
000340 d7 0c a9 bc b8 b2 f1 bc 60 95 a6 bb 84 8d 57 ba
       -0.020636005 -0.029504165 -0.005083725 -0.00082226866
000350 38 73 49 3d 05 c5 02 3d 9d d7 a1 bd d6 c2 c1 bc
       0.049182147 0.031926174 -0.07902453 -0.023652475
000360 e3 2d aa 3b 90 df b1 bd df d1 c6 bd ba 6d a4 bc
       0.0051934584 -0.08685219 -0.097079985 -0.020071853
000370 20 af 35 bc c5 04 a1 3d 95 01 0d 3d 1e e7 2c 3d
       -0.011089116 0.07862238 0.034425337 0.042212598
000380 66 1b cd 3b b5 a2 b8 3a 3a e9 a5 3d 1c 72 b8 bc
       0.0062593697 0.0014086576 0.08101125 -0.02251535
000390 d1 8b a6 bc cf a8 cc 3c 2a c5 8c bc ef 73 ec 3c
       -0.020330342 0.024982838 -0.017183859 0.028863875
0003a0 36 0e 19 bc 9c fa 6c bc ee 62 a0 3d 0c 06 44 bd
       -0.009341767 -0.014464047 0.07831369 -0.04785733
0003b0 f4 bf ce 3b 07 fe f1 3d 0b 5a 6d 3d b9 a0 14 bc
       0.0063095037 0.1181603 0.0579472 -0.009071522
0003c0 36 1a 45 3d 10 aa 94 bd 9f b3 b5 bc 12 ae 45 bd
       0.0481207 -0.07258999 -0.022180377 -0.04826171
0003d0 3c aa ce 3c 48 d4 c8 bd 82 af 35 3c ef f3 a0 bc
       0.025227658 -0.098061144 0.011089208 -0.019647567
0003e0 50 f6 f2 3c 90 b3 a4 bc 55 5d 87 bd 9f 80 c6 bc
       0.029658467 -0.020105153 -0.066095985 -0.024231253
0003f0 bb 4b 21 3d 8f 7d 0f 3d df ee 9e 3c c7 fd d7 bc
       0.039378863 0.03503185 0.019401012 -0.026366128

output.bias f4 [4]
000000 07 36 81 3c e4 df b2 3c 6d 23 ed 3c 71 1c 53 3d
       0.015772833 0.021835275 0.028947556 0.051540796
