model_3.pth (torch, 5271 bytes, 4 tensors)

linear1.weight f4 [50, 13]
-0.20582482 -0.114897884 -0.14777327 -0.35109934 0.13842413 -0.49585944 0.32069954 0.4146437
0.56271714 -0.52956355 0.27592754 -0.41269308 -0.1171829 -0.19066629 -5.6779428 -1.1851265
-0.2747823 0.06222966 -0.7786183 -0.28776863 -0.2874184 1.4079394 -0.44604954 2.319308
0.32723367 -0.64795846 -0.3617582 -0.56361777 -1.6296086 0.16026941 -0.07034525 0.13674209
-0.20733842 0.09042185 0.49964264 -0.34063935 0.5377822 0.052838895 -0.7725315 -0.7468382
-1.1944928 -2.331789 -0.27796784 0.13694923 -1.6257052 -0.31596047 0.013072289 1.1370493
-0.16860159 1.5160805 0.0938166 -1.3778133 0.22630978 1.97458 -0.32263923 0.17909108
0.7399888 -0.086042956 0.59037226 0.40272403 2.0545073 0.39413854 1.5510432 0.3757671
-0.59257 -0.34776232 0.36130577 -0.4017208 -0.67178446 -0.6835665 -0.22757906 -0.68391114
-0.45866454 -0.35190788 -0.6623102 -0.022323154 -0.5497701 -0.2966117 0.5111919 1.6832099
-1.5337144 -0.33603767 -0.24763203 -1.1032972 -0.50973374 -0.0097927395 3.6054564 0.42816055
0.3104365 -0.73356044 1.2860867 -2.3918166 0.8151888 0.844596 1.4420006 -0.8281437
1.4925992 1.0571122 -2.0100508 4.4783344 -0.12169697 5.4937816 -0.040472537 -1.4608798
0.5473896 0.6471853 -0.0017639914 0.83524984 0.80812496 0.2953905 0.6562039 0.6429416
0.30529088 0.34830928 -0.1278646 0.5898817 0.73586893 -0.24139443 0.4758983 0.06387376
-0.5852059 -0.53918713 -0.17515472 -0.925842 -0.4974016 -0.46551907 -0.6846386 0.311683
-0.39796546 0.5958692 -0.11078766 -1.7745159 1.75742 -1.6433144 -0.38272595 -1.4471747
-1.653802 -3.0270813 1.035832 -0.35932067 0.17342532 -0.014592099 -3.565402 -0.33175525
-2.3403776 0.85705996 -0.5109389 -1.5767431 0.52061015 -1.3966426 -1.1348653 -2.7602642
-1.3125724 0.3326388 -0.6017817 0.59546864 -0.017836265 0.23276769 0.02229496 0.16653426
-0.00811916 0.06688043 0.38990906 0.46815684 0.20074642 0.29820704 0.20042884 0.5520146
0.39465603 -2.5258303 2.4520001 -1.3349628 1.0111604 2.454355 0.7831815 1.5988395
-0.2911231 2.6564004 -0.6127757 -1.4000244 0.7450447 1.3844709 -0.13703029 0.17381617
0.0058003487 -0.38668886 -0.19717145 -0.16537638 -0.13266195 -0.43359974 0.039639227 -0.23513274
-0.33081946 -0.4134335 0.33072805 -0.3374324 0.7187714 0.0036569864 -0.1789667 -0.17640765
-0.4039205 -0.5621106 -0.30611876 -0.011858963 -0.590729 0.34313697 -0.73902225 -0.7100493
-1.1211098 0.012751965 -1.1492757 -0.69564307 -0.6380729 -0.8239918 -0.70363945 -0.6500087
-0.8933418 -0.6282295 0.12527882 -0.30518866 -0.44426256 -0.91688055 -0.27485663 -0.3519574
-0.546007 -0.50514686 -0.7788539 -0.56422013 -0.88901514 -0.4415558 -0.4736222 0.9580866
-0.44420835 -0.83667165 0.14683348 0.9465071 0.96571237 -0.19188157 -0.92993927 -0.41314515
-0.50102776 -0.59824777 -1.9293758 0.15400112 -0.51510197 0.59840274 0.022029154 -0.40092617
-1.997371 0.24653164 -0.734863 -0.989084 0.16746885 -1.0851109 -0.7764108 -2.583883
00000000: bec3 52be 954f ebbd e051 17be 4bc3 b3be
00000010: 0ebf 0d3e 4ae1 fdbe bb32 a43e 2e4c d43e
00000020: 3b0e 103f 7a91 07bf 6046 8d3e 824c d3be
00000030: 97fd efbd 063e 43be b5b1 b5c0 3ab2 97bf
00000040: 44b0 8cbe 87e4 7e3d 8753 47bf 6956 93be
00000050: 8128 93be 5c37 b43f 9b60 e4be 8b6f 1440
00000060: 2c8b a73e 9be0 25bf 5f38 b9be 4149 10bf
00000070: 0497 d0bf aa1d 243e 2c11 90bd 1e06 0c3e
00000080: 8650 54be 172f b93d 29d1 ff3e 4868 aebe
00000090: 18ac 093f 996d 583d a0c4 45bf ca30 3fbf
000000a0: 24e5 98bf 083c 15c0 cd51 8ebe 6b3c 0c3e
000000b0: 1c17 d0bf 92c5 a1be 272d 563c d58a 913f
000000c0: e5a5 2cbe ed0e c23f eb22 c03d 305c b0bf
000000d0: c0bd 673e 0abf fc3f f830 a5be a763 373e
000000e0: e86f 3d3f 4a37 b0bd a322 173f d831 ce3e
000000f0: 0c7d 0340 87cc c93e 9588 c63f 8c64 c03e
00000100: abb2 17bf e70d b2be 12fd b83e 59ae cdbe
00000110: 11fa 2bbf 37fe 2ebf 7c0a 69be cd14 2fbf
00000120: 14d6 eabe 452d b4be 298d 29bf 0cdf b6bc
00000130: bcbd 0cbf 7ddd 97be 79dd 023f 6c73 d73f
00000140: c150 c4bf 210d acbe 4093 7dbe d838 8dbf
00000150: e97d 02bf ba71 20bc ccbf 6640 dc37 db3e
00000160: 88f1 9e3e 9eca 3bbf 7d9e a43f 8613 19c0
00000170: 37b0 503f 7237 583f 7a93 b83f 3a01 54bf
00000180: 7e0d bf3f 744f 873f aca4 00c0 844e 8f40
00000190: 433c f9bd 0fcd af40 88c6 25bd 1cfe babf
000001a0: ba21 0c3f f0ad 253f bb35 e7ba efd2 553f
000001b0: 47e1 4e3f 6c3d 973e fbfc 273f d297 243f
000001c0: 164f 9c3e 9855 b23e f0ee 02be 7d02 173f
000001d0: e861 3c3f 1a30 77be f1a8 f33e 3fd0 823d
000001e0: 0ed0 15bf 2b08 0abf c25b 33be fb03 6dbf
000001f0: 6cab febe 8458 eebe 7a44 2fbf ea94 9f3e
00000200: 21c2 cbbe e28a 183f a4e4 e2bd 5623 e3bf
00000210: 23f3 e03f 2058 d2bf a8f4 c3be 053d b9bf
00000220: c9af d3bf b3bb 41c0 2596 843f e1f8 b7be
00000230: 6896 313e b313 6fbc 8c2f 64c0 d3db a9be
00000240: bfc8 15c0 4868 5b3f e4cc 02bf b8d2 c9bf
00000250: b546 053f 2fc5 b2bf 4443 91bf 2ba8 30c0
00000260: 5f02 a8bf a24f aa3e 5e0e 1abf a270 183f
00000270: 5c1d 92bc a75a 6e3e eca3 b63c f587 2a3e
00000280: 3a06 05bc 9bf8 883d 29a2 c73e 41b2 ef3e
00000290: 7890 4d3e 98ae 983e 383d 4d3e d450 0d3f
000002a0: 5b10 ca3e 34a7 21c0 92ed 1c40 10e0 aabf
000002b0: b46d 813f 2714 1d40 957e 483f c6a6 cc3f
000002c0: 160e 95be 7702 2a40 dede 1cbf 0034 b3bf
000002d0: 40bb 3e3f 5836 b13f ab51 0cbe defc 313e
000002e0: da10 be3b 15fc c5be 50e7 49be 6d58 29be
000002f0: 89d8 07be c900 debe be5c 223d a3c6 70be
00000300: 2b61 a9be 8ead d3be 3055 a93e f1c3 acbe
00000310: 6701 383f 0daa 6f3b 0c43 37be 35a4 34be
00000320: abce cebe 7be6 0fbf 99bb 9cbe 194c 42bc
00000330: 043a 17bf a6af af3e 9030 3dbf cac5 35bf
00000340: 8780 8fbf 9eed 503c 771b 93bf aa15 32bf
00000350: bf58 23bf 20f1 52bf b721 34bf f866 26bf
00000360: 0cb2 64bf a6d3 20bf 1749 003e b041 9cbe
00000370: 6276 e3be afb8 6abf 02ba 8cbe c333 b4be
00000380: 1dc7 0bbf 4e51 01bf f862 47bf bb70 10bf
00000390: 7f96 63bf 9a13 e2be 9c7e f2be 2a45 753f
000003a0: 476f e3be 1d30 56bf 845b 163e 4a4e 723f
000003b0: ed38 773f 9a7c 44be 8010 6ebf c387 d3be
000003c0: 5b43 00bf c426 19bf c9f5 f6bf 78b2 1d3e
000003d0: b9dd 03bf ec30 193f 7c76 b43c 3246 cdbe
000003e0: daa9 ffbf ca72 7c3e fb1f 3cbf 9c34 7dbf
000003f0: f47c 2b3e eae4 8abf dcc2 46bf 575e 25c0

linear1.bias f4 [50]
-0.54449594 -0.29033217 -0.08970411 -0.80901814 0.38252342 -0.35754624 -0.07932485 4.964886
0.68599 -0.25680187 -1.8428749 -0.3223127 0.35219163 -0.25561008 -0.43364462 -0.15722148
-0.633266 -0.968134 -0.30299947 -0.11859728 -0.12711002 0.34302437 0.05431299 -0.16905442
-0.64550155 -1.0977275 -0.45176247 0.7590576 0.9567311 -0.09590591 0.4579707 -0.03398051
-0.4057471 -0.36803007 0.11031369 -0.6608573 -0.5443066 -0.85765886 -0.9028116 0.36917943
-0.79468733 0.5326366 -0.2941236 -1.0572703 -0.40787718 -0.46101218 -0.45036262 0.4329354
-0.097143516 0.09034427
00000000: 1664 0bbf 6ba6 94be cab6 b7bd d01b 4fbf
00000010: 1cda c33e 4d10 b7be 1175 a2bd 59e0 9e40
00000020: 0a9d 2f3f 897b 83be 53e3 ebbf 2c06 a5be
00000030: 7652 b43e 53df 82be ab06 debe abfe 20be
00000040: b81d 22bf a1d7 77bf bf22 9bbe 21e3 f2bd
00000050: 2129 02be e4a0 af3e 4c77 5e3d 9a1c 2dbe
00000060: 973f 25bf 5682 8cbf 694d e7be 9951 423f
00000070: 54ec 743f 516a c4bd 237b ea3e 262f 0bbd
00000080: 15be cfbe 706e bcbe 25ec e13d f22d 29bf
00000090: ad57 0bbf 888f 5bbf a91e 67bf 1605 bd3e
000000a0: a170 4bbf df5a 083f 5e97 96be a254 87bf
000000b0: 47d5 d0be ca09 ecbe ee95 e6be b5a9 dd3e
000000c0: 2ef3 c6bd 6b06 b93d

output.weight f4 [4, 50]
-0.3982625 -5.3358774 1.2725235 1.0389366 -0.43151292 1.3639157 1.3085074 3.4285128
-0.36388275 -0.99720156 -3.9574473 -0.9655352 -0.4321098 -0.66683584 -0.2332955 -1.1084226
0.069337375 -0.3566159 0.3661868 -0.40654165 0.19298267 -0.8854897 1.0584896 3.3178976
-0.1648266 0.27316192 -0.10993496 -3.1084683 2.8536153 -0.6523703 -1.7542886 1.3740271
0.0032851144 -0.39697552 -0.3276421 -0.95974994 -1.095236 0.96648365 -2.4365678 -0.3413889
-3.4808884 -0.448997 -0.24117547 -0.2575197 -0.05839449 -0.29452604 -0.030868482 -0.35617712
0.3566692 -0.44257233 -0.11088246 -4.283051 -0.1773318 0.35487646 -1.9025301 -0.34977007
-4.62972 3.7779756 0.04278477 -1.0269026 -10.931528 0.5815687 0.3441051 -0.29064533
0.27302957 -0.36823818 0.6294162 0.124191836 0.56683177 0.67100835 -0.08899516 -1.805338
2.227915 -2.4123595 0.2731904 0.26990244 -0.22647665 -2.3930728 2.0637748 0.7292247
-1.8516634 1.3670734 0.0524303 0.04222402 0.20986843 -0.94928014 -1.276301 1.2173014
-0.44289264 0.21272579 -8.282052 0.17909679 0.26895788 0.2673744 0.051639054 0.17436564
0.40941873 0.29088864 1.2323527 0.26010063 -0.14814219 4.2506933 -0.91752845 -1.4775633
0.63986754 -0.06525759 2.1334307 -2.420358 0.30213922 1.4305834 6.1374197 0.18480851
-0.3513128 -0.4711022 -0.3259396 1.7333107 -0.00811074 -0.28388983 0.027355706 0.7816598
-0.21646981 0.70970213 -0.57865787 -2.1525838 -0.34860334 -0.5472604 -0.022355644 0.553312
-2.54771 1.4540232 1.2993835 -1.7358696 0.18331066 -0.13657928 -0.35402444 0.9312464
1.1045281 -5.0527883 1.0456946 -0.4009095 6.5475674 -0.27773935 0.12925811 -0.26804876
-0.24456306 0.094942525 -0.53371435 -0.37312433 -1.1133816 -0.21701358 0.1193427 3.0776336
-1.566217 -3.906767 -0.19976476 -0.9802911 0.820823 -4.93124 -0.22962122 -1.2818431
1.221084 -0.053166963 0.025720125 0.8602076 0.28868517 -1.7105218 -0.5039653 -0.0018025731
-0.70692295 -0.5948937 -0.02628518 1.5881164 -1.1692214 0.6754449 -0.039166644 -0.06476987
0.11851451 2.4916894 -3.3731356 -1.317003 0.15465963 -0.27468267 0.07542486 0.3914343
-0.016955698 -1.092441 -1.4337665 0.28152508 -1.4916176 0.15242545 -1.3987207 0.052430663
-0.1334723 0.052216135 0.11963523 -0.39436504 0.15407155 -0.0036086254 -1.2638239 -0.009417011
00000000: 10e9 cbbe 82bf aac0 0de2 a23f e0fb 843f
00000010: 43ef dcbe ca94 ae3f 2c7d a73f c16c 5b40
00000020: d74e babe 9a48 7fbf d146 7dc0 512d 77bf
00000030: 7f3d ddbe c1b5 2abf 04e5 6ebe cbe0 8dbf
00000040: c100 8e3d 5c96 b6be d67c bb3e 3a26 d0be
00000050: 409d 453e 74af 62bf 967c 873f 6f58 5440
00000060: 4ec8 28be e1db 8b3e 9525 e1bd 25f1 46c0
00000070: a2a1 3640 bd01 27bf 878c e0bf 1fe0 af3f
00000080: 134b 573b 6040 cbbe b5c0 a7be 2cb2 75bf
00000090: b130 8cbf 796b 773f baf0 1bc0 87ca aebe
000000a0: e0c6 5ec0 efe2 e5be b4f6 76be 9fd9 83be
000000b0: 102f 6fbd 1ecc 96be e6df fcbc d95c b6be
000000c0: 589d b63e d798 e2be 5816 e3bd c10e 89c0
000000d0: 7896 35be 5eb2 b53e 1b86 f3bf 1015 b3be
000000e0: ab26 94c0 5aca 7140 153f 2f3d 8b71 83bf
000000f0: 8ae7 2ec1 b0e1 143f 8b2e b03e 77cf 94be
00000100: 88ca 8b3e b789 bcbe 6c21 213f 4a58 fe3d
00000110: e31b 113f 34c7 2b3f 1843 b6bd 5115 e7bf
00000120: 2996 0e40 1964 1ac0 9ddf 8b3e a730 8a3e
00000130: 7fe9 67be 1b28 19c0 e314 0440 78ae 3a3f
00000140: 4e03 edbf 43fc ae3f 27c1 563d 18f3 2c3d
00000150: c0e7 563e 0604 73bf d55d a3bf 88d0 9b3f
00000160: d3c2 e2be cad4 593e 4983 04c1 2665 373e
00000170: d9b4 893e 4ce5 883e 7983 533d e88c 323e
00000180: 559f d13e 5bef 943e bcbd 9d3f e92b 853e
00000190: 96b2 17be ae05 8840 25e3 6abf cb20 bdbf
000001a0: 5cce 233f c5a5 85bd 218a 0840 25e7 1ac0
000001b0: feb1 9a3e 5b1d b73f be65 c440 713e 3d3e
000001c0: 45df b3be 4f34 f1be 8ee1 a6be 20dd dd3f
000001d0: e9e2 04bc 025a 91be 1319 e03c db1a 483f
000001e0: 43aa 5dbe 0aaf 353f ec22 14bf efc3 09c0
000001f0: 237c b2be 4219 0cbf 2f23 b7bc dba5 0d3f
00000200: ae0d 23c0 6f1d ba3f 3352 a63f fa30 debf
00000210: cab5 3b3e 70db 0bbe b142 b5be 2a66 6e3f
00000220: 2d61 8d3f 71b0 a1c0 52d9 853f 0344 cdbe
00000230: ac85 d140 da33 8ebe 3d5c 043e b03d 89be
00000240: bd6e 7abe 3a71 c23d 81a1 08bf 270a bfbe
00000250: 4a83 8ebf cf38 5ebe f269 f43d f3f7 4440
00000260: cc79 c8bf 7808 7ac0 228f 4cbe 5cf4 7abf
00000270: 7521 523f b8cc 9dc0 d321 6bbe 6f13 a4bf
00000280: 7b4c 9c3f 9ac5 59bd 03b3 d23c 9136 5c3f
00000290: 8bce 933e 61f2 dabf df03 01bf 5144 ecba
000002a0: e7f8 34bf f44a 18bf 0554 d7bc 6647 cb3f
000002b0: 0ca9 95bf f5e9 2c3f 346d 20bd 11a6 84bd
000002c0: bcb7 f23d d777 1f40 74e1 57c0 8e93 a8bf
000002d0: 185f 1e3e 35a3 8cbe 5978 9a3d 146a c83e
000002e0: ade6 8abc 1bd5 8bbf a985 b7bf 0e24 903e
000002f0: 53ed bebf 6b15 1c3e 4809 b3bf 89c1 563d
00000300: f6ac 08be 96e0 553d 5103 f53d 37ea c9be
00000310: efc4 1d3e b07e 6cbb fbc4 a1bf cf49 1abc

output.bias f4 [4]
-0.4513876 0.3684765 -0.42396832 -0.01408139
00000000: 471c e7be f4a8 bc3e 6012 d9be a1b5 66bc
