model_1.pth (torch, 60011 bytes, 6 tensors)

linear1.weight f4 [50, 13]
00000000: 5a3c 87be 7771 57be 08f1 2d3e cb1c c3bd
00000010: b45e 84be 7222 053d 8f27 5e3e 8c5e 863e
00000020: 2421 c33c beed 52be 50e7 fe3d f6ba 3abd
00000030: 53d8 fcbd 7e9e 89bf 6aa5 513f c461 1a3e
00000040: dbbc 483d 2117 be39 be14 5a3e fa60 0d3e
00000050: 763b 2ebe 3e1f 9d3e 68bc 633d 9ee4 7dbe
00000060: 567c 1a3e 30f6 0bbe 751b b03f 4708 40be
00000070: e248 85bf 45dc a5bc d049 babd e8fa ecbd
00000080: d6ca aa3b c51d fcbd 3227 f6bd 61c4 6f3e
00000090: 6f93 57bd 8b33 a03c 02c0 2bbe 58f5 953e
000000a0: 36c2 0b3e a600 8ebe a918 ef3d c8a2 2b3d
000000b0: db90 30be 9af4 14bb 2219 4bbe 7030 90bd
000000c0: 0594 cebd 5686 2d3e 002b 77be c865 99bd
000000d0: 4f4d a83d e114 a8bd 0dae c93d 4979 53be
000000e0: a913 7c3e 5202 ebbc eeff c3bc 2ffb bebd
000000f0: fc77 653d b190 22be 3ae7 5b3d afd8 1ebe
00000100: a61f 3b3e 56fa 6ebe 969f b03e c998 4abe
00000110: b1a2 393e 8b05 ea3d 85e0 ab3c 26e5 e6bd
00000120: acf9 e93d d29d 7e3e 3e8c df3d 896a 3d3e
00000130: 3137 11bc 0c37 02bc 10c0 943d 5ba9 343e
00000140: 6f78 81be 8a42 05be 56ad 1fbe 064c 013d
00000150: 8482 8ebe f671 d23d 59be 86be 5115 6fbc
00000160: cd77 89be 16ea 67be 00c0 183e f6e5 10c0
00000170: 5c0e 053f 326c a13f 38a1 5a3d 70ba f03e
00000180: e42b f73d a7e3 783e 4ca3 a53e 7e4b c83e
00000190: c4b0 33be 9a46 40be 7a70 c836 5477 3f3d
000001a0: 644d e93e 4b7c 2bbe 5584 c0bc 592b a23d
000001b0: 6f38 6fbe 3171 003e cdcf c93d 7205 3d3e
000001c0: 8968 1abd f01a b33e 3253 a93c 1f8a fcbe
000001d0: fcd0 843e 0b46 903d 378b 0a3d d41b 68be
000001e0: 7a09 843e 6f79 c73d 06f6 783c ac03 2b3e
000001f0: 8e53 1abe f555 4ebe 3685 25be 8f52 b13d
00000200: b750 8cbe 2aef 65be cb99 df3f db2d 043d
00000210: 82dc 05bf b3d5 85be bd2b 803a dbe0 5c3e
00000220: 100b 52be 9262 a53c 0625 56be 4ee6 4a3d
00000230: f8c7 4c3e ec01 3fbe 30df 773e 3197 5f3e
00000240: 50b8 5b3c 84e9 363e ae4e f4bd 330c 85bd
00000250: e4ee 823e 4f01 893e 416c 48bc 0172 2ebe
00000260: 845e 8bbe 0541 cabd cddb c0bd 86a2 313d
00000270: ba7d 61bf d406 73be 0d8e a13d e979 c8bc
00000280: b1b0 b83d f9da 9e3c 9104 823e 92fe 91bd
00000290: 2045 fdbd 219b e2be 85fa 32be 954a cc3e
000002a0: 4007 76bd 5b33 133e 4934 92bd f8b1 c6bd
000002b0: 6168 173e d335 ebbd 60f9 873e bafb 00bd
000002c0: b529 03bd b77b 813e 498e dbbd d144 06bd
000002d0: f177 a9bd b9a2 44bd 7255 1f3f be86 bd3e
000002e0: 9b46 19bf 6bf9 e63d 6b91 e9bd a57d 6bbe
000002f0: 7690 ecbd cdb9 f23c 93c0 fabb 684b 803d
00000300: e971 273e f021 cdbc 156e d9bd b18d 703f
00000310: f374 0cbf c180 1a3d ba6c 83be 394a 46be
00000320: dc16 1d3a 56d5 e3bd 5e13 be3d bbd9 313e
00000330: 11e6 dd3d 84bc c3bc 877d 99bd a8cd 0dbe
00000340: fb2a 3d3f acfb d1bd d38b 6b3e d57d 01be
00000350: bba2 71be da90 fdbc b3e2 413e 1f4e 94be
00000360: 37eb 343e aa94 96be 9ae9 65be a499 7d3d
00000370: d651 fcbd 84c5 ea3d 9027 ff3e 3bb7 a63d
00000380: 365b 58bd 8bbf 16bb bfba 6fbe 38c0 9c3d
00000390: fa14 b2bd d1ca cd3d e2b3 35be caed 76bd
000003a0: e2fc d43c 127f 7d3d a584 febf a847 bc3e
000003b0: ceeb 9c3f 4204 c03e 9ae7 ed3e 437c 7f3e
000003c0: 0f33 003f 40f9 ae3e 5079 c93c 5c03 61be
000003d0: a65f 10be ebea a53b d4b4 6abe 30f8 bcbe
000003e0: f2f8 e0be 6da5 8dbe da2d d7bd 46a6 87be
000003f0: a48a eb3d 66cd 06be 6909 81bc f48f 10be
-0.26413232 -0.21039377 0.16986477 -0.09526976 -0.25853503 0.032503553 0.21694778 0.2624401
0.023819514 -0.20598504 0.12446463 -0.045588456 -0.12345948 -1.0751493 0.81893027 0.15076357
0.04900823 0.00036256856 0.21296975 0.13806525 -0.1701487 0.30687898 0.0555996 -0.24794242
0.15086493 -0.13668132 1.3758379 -0.18753158 -1.0412867 -0.020246634 -0.0909611 -0.11571294
0.005212168 -0.123103656 -0.12019195 0.23414756 -0.052630838 0.019555828 -0.16772464 0.29288745
0.13648304 -0.2773487 0.116746254 0.041903287 -0.17242758 -0.0022728802 -0.19833806 -0.07040489
-0.10086826 0.16945776 -0.24137497 -0.07490116 0.082178704 -0.08207107 0.09847651 -0.20651735
0.24616875 -0.02868763 -0.023925748 -0.09325253 0.05602263 -0.15875508 0.05368731 -0.15512346
0.18273792 -0.23337683 0.34496754 -0.19784845 0.18128468 0.114268385 0.020981083 -0.11274175
0.11424574 0.24864891 0.10915421 0.18497671 -0.008863256 -0.0079476945 0.072631955 0.17642729
-0.25287196 -0.13013664 -0.15593466 0.031566642 -0.2783395 0.102756426 -0.263171 -0.014592485
-0.26849213 -0.2264789 0.14916992 -2.2640357 0.51975036 1.2611144 0.053376406 0.4701724
0.12068918 0.24305592 0.32351148 0.39120096 -0.175479 -0.18776932 5.9735585e-06 0.04674466
0.45566857 -0.16746633 -0.0235006 0.07918424 -0.23361371 0.12543179 0.09854088 0.18459108
-0.03769735 0.3498149 0.020669553 -0.49324128 0.25940692 0.0704461 0.033824172 -0.22666866
0.2578848 0.097399585 0.015195375 0.1670062 -0.15070936 -0.20149978 -0.16164097 0.08658325
-0.2740533 -0.22454515 1.7468809 0.032270294 -0.52289593 -0.26139602 0.000977866 0.2157015
-0.20512033 0.020188604 -0.20912561 0.049536042 0.19998157 -0.18653077 0.24206233 0.21835019
0.013410643 0.17862517 -0.119290695 -0.064964674 0.25572884 0.2675881 -0.012232841 -0.17035677
-0.27220547 -0.09875683 -0.09416924 0.043367885 -0.8808247 -0.23733073 0.07888422 -0.024472194
0.09018076 0.019391524 0.2539411 -0.071286336 -0.123667 -0.4425898 -0.17478378 0.39900652
-0.060065508 0.1437506 -0.07138879 -0.097019136 0.14785911 -0.114848755 0.26557446 -0.031490065
-0.032022197 0.252897 -0.10720498 -0.032780472 -0.0827483 -0.048006747 0.62239754 0.37016863
-0.5987336 0.112780415 -0.114046894 -0.22997148 -0.11550991 0.029629612 -0.007652351 0.062643826
0.16352047 -0.025040597 -0.106166996 0.93966204 -0.5486595 0.037720446 -0.2566889 -0.19364251
0.0005992481 -0.11124675 0.09281038 0.17368214 0.10834897 -0.023893602 -0.074946456 -0.13847983
0.7389371 -0.10253081 0.23002557 -0.12645657 -0.23597233 -0.03095286 0.18934135 -0.28965852
0.17667852 -0.29410297 -0.22452393 0.0619141 -0.123202965 0.11463454 0.4983487 0.08140417
-0.05282136 -0.0023002352 -0.23411082 0.0765385 -0.08695407 0.1004845 -0.17744401 -0.060285367
0.02599949 0.06188876 -1.988423 0.3677342 1.2259462 0.37503248 0.4646576 0.24949746
0.5007791 0.34174538 0.02459398 -0.21973938 -0.14098987 0.005063405 -0.22920543 -0.36908102
-0.4393993 -0.27665272 -0.10506792 -0.26494044 0.11501053 -0.13164291 -0.015751557 -0.14117414

linear1.bias f4 [50]
00000000: e000 0b3d d2d0 3dbe fd04 c4bd fae4 fd3d
00000010: 6e5b 923d 128e bebd 2286 0c3e 4162 cc3c
00000020: a794 a0bd 4c32 ee3d f9e6 4bbe dc58 7abe
00000030: f809 003e b722 0dbe 4219 873c 2a71 30be
00000040: b41c 9f3d ce65 4bbe 5d54 003e 8ebd 6a3e
00000050: 8745 d43d 45e2 54be e7ce b3bd 3a91 883e
00000060: 9b22 d1bc ae39 66be bc32 143e a142 7ebd
00000070: d789 7a3d e2a1 8a3e 9aae ac3d 0086 a93d
00000080: af86 18be e151 e13d d72e 003e b25d a9bd
00000090: f40a 333e 6364 85bd d21b 86be ef93 3cbe
000000a0: 5a5a 00be 48ca 0bbe df86 7d3e 17a3 a13c
000000b0: a573 2e3e 805e 67bd 52b5 323e 3be9 103e
000000c0: e264 013e f21a 72be
0.03393638 -0.1853669 -0.09571264 0.123971894 0.07146345 -0.093044415 0.13723043 0.024949195
-0.07840853 0.11630687 -0.19912328 -0.2444796 0.12503803 -0.13782774 0.016491536 -0.17230669
0.077691466 -0.19863054 0.12532182 0.22923872 0.10364824 -0.2078944 -0.08779698 0.266733
-0.025529196 -0.2248294 0.14472479 -0.06207526 0.06116661 0.27076632 0.0843174 0.082775116
-0.14895128 0.11001945 0.12517868 -0.08269824 0.17484647 -0.06513288 -0.261931 -0.18415807
-0.12534466 -0.13651383 0.2475848 0.019731088 0.17036302 -0.056486607 0.1745198 0.1415147
0.1263614 -0.23643091

linear2.weight f4 [250, 50]
00000000: 8345 8c3d 8ecb 343e 8d51 003e 6834 f73d
00000010: c6c0 293d 9632 f43d b1c3 843d 3c95 a73d
00000020: 401c edbc abbd 9a3d cc03 b23d b077 1dbd
00000030: 24c6 05be 6157 dd3d c836 83ba 16a4 41be
00000040: 0d49 54be 24c7 17bc 8e78 6a3d b520 53bd
00000050: c3fc 3fbc 756f 9dbd 2dde 07be 0e1d 88bd
00000060: 8c0c 9a3d 1df9 363c a335 3abd b408 49be
00000070: 7fc1 043e 7cef 523e cf6b 92bd 149d b53c
00000080: 28fb e2bd c43f 91bc f594 513c d206 963d
00000090: d44f 433d 2da4 19bd 2205 f13d eef2 02be
000000a0: 98b8 053e 63e9 19be 6e04 3fbd 2171 973d
000000b0: 5f7a 3e3e 15d6 f03c de6b b3bc d239 d6bd
000000c0: 8b14 05be 82c0 c2bd 985e 803d f620 95bc
000000d0: 70ac 083e 11d2 80bd 3be9 8dbd b47c e43d
000000e0: 2ed7 c8bd 544d 22be 5fc2 73bd 1034 26bd
000000f0: 9128 f73d f809 80bc e3b8 f9bd cc92 8e3d
00000100: 1bbf 063d dcef 253e 1759 1f3e ffd3 22bc
00000110: bd2b 833d a5d1 35be a4a9 00be 57b9 433c
00000120: 6034 043d 8827 f2bc e93a 003e 7680 193e
00000130: 6b69 d93d 1b86 c1bb 1718 883d 051f ba3d
00000140: c70e 10be a5e5 c6bd 4418 923d 12c7 3bbe
00000150: 55d9 1b3e 1385 803e a044 953c 6605 ab3d
00000160: 6e34 15be 2ac8 1c3d 4878 16bd f6b5 4a3e
00000170: e2da dabd 9ca8 ca3c 1e6d 8abe 634b 78bc
00000180: fa9a a53c 0cba 873d 0625 683d 5ffa dabc
00000190: 79b4 76bc e660 56bd 3c76 f9bb 3c04 303d
000001a0: 9459 9b3d 24ff 103e d090 803c 75e9 44bd
000001b0: 8a99 d23d 244e d13d eb83 4d3e b1e2 7d3d
000001c0: 2934 44be b068 58bd c1b3 4e3e 574a 39bb
000001d0: aa22 003d 5bcd a93d fde8 60bd 74e4 0bbe
000001e0: 9419 53bd 526e 84bd b5cd 00be 047d 2c3c
000001f0: 0c6d cdbd 5b6b ed3d e318 de3c ea3c ff3c
00000200: 602c 833e ab1a e13d d3bd 5fbd a3f5 26be
00000210: 88c0 6c3d 1667 0abe 66b9 4c3e 19f6 ed3c
00000220: 96cd b1bd ebd8 bbbc 66cb a53d da00 c53d
00000230: 1010 f4bd 4e5b ccbd 46a6 35be c6af 693c
00000240: b808 babc 427e f3bd f8d6 003e d78d f43b
00000250: 0260 913d b567 043e ba2e 19bd 136f 77bb
00000260: e0e8 b0bd 1854 95bd 5d1a 06bd fb32 cf3a
00000270: d826 843c 56e9 0d3e 5b90 b8bd c658 c83d
00000280: 8e9b e0bd d980 80bd 85d2 94bd b5e9 803d
00000290: 9c6e 64bd 5366 3ebd 30c0 d13d 0ef2 d6bc
000002a0: 9909 3bbc 82b9 c0bc d476 be3d 168d ffbd
000002b0: 9990 b93d 6ea3 e9bd fc6a d5bd e0ea d23d
000002c0: b2b8 9dbd 4beb 8cbb 3269 14be f5cd 123c
000002d0: 8b85 103d 80a9 193e 8688 b73d a9ba 9b3d
000002e0: 436e 39bd 533b 09be c025 d43b ea3e 01bd
000002f0: e90d efbc ad77 0abe 3c5b f13c 0dbc 0b3e
00000300: df5a ebbd 3bdc dbbd 5de4 cb3d 8db0 76bc
00000310: a8e4 8c3d 2a56 a2bb 31a6 c93d 809d 30bb
00000320: 48f8 a7bc 239d eb3c 5fff cc3d 7752 bb3d
00000330: 920d b9bd b736 aa3d ac55 223b 430d c03d
00000340: 520a 83bd f95f d13d a116 d1bc 76b7 97bd
00000350: d4aa c8bc e58c 96bd 4eda 58bd 77b5 0d3e
00000360: 481a 083c a89a ebbd 94e8 f53c 1277 103e
00000370: 0f07 82bd afb2 8d3d a35c dd3d cbab a0bd
00000380: a583 4dbd 2dba 6c3b acb5 b9bc 76ee c2bd
00000390: 932e 043e c080 ed3d 98dd 333d 5d5e cc3d
000003a0: 244a ce3c 3a9e b3bd cffe e5bd bee2 9b3c
000003b0: 6c06 ae3d 0e91 85bd 5105 113e 06e2 d1bd
000003c0: 1838 863d 604f 263c 778d c53d c257 9eba
000003d0: f2ad 05be 44a4 b93d 0f3a bebc 18c8 ab3d
000003e0: ea61 b83c 3e71 c53c 657b e23c a740 d0bc
000003f0: 00d5 abbd 0184 9cbd 5875 303d d6e5 7ebc
0.06849196 0.17655775 0.12531109 0.120705426 0.04144361 0.11923711 0.06482638 0.08182761
-0.028944135 0.075557075 0.086921304 -0.03844422 -0.13063866 0.10807682 -0.0010010833 -0.1891025
-0.20730992 -0.009263787 0.057243876 -0.051544864 -0.011717978 -0.07687274 -0.13268347 -0.06646167
0.075219244 0.011167792 -0.04546131 -0.19632226 0.12964438 0.20599169 -0.07149469 0.022169627
-0.110830605 -0.017730601 0.012791862 0.073255196 0.047683552 -0.037510086 0.11768557 -0.12787983
0.13058698 -0.15030436 -0.046635084 0.073946245 0.18601368 0.029398957 -0.021902021 -0.10460247
-0.12996118 -0.09509374 0.06268042 -0.018204194 0.1334703 -0.06290067 -0.06929251 0.11156598
-0.09806667 -0.15849811 -0.05951154 -0.040576994 0.12068284 -0.015629753 -0.121934675 0.06961593
0.032897096 0.1620478 0.15561329 -0.009938239 0.06404827 -0.17755754 -0.12564713 0.011946044
0.03227651 -0.029559866 0.12522472 0.1499041 0.1061581 -0.005905879 0.0664522 0.09087948
-0.14068137 -0.0971177 0.071335346 -0.18337658 0.15219624 0.25101528 0.0182212 0.08350639
-0.14570782 0.03827683 -0.036735803 0.19795975 -0.1068628 0.024738602 -0.27036375 -0.015154692
0.0202155 0.066272825 0.056675933 -0.026730714 -0.0150576765 -0.052338503 -0.0076129716 0.04297279
0.07585445 0.14159828 0.015694052 -0.048074204 0.102831915 0.10219982 0.20069854 0.061983768
-0.19160523 -0.052834213 0.20185758 -0.002827307 0.03128306 0.082911216 -0.054909695 -0.13661367
-0.051538065 -0.064663544 -0.12578471 0.010527853 -0.10030565 0.11592742 0.027111476 0.031156976
0.25619793 0.10991415 -0.05462439 -0.1630464 0.0578008 -0.13515887 0.19992599 0.029048013
-0.086817905 -0.022930583 0.08095436 0.09619303 -0.11917126 -0.099783525 -0.1773921 0.014263099
-0.022709236 -0.11889316 0.12582004 0.0074631977 0.0709839 0.12930186 -0.037398078 -0.0037755414
-0.086381674 -0.0729143 -0.032739986 0.001580804 0.016131803 0.13858542 -0.090119086 0.09782557
-0.1096717 -0.06274576 -0.07266716 0.06294576 -0.055769548 -0.046484303 0.10241735 -0.026238468
-0.0114158625 -0.023525957 0.093000084 -0.12478082 0.09060783 -0.11408125 -0.10420796 0.10298705
-0.077012435 -0.00430051 -0.14493254 0.008960237 0.035283606 0.15006065 0.08961587 0.07603962
-0.04527117 -0.13401537 0.0064742267 -0.03155414 -0.029181438 -0.13522215 0.02946245 0.13645954
-0.11491942 -0.10735365 0.09955666 -0.015056741 0.0687955 -0.004954119 0.098461516 -0.0026949346
-0.020504132 0.028761452 0.10009646 0.09146588 -0.090357915 0.08311217 0.0024770303 0.093775295
-0.06398453 0.102233835 -0.025523486 -0.07408039 -0.02449552 -0.07351092 -0.052942567 0.13838755
0.008307047 -0.11504108 0.030018128 0.14107922 -0.063490026 0.06918847 0.10808685 -0.07845267
-0.050174374 0.0036121712 -0.022669636 -0.09518139 0.12908392 0.11596823 0.0439125 0.09978936
0.025181837 -0.08770414 -0.112302415 0.019029018 0.084973186 -0.065218076 0.14162184 -0.10248189
0.06553668 0.01015076 0.09646123 -0.0012080597 -0.13054636 0.09064534 -0.023221044 0.08387774
0.022507627 0.02410185 0.02764673 -0.025421454 -0.08390236 -0.07642365 0.043080658 -0.015557727

linear2.bias f4 [250]
00000000: f193 38bd 8441 093e e71f 03bc 45ff 99bd
00000010: 70aa e93d 2eef a1bd d4e9 9bbd 7e81 99bd
00000020: bbb7 ce3d bf84 a23d c0e2 243d 1111 09be
00000030: 2905 b0bd 0ff9 16be e6d8 c7bd 415d 67bd
00000040: cd46 273d 1a1a ccbd 32d3 c13d 9c5e 18bd
00000050: de42 7d3d 6076 c6bc 84ed 1dbc b5f1 d43d
00000060: 9d6c bd3d e4ec 513b 5da6 303d 4839 64bd
00000070: e171 ae3b d520 9bbc 1102 a23d 3d99 b13d
00000080: 0584 873d b25d 97bd a2d1 1ebd d2b0 05be
00000090: 47ea 0dbe 0b65 43bd b812 9dbc fcf6 af3d
000000a0: 971b 01be 8aff b63d 56c8 6d3d 70af bfbd
000000b0: 5331 e23d 199f fdbd 721c e93d 4bc8 9c3a
000000c0: 8982 c83c 60ac 20bd f735 bfbc 76b5 78bd
000000d0: 49b6 6fbd e190 3fbd 9144 d93d e9a8 ba3d
000000e0: e55b 8b3d 9267 083e e629 d93d 7af1 53bb
000000f0: f9ab fe3d 35f2 123d 536e 513d 17d6 ef3d
00000100: 3371 4a3c 7a65 d0bd e9da b53d 1e81 c6bd
00000110: 4935 91bb e894 d6bc 7a64 f13d bb06 c23d
00000120: cddb c6bd f3ea 0d3e eb1c ff3d bf59 dd3d
00000130: 593e 343c 3cfb 6ebd ea5e 763d b692 6c3d
00000140: dfc9 df3b 2a5e 463d e7ac d7bc 4819 8c3b
00000150: ac2e af3d 7ebb 273d 803d cdbc a38d 0e3d
00000160: a3e7 09be 68d2 06be 54e9 0ebd 5f90 fa3d
00000170: e547 303d 21f6 d03d ea13 053e 53be a83b
00000180: 0f34 fbbd 90f0 743b 3b30 a0bd b37d e5bd
00000190: 65de f53d 5e0d f0ba 98f8 99bc 5114 c53d
000001a0: 045f a43d fba7 dd3d 1008 8f3d aa7f 393d
000001b0: e78d 89bd 8ad3 3ebc 84e7 0e3e c520 1fbd
000001c0: 360d 113e a6ff 123e 0099 cb3d 17ce a83b
000001d0: 0a9d 2a3c c863 2f3c 1cc8 6bbb 4b3d 98ba
000001e0: b1cd 2f3c b93c 7e3d d183 cb3d 8cfe 033e
000001f0: dab3 4abc 8d4b d93d f571 083e f907 ec3d
00000200: e144 a43d 3a5d e2bd 2aa1 f4bd bcaa bf3d
00000210: dc68 ddbc 2f66 403d 3191 f8bd 3dd3 843d
00000220: 181d 7cbd a297 53bd a7c7 cbbd b37c 28bd
00000230: 3c17 dabd 3aee 0f3e b4c1 1dbc 3e9c fc3d
00000240: 5f9b 25bd 138f 393b dee1 e0bd bf9c 7e3d
00000250: 537c fd3d 7ed4 033e 55ca c2bc acbb 0c3e
00000260: b213 c53c b3ed aabd 3553 93bd cd15 0a3e
00000270: 5577 b43d baaf 86bd f94e 82bd b541 33bd
00000280: 20a9 09be b173 ef3d 8987 4b3d 2495 b2bc
00000290: c91a a13d d111 50bd 149c 683b 2cf0 1cbd
000002a0: 5501 73bd ef85 c5bd 6c1c c7bd f78a 663d
000002b0: 6dc4 d4bd 1939 6d3d 90c3 a4bd d9b5 bf3d
000002c0: e45f 163c 2b31 29bc 3731 9d3d d7ac 503d
000002d0: 8b09 9e3d c1a7 a5bd 6ae4 b8bd 4105 503c
000002e0: dde5 d1bd d155 673d ebbd c0bc 5df8 973d
000002f0: c006 f0bd 9c38 0f3e dcb0 28bc 2cf1 0dbe
00000300: 0670 e93d b0fd f1bd d303 cc3d 159b 023e
00000310: 4029 96bc aa8f 133e 358c 8b3d 3c2c 433d
00000320: b7b4 2d3c 4077 413c 180d a3bc 790b fb3d
00000330: f4bc d8bd cb61 be3d a259 e33d 93e9 b8bd
00000340: 1d1d af3c e0a7 0abe 1b4f 4c3d b4b8 44bd
00000350: 3fb2 ab3c eda4 633d ef8c ebbd b7fa be3b
00000360: a725 243d 0d37 5fbd 0345 e03d 3388 efbd
00000370: 0cc3 7e3d fdca d03d 22d8 91bd 42a2 e5bc
00000380: d290 9bbd 10b8 1c3c 0f0f 5f3c 7d24 3abd
00000390: ac41 ebbc a073 f23c b9ce a5bd b25b 81bc
000003a0: 275b babd 043f 0e3e 4e67 01be 6117 8fbd
000003b0: e78d cb3d 4d00 d83d 0f15 823d 9063 d83d
000003c0: bf66 e1bd ad93 0abd edcb 2a3d 2518 073e
000003d0: 11d8 80bb 99d7 a93d dd2b d6bd 2fca a7bd
000003e0: 7ea6 e53c d286 e8bd
-0.045062963 0.13403898 -0.008003212 -0.07519392 0.114094615 -0.07906948 -0.076129586 -0.07495402
0.100936376 0.079354756 0.04025531 -0.13385417 -0.08594734 -0.14743446 -0.09758167 -0.05648542
0.040839005 -0.09965916 0.094641104 -0.0371996 0.061831348 -0.024226367 -0.009639148 0.103976645
0.09249232 0.0032032067 0.043127406 -0.05571869 0.005323634 -0.018936554 0.079105504 0.08671806
0.066169776 -0.07390918 -0.03877414 -0.13055733 -0.13858901 -0.047703784 -0.019173965 0.085920304
-0.12608181 0.08935459 0.058052383 -0.09359634 0.11044564 -0.12383861 0.11382379 0.0011961547
0.024476307 -0.03922689 -0.023341162 -0.06071993 -0.05852345 -0.046769027 0.10608781 0.09114248
0.06804637 0.13320759 0.106036946 -0.0032339976 0.12435145 0.035875518 0.051130604 0.11710756
0.01235609 -0.10175605 0.088796444 -0.09692596 -0.004431401 -0.02619405 0.117867425 0.0947394
-0.097098924 0.13859157 0.124566875 0.10808133 0.011001193 -0.058345065 0.06014911 0.057757102
0.006829485 0.048429646 -0.026327563 0.0042754747 0.08553824 0.04095029 -0.02505374 0.034803044
-0.13467269 -0.13166201 -0.034890488 0.12234568 0.043037314 0.10203195 0.12995878 0.0051496415
-0.12265789 0.0037374832 -0.07821699 -0.11205616 0.12005309 -0.0018314531 -0.018795297 0.09623016
0.08025935 0.10823055 0.0698396 0.045287766 -0.06716519 -0.0116471145 0.13955504 -0.03884961
0.14165196 0.14355335 0.09941292 0.005151521 0.010413418 0.010704942 -0.0035977429 -0.0011614946
0.010730193 0.06206963 0.09937251 0.1289007 -0.0123719815 0.10610113 0.13324721 0.11524958
0.0802095 -0.11052938 -0.11944802 0.09358737 -0.02702754 0.04697245 -0.12137068 0.06485603
-0.061551183 -0.05165828 -0.0995019 -0.041134547 -0.10648963 0.1405572 -0.009628702 0.12334488
-0.040431377 0.0028314039 -0.10980581 0.062161203 0.123772286 0.12874028 -0.02377812 0.13743466
0.024057243 -0.08346119 -0.07193605 0.13484879 0.08811823 -0.06576486 -0.06362719 -0.043763835
-0.13443422 0.11691988 0.049689803 -0.021799631 0.07866437 -0.05079824 0.003549342 -0.038314983
-0.059327442 -0.096446864 -0.09722218 0.05628487 -0.10389028 0.05791578 -0.08045113 0.093608566
0.009178136 -0.010326664 0.076754026 0.050946083 0.07716664 -0.08088637 -0.090279415 0.012696565
-0.10248921 0.056478325 -0.02352806 0.074204184 -0.117200375 0.13986439 -0.010296073 -0.13861531
0.1139832 -0.11815965 0.09961667 0.12754472 -0.018330216 0.14410272 0.06813852 0.047649607
0.010602168 0.011808217 -0.019903705 0.122580476 -0.10582915 0.09295996 0.111010805 -0.09028926
0.021376187 -0.13540602 0.04988013 -0.04802771 0.020959018 0.055577207 -0.1150149 0.0058282274
0.04007497 -0.05449586 0.10950663 -0.116959 0.06219773 0.10194967 -0.07121302 -0.028031472
-0.07595982 0.009565368 0.01361443 -0.045444954 -0.028717838 0.02959615 -0.0809607 -0.015790794
-0.09099417 0.13891226 -0.12637064 -0.06986881 0.09939175 0.10546932 0.06351673 0.10565865
-0.110059254 -0.03383224 0.041698385 0.13192804 -0.003932007 0.08293075 -0.10457585 -0.0819286
0.028033491 -0.1135384

output.weight f4 [4, 250]
00000000: c836 20bd f325 a6bd b347 323d cee5 0cbc
00000010: 70ec 20bd 4d19 153d e322 2ebe f721 8c3d
00000020: 4ea4 833c 71fb 263c c703 9c3d 5737 3bbd
00000030: 0710 983c 14a8 bcbc 5b28 8c3d 2320 cf3a
00000040: 9238 363b 36ec b83d abfc 9cbc 8387 90bd
00000050: ac5b 093d ec8c b9bc dce8 8d3d 252e 9a3d
00000060: 7e68 0dbd 2373 bfbd b4f7 51bb 9b72 01be
00000070: d824 84bd b2b4 b63c c011 813d 0d0e 5fbd
00000080: 6d8b 93b8 d22b a8bd 8efd 8cbd a9c4 1dbe
00000090: 47cb f43d 74ac 61bb 10cb c7bd 3d5a c4bd
000000a0: 62ba a5bc 7776 16bd 5b6f 953d 7561 23bd
000000b0: 4a21 adbd 3320 ab3d 0cdb 813c c7e5 fd3c
000000c0: 527d 103e 29b8 4dbd 5b6a d3bb ef97 e1bb
000000d0: 4938 aebd d191 773d 96a2 0dbe c812 45bc
000000e0: b267 f6bb 0925 d03c ec7e c3bc a713 c13d
000000f0: b9c1 823d bfd3 d43d 5d39 6e3b 96a5 7cbd
00000100: fc8c efbc 008a 383b e19b 9e3b 7649 c63c
00000110: 03ab 48bc 7e18 c0bc d4f6 da3d c266 8cbd
00000120: df50 9abd 5f04 83bd 5870 55bc f329 0a3d
00000130: 402e 7dbd fe7f 7cbd 249a 8b3d c13d e53c
00000140: 680f bebd 3d93 81bd 0906 bc3d 69f9 bbbb
00000150: db5e 69bd 5026 163d 45f4 c23c 43f1 843c
00000160: 77c7 8a3d 1a6c c3bb ee05 cfbd 13c8 bebd
00000170: 71c7 673c dcb5 9e3c e79e 513c b199 77bd
00000180: 46eb 6dbb b7b3 2abe 01be bfbd 3da9 9cbd
00000190: 7bbb 37bd 3524 03bd 6f8b 0cbd 7afd 723c
000001a0: 4cac 6cbd 0d73 313d 593c 1cbe c109 ed3c
000001b0: 2f3c 15bd 1c6c d53d 8628 a53b 6380 a0bc
000001c0: 6540 8fbd 6927 323e a3d7 043d 2500 ee3b
000001d0: 5604 05bd 55cb 8e3c 0117 4fbe 3ca5 0c3d
000001e0: 1a1e 903c b3c5 233d 3e88 853c 8427 02be
000001f0: f38e 973c 2d30 0a3e 40ea 2e3c 5c26 183d
00000200: 1e2b 013c 97c3 3a3e 3fad 4b3c 00bb a7bd
00000210: 80cb 62bd 6b15 103e cfe0 ae3d e25f b3bd
00000220: bbd4 c3bc 5c88 93bd a706 b4bd 8c96 c73d
00000230: 40b0 10bb 883b 9fbc d215 95bd 9950 e2bc
00000240: b49b de3d aaa5 3c3d ff7a 56bd cf64 9bbd
00000250: 3c37 bc3c b34b 1a3c a29f 9ebb ac4d 863d
00000260: 96f7 d9bc 551b cbbd 68ba 073d 07c5 10be
00000270: ab29 463c 214b 8cbd cc94 7e3d 81f5 b5bd
00000280: 5202 3abd a6de 153e 34ea 09bd d7fb 6c3d
00000290: 8e8e b6bd a810 07be b8bc 7cbb aeca 473c
000002a0: 72cc 3f3c facd f8bd 763f 9d3d c3b8 873c
000002b0: df2b 823c 61cc bdbc 4d84 8d3c ad49 e8bd
000002c0: a9f8 edbc ec2a 453c b028 8ebb 530a 3b3d
000002d0: 7761 f13c 290b 02bd 758b d0bb 9d3e 9cbc
000002e0: 5dab fc3d 8ba8 613d e47f 1c3b 42e4 07bc
000002f0: 405c 3fbc 4787 d83d 1278 a93d c3ea 90bd
00000300: cb1a 993d 5f74 333d 380d 7dbd 505f 03bc
00000310: 71ec 04bd 2936 4c3c cead e3bd 7b6b 933c
00000320: ec68 eabc a4e1 66bd 4619 27bc aae9 4e3d
00000330: da17 683d 08a1 f8bc b025 a23c d814 db3c
00000340: a77e acbc 821d 6bbd 2a8e 7c3d 91fd 0cbe
00000350: a5dd 233d c9df 90bc 7fd9 83bd f533 7bbd
00000360: fd30 2c3c 8917 c43d 411e cbbd b903 deba
00000370: 5614 9fbd 6fcb 85bd b0ac 92bc 4285 823d
00000380: a1d2 783c 6a26 133e 3e48 083d a95c ebbc
00000390: cc4e e8bc a4ea e0bc c98d 15bd 5a1a 9b3d
000003a0: f02f e73d 831b 65bd c125 83be 684e f2bc
000003b0: 33ff eebc 3fd8 6fbd df19 64bd 46cf 9a3d
000003c0: 2f51 f43c 7af1 87bd cc66 0e3d aea6 313e
000003d0: b74f 103d 4740 afbd 673c 49bd 85ef 303d
000003e0: b0fc 9f3d 09cd 293e b399 c6be d53f 51be
000003f0: dcf8 d93e d655 d5bd d0b3 f03b 6214 7b3c
-0.039114743 -0.08112707 0.04352541 -0.008599712 -0.039287984 0.03640108 -0.17005496 0.06842416
0.016069558 0.010191784 0.07617908 -0.045707073 0.01856233 -0.023029365 0.06843635 0.0015802424
0.0027804715 0.09029429 -0.01916345 -0.07057097 0.03353469 -0.022650205 0.0692918 0.075283326
-0.03452348 -0.093481325 -0.0032038512 -0.12641375 -0.0645234 0.02230296 0.06302214 -0.05445676
-7.035476e-05 -0.08211483 -0.06884299 -0.15407051 0.119528346 -0.0034435065 -0.09755528 -0.09587524
-0.020230476 -0.03673407 0.0729663 -0.039887864 -0.08453615 0.08355751 0.01585152 0.030993355
0.14110306 -0.050224457 -0.0064518875 -0.006884567 -0.08506829 0.060441796 -0.13831553 -0.012028404
-0.0075196857 0.025408285 -0.023864232 0.094275765 0.06384606 0.1039195 0.003635011 -0.061681353
-0.029242031 0.0028158426 0.0048403596 0.02420495 -0.012247804 -0.023449179 0.1069161 -0.06855537
-0.07534956 -0.06397318 -0.013027273 0.033731412 -0.061811686 -0.0616455 0.06816509 0.027983548
-0.09280282 -0.063269116 0.091808386 -0.005736519 -0.056975227 0.03665763 0.023798117 0.016228324
0.06776326 -0.0059638144 -0.10108553 -0.09315505 0.014146672 0.019373827 0.012794233 -0.060449306
-0.0036303564 -0.16670118 -0.09362412 -0.07649467 -0.04485653 -0.03201695 -0.03431266 0.014830941
-0.057781503 0.04332261 -0.15257396 0.028935315 -0.03643435 0.10421011 0.005040231 -0.01959247
-0.06994704 0.17397846 0.03243221 0.007263201 -0.03247484 0.01743094 -0.20223619 0.034337267
0.017592479 0.039983463 0.016300317 -0.12710387 0.01850078 0.1349494 0.010675967 0.037145957
0.007883815 0.18238674 0.012431442 -0.08189964 -0.055369854 0.1407067 0.085389726 -0.087585226
-0.023905149 -0.07203743 -0.08790331 0.097455114 -0.002207771 -0.019437566 -0.072795525 -0.027626323
0.10869542 0.046056427 -0.052363392 -0.07587587 0.022975557 0.009417462 -0.004840807 0.065577835
-0.026607316 -0.099173225 0.033136755 -0.1413766 0.012094895 -0.06850267 0.062153623 -0.08884717
-0.04541237 0.14635715 -0.03367062 0.05785736 -0.08913909 -0.13189948 -0.0038564634 0.012194319
0.011706458 -0.12148662 0.0767812 0.016567593 0.01589006 -0.023168745 0.017275 -0.113421775
-0.029049234 0.012034159 -0.0043383464 0.045664143 0.02946542 -0.031748924 -0.006364281 -0.019072825
0.123373725 0.055092376 0.002387994 -0.008294167 -0.011679709 0.10572677 0.08274855 -0.07076027
0.074758135 0.043812152 -0.061780185 -0.00801833 -0.03245205 0.012464085 -0.11117135 0.017995587
-0.028614484 -0.05636753 -0.010198897 0.05051581 0.05666337 -0.030350223 0.019793361 0.026743338
-0.021056486 -0.057401188 0.061659016 -0.13768603 0.0400063 -0.017684834 -0.064379685 -0.061328847
0.010509727 0.095748015 -0.0991788 -0.0016938365 -0.07767551 -0.065329425 -0.01790461 0.06373073
0.015186937 0.14370123 0.03327202 -0.028730707 -0.028357886 -0.027455635 -0.03651217 0.075733855
0.1128844 -0.05593444 -0.2561474 -0.029578403 -0.029174423 -0.058555838 -0.055688735 0.075590655
0.029823868 -0.06637855 0.034766003 0.1734874 0.035232272 -0.08557182 -0.04912987 0.043197174
0.07811868 0.16582121 -0.38789138 -0.20434506 0.42572677 -0.104167625 0.007345654 0.015324684

output.bias f4 [4]
00000000: 1fe3 08bd cef8 76bd ce8c f6bc 98f8 e33c
-0.033419725 -0.060295872 -0.030096438 0.0278285
