model_4.pth (torch, 5271 bytes, 4 tensors)

linear1.weight f4 [50, 13]
0	0xbc9442a0	-0.018098176
1	0x3f01491d	0.50502187
2	0xbe8309ab	-0.25593314
3	0x3ee37b73	0.44430122
4	0x3f2de42e	0.679263
5	0xbde343cc	-0.110969156
6	0x3f050750	0.51964283
7	0x3f83676d	1.0265938
8	0x3f051544	0.51985574
9	0xbe92c279	-0.28663996
10	0x3ebe795b	0.37201962
11	0x3bbffedb	0.0058592386
12	0xbf0240f8	-0.50880384
13	0x3f0d583b	0.55212754
14	0x3f08ba5b	0.53409356
15	0x3e88e9b3	0.26740798
16	0xbe580795	-0.21096642
17	0x3e0224da	0.1270937
18	0x3e549663	0.20760493
19	0xbf019f71	-0.50633913
20	0xbe495593	-0.1966155
21	0x3f304eaf	0.6887006
22	0xbe008cc3	-0.12553696
23	0x3ef3081b	0.4746712
24	0xbe9ed03b	-0.31018242
25	0xbb956add	-0.0045598582
26	0xbd497131	-0.049180213
27	0xbc32b2d9	-0.010906898
28	0xbe7f011b	-0.24902765
29	0xbd974a21	-0.07387186
30	0x3ee5ace7	0.44858477
31	0xbdc65ad1	-0.096852906
32	0x3ccb60d8	0.024826452
33	0x3edd7493	0.43253002
34	0xbd15dd66	-0.036588095
35	0x3ea0997f	0.31367108
36	0x3f1db8fc	0.6161039
37	0xbea1c36e	-0.31594414
38	0xbfde4700	-1.7365417
39	0x3e267113	0.16254072
40	0x3ddfc48b	0.109261595
41	0xbddd4bd9	-0.108054824
42	0x3eddb331	0.43300775
43	0xbe83bdb9	-0.25730684
44	0x3eb25916	0.34833592
45	0x3d4d3ef9	0.050108884
46	0x3f1a6a24	0.6031821
47	0xbe2ef69c	-0.17086262
48	0xbe180e1b	-0.14849131
49	0x3f4e4ea7	0.80588764
50	0x3bae619a	0.0053216936
51	0x3e7c008a	0.2460958
52	0xbf2f2f94	-0.68431973
53	0x3c522650	0.012826517
54	0xbe821674	-0.25407755
55	0x3d430f66	0.047622107
56	0xbeaec4f3	-0.34134635
57	0x3e318a1b	0.1733784
58	0x3e39c3e3	0.18141131
59	0x3e9d3842	0.30706984
60	0xbf500a86	-0.8126606
61	0xbd70d723	-0.05879892
62	0x3ef71bda	0.48263437
63	0x3e453b23	0.1926084
64	0xbf39a656	-0.72519433
65	0x3da4e023	0.08050563
66	0x3e8c78bf	0.27435872
67	0xbe3dd809	-0.18539442
68	0x3e3af7fc	0.18258661
69	0xbe33cfff	-0.17559813
70	0x3e8bd5bf	0.27311513
71	0xbda09296	-0.07840459
72	0x3c9fef6b	0.019523343
73	0x3ddb7820	0.107162714
74	0xbd314613	-0.04327972
75	0x3ed2bee6	0.4116127
76	0xbf0b9059	-0.5451713
77	0xbe81c4f0	-0.25345564
78	0xbf7525fc	-0.95761085
79	0xbec999a9	-0.39375046
80	0xbde34109	-0.11096389
81	0xbda025a8	-0.07819682
82	0xbd3c37e3	-0.045951735
83	0xbec0db8f	-0.3766751
84	0x3ca1f1f3	0.01976869
85	0xbe34a5c9	-0.17641367
86	0xbe4ca8f3	-0.19986324
87	0xbd9d0bd5	-0.076682724
88	0xbee17d34	-0.44040835
89	0x3e93bdc7	0.28855726
90	0xbedce01e	-0.43139738
91	0x3e8c04c6	0.27347392
92	0x3dc47a25	0.0959361
93	0xbde913f5	-0.113807596
94	0xbd0c206c	-0.034210607
95	0x3ec03c5c	0.3754605
96	0xbd6d4974	-0.05793138
97	0x3cc4a645	0.024005065
98	0x3e8ae51e	0.27127928
99	0x3d890d57	0.066919975
100	0xbebdd3eb	-0.37075743
101	0xbeaf4a02	-0.3423615
102	0xbcb62b82	-0.022237543
103	0xbe8f8d1c	-0.28037345
104	0xbdcd520f	-0.10025417
105	0x3f16b00c	0.58862376
106	0xbee96cd8	-0.45590854
107	0xbe3160c0	-0.17322063
108	0x3e90e9d3	0.28303394
109	0xbf17588c	-0.59119487
110	0xbcc9b12b	-0.024620613
111	0xbd026161	-0.03183115
112	0x3fd0c25d	1.6309315
113	0x3e182bc7	0.1486045
114	0x3ffcd1c0	1.9751511
115	0xbd9b3d75	-0.075800814
116	0xbff0f618	-1.8825102
117	0x3d71e505	0.0590563
118	0x3f39d9d6	0.72598016
119	0x3e99f6c2	0.30071074
120	0x3e2a0def	0.16606878
121	0xbe6b2528	-0.22963393
122	0xbdd83327	-0.105566315
123	0x3dbb6b91	0.09151376
124	0x3ca238b8	0.019802436
125	0xbf331d70	-0.69966793
126	0x3de8141c	0.113319606
127	0xbf904bfa	-1.1273186
128	0xbcc373d6	-0.023858946
129	0x3def127f	0.1167345
130	0xbf13f866	-0.578009
131	0x3edb5f61	0.42846206
132	0x3ecf0366	0.4043228
133	0x3e9449f1	0.28962663
134	0x3e59006a	0.21191564
135	0x3c5a3bc3	0.013319912
136	0x3e7d5cb6	0.24742398
137	0xbd85f228	-0.06540328
138	0x3f493f94	0.7861264
139	0xbddcdda5	-0.10784463
140	0xbebfde42	-0.37474257
141	0xbceb5afa	-0.028729904
142	0x408261bd	4.074431
143	0xbf1357ea	-0.5755602
144	0xbc96b9b5	-0.018399099
145	0xbe8e1f77	-0.2775838
146	0x3e0259a8	0.12729514
147	0xbefece7b	-0.49766907
148	0x3df51968	0.119677365
149	0x3ec6ed20	0.38852787
150	0xbe1f9a47	-0.15586196
151	0xbfb1582a	-1.385503
152	0xbe0b10f4	-0.13580686
153	0xbdef44e1	-0.116830595
154	0x3ea4a1ff	0.32154843
155	0x3f07f989	0.53115135
156	0x3d632b08	0.05546096
157	0xbefe691a	-0.4968956
158	0x3ed3b54d	0.4134926
159	0x3e69fe70	0.22850966
160	0xbe47f47b	-0.19526856
161	0x3f0dcdf7	0.553924
162	0xbd29b82a	-0.0414354
163	0xbe357dc2	-0.17723754
164	0xbfa1825c	-1.2617908
165	0xbe1e59dc	-0.15463966
166	0xbfc3103e	-1.5239332
167	0x3d8635b9	0.065532155
168	0x3fdcc7a1	1.7248422
169	0x3b17920b	0.002312782
170	0xbefe35b6	-0.49650353
171	0x3ed44b19	0.41463545
172	0xbe9420a7	-0.28931162
173	0x3e206dd0	0.1566689
174	0xbf207f29	-0.6269403
175	0xbe741457	-0.23835884
176	0xbfb6018e	-1.4219224
177	0xbf22b07d	-0.6355055
178	0xbe098fa7	-0.13433705
179	0xbf11b1c3	-0.5691187
180	0x3c0bf786	0.008542901
181	0xbfbe73ac	-1.487905
182	0x3db7a1ab	0.089663826
183	0x3f2cf8df	0.6756725
184	0x3ec85837	0.39129803
185	0xbdea98df	-0.11454939
186	0xbe8e29da	-0.27766305
187	0x3f1e184c	0.61755824
188	0x3e0c5ff4	0.13708478
189	0x3e23098f	0.15921615
190	0xbebf2515	-0.3733298
191	0x3bd5d891	0.006526061
192	0xbf8f2c66	-1.1185424
193	0x3d321813	0.04347999
194	0x3f7c809e	0.98633754
195	0x3f7209a4	0.9454596
196	0xbe18dbe9	-0.14927639
197	0xbf135fa8	-0.57567835
198	0xbdead970	-0.11467254
199	0x3e9f4b33	0.3111206
200	0xbe99eca9	-0.3006337
201	0x3e9099c7	0.28242323
202	0x3eee555d	0.46549502
203	0xbf911730	-1.1335201
204	0x3d5e0321	0.054202203
205	0xbd12f7cf	-0.03588086
206	0x3b0633a4	0.0020477558
207	0x3eb3e494	0.3513533
208	0xbccf8ad2	-0.02533475
209	0xbf755d10	-0.9584513
210	0xbdbd6154	-0.092470795
211	0xbf00ffd2	-0.5039035
212	0x3e88d30c	0.26723516
213	0xbeb1a57b	-0.34696564
214	0xbe7e3977	-0.24826609
215	0x3cee5b6b	0.029096326
216	0xbf509e90	-0.8149195
217	0x3e42a830	0.19009471
218	0xbe27ef82	-0.16399959
219	0x3cf2cba1	0.029638113
220	0xbf653298	-0.89530325
221	0xbd09abc4	-0.033611074
222	0xbf4f8a49	-0.8107038
223	0x3ed7f517	0.42179176
224	0xbe821492	-0.2540632
225	0xbe9eb372	-0.3099628
226	0xbe55f0dd	-0.20892663
227	0xbf083adb	-0.53214806
228	0xbf787f60	-0.9706936
229	0x3eca9f66	0.39574736
230	0xbd8cdd8c	-0.06878194
231	0xbf04a973	-0.5182106
232	0x3acd719a	0.0015674115
233	0x3c02946b	0.007969956
234	0x3fb79ced	1.4344765
235	0x3ec526e4	0.38506234
236	0xbddc7682	-0.10764791
237	0x3ed3edb3	0.41392288
238	0x3ea78b81	0.3272362
239	0x3dffc7a1	0.12489248
240	0x3cb877d7	0.022518082
241	0xbd7701e9	-0.060304556
242	0x3d3a5bd6	0.045497738
243	0x3de106a9	0.109875984
244	0x3f3b9fc0	0.73290634
245	0xbeaf34a0	-0.34219837
246	0x3e37b668	0.17940676
247	0x3ec63f2a	0.38720065
248	0xbf02c11a	-0.510759
249	0x3c3f1eb2	0.011665033
250	0x3ed37505	0.41300216
251	0x3f78a0ba	0.9712025
252	0x3f68daca	0.90958846
253	0x3f1fb5dd	0.62386876
254	0x3f0c9daf	0.54928106
255	0x40009bee	2.0095172

linear1.bias f4 [50]
0	0x3c015cc2	0.00789565
1	0x3e6a86f8	0.22903049
2	0xbdc15edd	-0.09441922
3	0x3f4a30ce	0.7898072
4	0x3e2b2761	0.1671424
5	0x3eb077be	0.34466356
6	0x3e513be3	0.20433001
7	0x3e1b8289	0.15186514
8	0xbe8b47b2	-0.27203137
9	0x3d8b0ced	0.06789575
10	0x3f18d620	0.5970173
11	0x3e82adba	0.25523168
12	0x3eb73b4a	0.3578742
13	0xbf73973d	-0.95152646
14	0x3eb45308	0.35219598
15	0xbf43223e	-0.76224124
16	0xbf38cd5a	-0.7218834
17	0xbd648dd1	-0.05579931
18	0x3f164b9e	0.5870913
19	0x3e5f5a87	0.21811877
20	0xbef6d0ca	-0.48206168
21	0xbcaee8ae	-0.021351185
22	0x3edb49b7	0.42829677
23	0x3e479236	0.19489369
24	0xbd8f5e39	-0.070003934
25	0xbeb2f7ce	-0.34954685
26	0x3ed1f643	0.41008195
27	0x3e08cbc8	0.13358986
28	0xbe14bbc4	-0.14524752
29	0xbd350d4f	-0.044202145
30	0x3dade643	0.084911846
31	0x3db0564d	0.086102106
32	0x3f78647d	0.9702833
33	0xbe3c1966	-0.18369064
34	0x3db7e165	0.089785375
35	0xbe4d4de5	-0.20049246
36	0x3f4389a6	0.7638191
37	0xbe3124e0	-0.17299223
38	0x3f2cb74c	0.6746719
39	0x3d351328	0.044207722
40	0xbe135d51	-0.14391066
41	0x3dbffd6a	0.09374507
42	0x3e2a80f6	0.16650757
43	0xbe9f768f	-0.3114514
44	0xbf2d2dcc	-0.67648005
45	0x3e2b90d5	0.16754468
46	0xbe0707a8	-0.13186514
47	0x3fd90fbd	1.6957928
48	0x3ec62bc6	0.3870527
49	0xbef46ce2	-0.4773932

output.weight f4 [4, 50]
0	0xbe668bfc	-0.22514337
1	0xc01620d6	-2.3457541
2	0xbf7f8815	-0.9981702
3	0x3e87bc53	0.26510867
4	0xc020586f	-2.5053976
5	0x3f961d37	1.1727666
6	0x3fffdc84	1.9989171
7	0x3ff47e73	1.9101089
8	0xbe7e5df8	-0.24840534
9	0xbe08913d	-0.13336654
10	0xbfa8d308	-1.3189402
11	0xbfd3ad2d	-1.6537224
12	0xbd1fb6a8	-0.038992554
13	0xbf95c80d	-1.1701676
14	0xbd6a6dde	-0.057233684
15	0xc0a70adc	-5.2200756
16	0xbf31a8e7	-0.6939835
17	0xbfc7fbfe	-1.5623777
18	0xbf9b6ff0	-1.2143536
19	0x3fd84747	1.6896752
20	0x3fffbd72	1.9979689
21	0xbda0e750	-0.07856619
22	0xbf75df63	-0.96043986
23	0xbf9d5351	-1.2291051
24	0x3d91488a	0.07093914
25	0x3ebf98c3	0.37421235
26	0x4031a1a3	2.7754905
27	0x3e5a553c	0.21321577
28	0x3be53c2b	0.006995698
29	0x3cc507f7	0.02405165
30	0x3db9635c	0.090521544
31	0x3f00bfed	0.50292856
32	0xbf4d59a0	-0.8021488
33	0xc0283688	-2.6283283
34	0x3e217e58	0.15770853
35	0xbcee356b	-0.029078206
36	0x3f94edc1	1.1635057
37	0xbe387bac	-0.18015927
38	0xbd915f08	-0.07098204
39	0xbf3ed991	-0.7455073
40	0xbfce6d78	-1.6127157
41	0xbdeb4e2e	-0.11489521
42	0xbfbe89af	-1.4885768
43	0x3e43183d	0.19052215
44	0xbeebc920	-0.46051884
45	0xbf889074	-1.0669084
46	0xbfeb44da	-1.8380387
47	0x40433408	3.0500507
48	0x3fd32d91	1.6498281
49	0x40905a88	4.511051
50	0xc026270c	-2.5961332
51	0xbf121356	-0.57060754
52	0x3fa72ddf	1.3060874
53	0x3ff80f47	1.9379662
54	0xbf084c5e	-0.5324153
55	0xbf8aad03	-1.0834049
56	0xbfb6ccc1	-1.4281236
57	0xbf9d27f1	-1.2277814
58	0xc031f32e	-2.7804675
59	0xbe621191	-0.22077014
60	0xbf566001	-0.8374024
61	0xbe57cf63	-0.21075206
62	0x3e80e3c3	0.25173768
63	0xc0aa126e	-5.3147497
64	0xbe5ba8b9	-0.21451081
65	0xbfcd0b9a	-1.6019166
66	0x3fd7dd5c	1.6864429
67	0xc09784a2	-4.7349405
68	0xc0091d20	-2.1424026
69	0x3fa7504d	1.3071381
70	0x3e5f800a	0.21826187
71	0xbd1d126c	-0.038347647
72	0x40000cb6	2.0007758
73	0xc01a3d93	-2.4100082
74	0x3ddc52b0	0.10757959
75	0x3ee2ff27	0.4433529
76	0x4059d528	3.403635
77	0x3e09b9c4	0.1344977
78	0x3e1b2dfe	0.15154263
79	0x3d91a9d7	0.071124725
80	0x3e4db686	0.20089158
81	0x3ec27b7a	0.3798483
82	0xc0254fff	-2.5830076
83	0xc00ed727	-2.2318819
84	0x3fbcc52a	1.474767
85	0x3f740354	0.9531758
86	0x40179bfb	2.3688953
87	0x3c2656bf	0.010152518
88	0xbccbde45	-0.02488626
89	0xc00bd4f7	-2.1848733
90	0xc028c5b4	-2.6370668
91	0xbdd1dc1a	-0.10247059
92	0xc04edc3d	-3.2321923
93	0x3fa79050	1.3090916
94	0xbfee9c92	-1.8641531
95	0x3fa28b82	1.2698824
96	0xc060dc70	-3.5134544
97	0x4034f335	2.8273442
98	0xbe9db240	-0.30800056
99	0x3f607e57	0.8769278
100	0x3fcd9c0a	1.6063244
101	0x3d4435b2	0.04790277
102	0xbd8228ab	-0.06355413
103	0xbe147d31	-0.14500882
104	0x3ebd09ff	0.3692169
105	0xbf948282	-1.1602328
106	0x3e19b148	0.15009034
107	0xc001f544	-2.0305948
108	0x3f5d3d24	0.8642142
109	0xbe5e0e6f	-0.21685193
110	0x3eb412ca	0.35170585
111	0xbe818a3c	-0.25300777
112	0xbee0942a	-0.4386304
113	0x3fcc0288	1.5938272
114	0xbef727e6	-0.48272628
115	0xbeebee65	-0.46080318
116	0x3fd91b92	1.6961539
117	0x3ff99e95	1.950152
118	0xbedcae85	-0.43101898
119	0xbf976f8a	-1.1830914
120	0x3f1d60b9	0.6147571
121	0xbc60ae0d	-0.013713372
122	0xbf016dbb	-0.5055806
123	0x3f3efe07	0.74606365
124	0xbf196633	-0.5992157
125	0x3faa5d80	1.3309784
126	0xbf4fc786	-0.81163824
127	0xbfb4a400	-1.4112549
128	0x3dc8d1e4	0.098056585
129	0xbd8ce6b6	-0.06879942
130	0xbf1b5152	-0.6067096
131	0xbfa6cfd2	-1.3032172
132	0x402c803a	2.6953263
133	0x3fb0a0c3	1.379906
134	0x3dfe0cae	0.12404762
135	0xbe37e986	-0.17960176
136	0xbdddfec3	-0.108396076
137	0x3d9cb18c	0.07651052
138	0xbec96c29	-0.39340332
139	0x3f0bb234	0.5456879
140	0x3e84cfff	0.25939938
141	0xbefda044	-0.49536335
142	0xbf6285aa	-0.88485205
143	0xbe8ec8f2	-0.27887684
144	0x3f6819b4	0.9066422
145	0x3f6609c7	0.8985867
146	0x3fbcafb8	1.4741125
147	0xbf6c3b1e	-0.92277706
148	0x3ed822c0	0.42214012
149	0xbf0a5a78	-0.54044294
150	0xbf757d38	-0.95894194
151	0x3fb6a46c	1.4268928
152	0xbf973093	-1.1811699
153	0xc0103617	-2.2533014
154	0x3fe455c5	1.7838675
155	0x3ec773a7	0.38955423
156	0xbea643dc	-0.32473648
157	0x3f83c291	1.0293752
158	0xbf39b449	-0.7254072
159	0x3ecb0dc7	0.3965895
160	0x3fe606dd	1.7970845
161	0x3fc42163	1.5322689
162	0x3ebdd78b	0.3707851
163	0x3d6d0593	0.057866644
164	0x3ecd93a5	0.40151706
165	0x408df77f	4.436462
166	0xc0431315	-3.0480397
167	0x3e7a9a27	0.24472867
168	0x405cb616	3.4486136
169	0xc02273ec	-2.5383253
170	0xc032e0e2	-2.7949758
171	0x3e80ef0c	0.25182378
172	0xbfe78b40	-1.8089371
173	0x402f0276	2.7345252
174	0x3ea1c638	0.3159654
175	0xbf834c78	-1.0257711
176	0xc08d9dbf	-4.425506
177	0x3f271cf6	0.65278566
178	0x3e847a79	0.2587469
179	0xbdbe2274	-0.09283915
180	0x3ed198cc	0.40936887
181	0xbd117a57	-0.035517063
182	0xbf82f15e	-1.022991
183	0x402108f7	2.5161722
184	0xbfa8f14e	-1.319864
185	0xbf0cf84a	-0.5506636
186	0xc05176d6	-3.2728782
187	0x3e8bd9f9	0.27314737
188	0x3ea7579c	0.32684028
189	0x3fb03485	1.3766028
190	0x406406ac	3.5629072
191	0x3ec6e20a	0.3884433
192	0x40382a53	2.8775833
193	0xbfc43c4d	-1.5330902
194	0xbeb77e4d	-0.35838547
195	0xbfbb2007	-1.4619149
196	0x3f2939d6	0.66103876
197	0xc0b9ee40	-5.8103333
198	0xc076b611	-3.8548625
199	0xc0b176b2	-5.545739

output.bias f4 [4]
0	0x3c7b4651	0.015336589
1	0x3e0d7c1f	0.1381688
2	0xbe2a24f7	-0.16615663
3	0x3e4421ca	0.19153515
