model_1.pth (torch, 60011 bytes, 6 tensors)

linear1.weight f4 [50, 13]
000000 ac 55 20 be ef a5 c6 be e7 7e 73 bd 12 f8 33 be
       -0.15657681 -0.38798472 -0.059447195 -0.175751
000010 91 a1 05 3e 63 42 35 be 01 d2 da be 04 ee 64 be
       0.13049914 -0.17701106 -0.42738345 -0.22356421
000020 eb 44 c5 be 06 82 8e 3c 37 14 c2 3d 78 af ce be
       -0.38529143 0.017395984 0.09476512 -0.40368247
000030 91 76 ca bd 31 bc ba be 07 89 37 bf 1e 77 fa 3d
       -0.09885896 -0.36471704 -0.7169346 0.12229751
000040 81 81 9f be 1a 55 9b bb 9c 33 d4 be 90 4a 95 be
       -0.3115349 -0.0047403695 -0.41445625 -0.2915845
000050 3d c1 df 3c a8 43 eb be d2 39 1b be 86 56 29 be
       0.027313823 -0.45950055 -0.15158775 -0.16536912
000060 95 66 2a be 54 cf 4e bd 3e 4a d5 be 3d fa a3 3e
       -0.16640694 -0.050490692 -0.41658205 0.32026854
000070 2a 5c 24 bf a6 78 8f 3d 41 95 c3 3c de 5b e2 bd
       -0.6420313 0.07005434 0.02387488 -0.110526785
000080 a7 6a b7 be 39 fc 90 3c 01 2d ec 3d 9a 98 65 bd
       -0.35823557 0.017698394 0.11532021 -0.056053735
000090 6d 33 a7 3e 9a 1d 86 be 75 b8 78 be 05 d7 23 be
       0.32656422 -0.2619446 -0.24289115 -0.15999992
0000a0 1b 3d 3c bd b2 d3 9a bd 84 4b 14 bf dd 8f 49 be
       -0.045956712 -0.07559909 -0.5792773 -0.19683786
0000b0 b9 e0 92 be 6f da 17 bf 10 1a 8a be e9 e3 07 bf
       -0.28687075 -0.5931768 -0.2697301 -0.5308214
0000c0 97 ec 22 be fd 54 84 3d 9c 80 99 be 5b 25 41 be
       -0.15910564 0.06461523 -0.29980934 -0.18861906
0000d0 a2 1b f5 bd 31 db 1d bc b8 20 db bc 70 6c 89 bd
       -0.11968161 -0.009634779 -0.026749 -0.06710136
0000e0 11 75 1a 3e b1 6f d8 bd 40 0d 83 be 97 9c c3 be
       0.1508372 -0.105681784 -0.25596046 -0.38205406
0000f0 eb 49 b7 bd 74 6b e5 bd f8 93 0e bc 15 4a 4a bd
       -0.089496456 -0.11202136 -0.008702271 -0.049387056
000100 49 a0 3a 3d 83 05 84 bf c9 f8 af be 6d 3a 5b bd
       0.045563016 -1.0314182 -0.34369496 -0.053522516
000110 08 97 c8 3d e9 a3 9f bd 2d ee 8b 3e 80 30 31 3e
       0.09794432 -0.07794935 0.2733015 0.17303658
000120 8f 05 0b 3d 30 54 a1 bf 91 a2 b5 bd ed c3 83 3f
       0.033940848 -1.2603817 -0.08868898 1.0294167
000130 29 86 32 be 1a 25 95 bf 70 dc 7b 3d c6 67 92 bc
       -0.1743399 -1.1651947 0.061489522 -0.017871749
000140 ae 35 a8 3b 03 ab 74 bc c5 0c ed bd 9c 25 c7 3d
       0.0051333522 -0.0149333505 -0.11574701 0.0972397
000150 97 df 5b be 70 2c b1 3d 21 49 46 be 93 b1 45 be
       -0.21472012 0.08651054 -0.19363834 -0.1930602
000160 58 4e 18 3e 95 f4 e8 bd be 4c 3f 3d 67 80 ec bd
       0.14873636 -0.11374775 0.046704046 -0.11547928
000170 8f 9b 0c be 08 9d d2 bd 48 15 75 bd 8c 6f e2 bd
       -0.13731216 -0.102838576 -0.05983475 -0.11056432
000180 7b 33 5c bd bc 28 c3 bd 51 14 2f be 93 23 1a be
       -0.053760033 -0.09529254 -0.17097594 -0.15052633
000190 11 4c 0a be 26 94 83 3f dc f7 b9 be 91 be 6a bb
       -0.1350558 1.0279586 -0.36321914 -0.0035819153
0001a0 f3 4f 8c bf 3d 9b 60 be dd 49 82 be c3 9b c0 be
       -1.0961899 -0.21934219 -0.25446978 -0.37618837
0001b0 b4 0b 06 bf 7e a9 11 bf 54 93 1f bf a2 e8 e9 be
       -0.5236161 -0.5689925 -0.6233418 -0.45685297
0001c0 11 e7 18 bf 97 f4 56 be 9b 17 b1 bd 28 b0 6a bf
       -0.5972758 -0.20991741 -0.086470805 -0.91675043
0001d0 31 4f 89 bf 9b 93 31 be 1b d3 aa bf d2 38 ca 3d
       -1.0727292 -0.17341463 -1.3345674 0.09874119
0001e0 c9 55 57 bf 2c 6e 38 be c3 1f af be 3a 09 d3 be
       -0.8411527 -0.18010777 -0.3420392 -0.41217977
0001f0 9a eb 69 bf 1a 88 d5 be c3 fc e6 bc f4 9f 30 bb
       -0.91375124 -0.417054 -0.028196698 -0.0026950808
000200 40 a2 e5 be f5 62 02 c0 6a b0 41 3f a1 e5 15 c0
       -0.4485035 -2.0372899 0.7565981 -2.3421404
000210 af dc c7 bf 10 f3 26 3f 32 13 8c bd 11 6f 47 3f
       -1.5614222 0.65214634 -0.06839599 0.7790385
000220 8c b0 96 3f 98 3e 5f bf 83 98 63 3f 9a a6 3f 3e
       1.1772628 -0.87204885 0.8890459 0.18715897
000230 98 cb a7 bf 29 f3 43 be 4f e1 3a 3f 62 04 7f be
       -1.3109007 -0.19135727 0.73000044 -0.24904016
000240 3b f1 5b be 91 7b 7f bd 4a ca 88 be 95 33 8d be
       -0.21478741 -0.0623737 -0.26716834 -0.27578416
000250 58 08 e1 bb b8 fc 9d 3c 57 2d aa 3d c3 20 9f bd
       -0.0068674497 0.019285545 0.08309429 -0.07769921
000260 6e 4b 9e be 82 fb cb bd 36 f4 79 be e3 04 28 3e
       -0.30916923 -0.09960081 -0.24409565 0.16408114
000270 a9 1a 9f be 72 05 01 be 74 6a f7 bc 42 88 84 be
       -0.31075028 -0.12599733 -0.030202128 -0.25885206
000280 24 94 6b be 37 72 91 be 5b a4 24 be 19 db ea 3d
       -0.2300573 -0.28407452 -0.16078322 0.11467571
000290 96 18 83 be 63 ed bf be b6 ce 98 3e 68 ad 58 3d
       -0.25604695 -0.374858 0.29845208 0.052899748
0002a0 a2 d6 9b bd de b2 ee bd 52 f3 57 be 80 c1 fa 3c
       -0.07609297 -0.1165521 -0.21088913 0.030609846
0002b0 30 e5 2e be 62 ab 1f 3e a0 cc 05 be 2d 55 56 be
       -0.17079616 0.15592721 -0.1306634 -0.2093093
0002c0 fc 18 63 3e 34 39 13 3e 9d e4 1d be 1b 08 85 3e
       0.221775 0.1437729 -0.1541924 0.25982746
0002d0 5c e8 9b bd 1b d7 8a be 40 50 3a bf 4c 44 37 bf
       -0.076126784 -0.27117237 -0.727787 -0.7158859
0002e0 d0 e1 05 bf bb 0b 94 be 07 bb e6 be b2 9d 45 bf
       -0.5229769 -0.289152 -0.45064566 -0.7719375
0002f0 5b 47 f5 be 61 67 d5 be 96 74 09 bf 69 92 9d bc
       -0.47906002 -0.41680434 -0.5369352 -0.019234853
000300 ab c9 2d be 45 c3 e4 be 76 e0 4a bf d7 2a 01 3e
       -0.16971461 -0.4468023 -0.7924875 0.12613998
000310 14 36 14 c0 c9 bf c6 3e 10 b3 2d be a3 e1 a6 3e
       -2.3158007 0.38818195 -0.16962838 0.32594022
000320 05 aa 22 bf 81 8c d8 3c 1f ec 2c be 45 43 dc bf
       -0.6354068 0.026434185 -0.16886948 -1.7208029
000330 2d 22 5a 3d cb 4b d8 3f c2 96 a9 bd 42 0a 45 c1
       0.05325525 1.689813 -0.08280708 -12.315004
000340 74 c2 c3 ba c3 6a e6 3c 4f f3 00 3c 1e 5b 15 3c
       -0.0014935271 0.02812708 0.007870509 0.009115962
000350 94 2f dd be bc 46 04 be 5f 1c d6 be cd 73 c8 3c
       -0.43200362 -0.12917608 -0.4181852 0.02446928
000360 c5 e0 9a bc 03 61 b7 be b6 dd c2 3e b5 ce 5c be
       -0.018906007 -0.35816202 0.38059777 -0.21563227
000370 88 77 23 3d 7e 9d de bd fc d7 17 bc 91 13 24 bc
       0.039908916 -0.10869883 -0.009267803 -0.010014431
000380 ec 91 a4 be 2f f0 40 3e 42 94 bc 3c e9 6d 6c 3d
       -0.3214258 0.18841623 0.023019914 0.057722006
000390 9a ed 1b bd 6e b2 5a be 92 63 b5 bd 08 d9 15 3e
       -0.03806839 -0.21357128 -0.08856882 0.14633572
0003a0 d3 4b 65 bd 0b 3c 41 3e 89 a1 f2 bd b2 48 a7 bc
       -0.055980515 0.18870561 -0.11847217 -0.020420406
0003b0 9b 52 54 3d 8e 5d 4a be 50 53 a5 be ad d5 97 bd
       0.05183659 -0.19762251 -0.32290125 -0.07413802
0003c0 30 d1 ab 3d af 5b 06 3e 1d 9b d4 bd 99 10 7f be
       0.08389509 0.13120912 -0.10381148 -0.24908675
0003d0 91 a5 b3 3e 0b c9 f1 be 24 65 1e be 2b dd 6c be
       0.35087255 -0.47223696 -0.1546827 -0.23131244
0003e0 93 98 90 3b f3 a3 5f bd 54 45 b2 be c7 1b b6 be
       0.0044127195 -0.054599714 -0.34818518 -0.35568067
0003f0 3e 58 36 be e4 c1 65 be d4 c0 15 be 1a 12 6b be
       -0.17807099 -0.22437245 -0.1462434 -0.22956124

linear1.bias f4 [50]
000000 5b 88 c9 bd 3c da 52 be 08 3e d3 be f3 5a ac be
       -0.09840461 -0.20591062 -0.41258264 -0.3366314
000010 41 42 45 3d 62 d6 01 be b3 6b d5 3d 41 28 c9 be
       0.048158888 -0.12679437 0.104209326 -0.39288524
000020 3c 1f d6 be e5 93 ef be 6a 78 d8 3f 8a ac 80 bd
       -0.41820705 -0.46792522 1.6911747 -0.06282909
000030 68 78 d7 bc 10 3d de bc 29 45 37 bf 0b 10 82 bf
       -0.026302531 -0.027128726 -0.71589905 -1.0161146
000040 7a 38 e4 3a a2 ac aa be 3c e1 a6 be 0c 4b d3 be
       0.0017411851 -0.33334833 -0.32593715 -0.41268194
000050 99 6d 64 3d a0 8d b0 be 0d 4a 28 3e 05 39 44 be
       0.055768583 -0.3448305 0.16434498 -0.19162376
000060 2a 99 ba bf 10 c5 56 be 8d dd c3 bd f7 cb 81 3e
       -1.4577992 -0.20973611 -0.09563742 0.25350925
000070 9f aa a7 3d 6d 3f 21 bf ae 3d 39 3c 07 75 86 be
       0.0818684 -0.62987405 0.0113062095 -0.2626116
000080 3c e6 29 be ee fe ea be 96 97 4e be 7c 67 9e bf
       -0.16591734 -0.4589762 -0.20175013 -1.2375331
000090 8b fe f8 be a7 25 ed be 8b ba 90 be 9f 4f b2 bd
       -0.486317 -0.4631779 -0.2826732 -0.08706593
0000a0 fa 35 02 bf 38 c0 40 3f a7 04 24 be 8a fc 57 be
       -0.5086361 0.752933 -0.160174 -0.2109243
0000b0 d5 96 fb be dd 09 0c bf 89 1b 39 bf f3 5f 09 bf
       -0.49138513 -0.5470255 -0.7230764 -0.5366203
0000c0 eb e9 30 be a0 30 b5 3f
       -0.17276733 1.4155464

linear2.weight f4 [250, 50]
000000 4e db 9f 3b fa 70 ab bc 73 53 f8 3e 19 df c3 bc
       0.004878438 -0.020927895 0.48501167 -0.023910092
000010 3e 4f 83 bd b4 c3 90 bd a1 93 f8 bd 13 b9 96 3d
       -0.064115986 -0.070685774 -0.12137533 0.07359519
000020 26 b0 cd 3d c2 3c 0e be 1f a5 76 be de 92 a9 3d
       0.10043363 -0.13890365 -0.24086426 0.08279966
000030 e8 39 c1 bd df 08 03 3e 39 c0 8f bc 29 d2 a4 bd
       -0.09434873 0.12796353 -0.017547714 -0.08047897
000040 b1 15 f1 bb 8b 7d 84 3d 51 5d 24 3d 55 b3 0b be
       -0.007357322 0.06469258 0.040128056 -0.13642628
000050 9f 30 1f be 19 88 fd bd 33 41 17 be a6 47 01 3e
       -0.15545891 -0.12379474 -0.14770965 0.12624988
000060 32 db a0 be 02 93 13 be cc fe 47 be fc 32 3e bd
       -0.31417233 -0.14411548 -0.19530791 -0.04643534
000070 a5 76 fa bd aa c4 9f 3d 4b ac 7e be e0 8f 88 3b
       -0.12229661 0.078011826 -0.24870412 0.004167542
000080 28 5e 3c 3d de 2c c3 bd b0 16 e7 bb 66 04 67 be
       0.045988232 -0.09530042 -0.007052265 -0.22560272
000090 60 96 a9 bb 45 cf 28 be 6f c4 df bd eb 36 00 3d
       -0.005175397 -0.16485317 -0.109261386 0.031302374
0000a0 a6 c9 f7 3d bc 83 4a bd 7c 1c c8 bd 3f ae 0b be
       0.12099008 -0.049442038 -0.09771058 -0.13640688
0000b0 d9 67 c5 bd f4 c9 d2 3c 1a 4a b8 bc 04 f3 f0 bd
       -0.09638948 0.025731064 -0.022496272 -0.117651016
0000c0 9b 93 6a 3d 18 ec 4b be bd ed 1a be 10 a1 08 be
       0.057269674 -0.19914281 -0.15129752 -0.1334269
0000d0 47 69 46 be c0 eb 22 be c8 fd 96 3d 09 45 f0 bb
       -0.19376098 -0.15910244 0.07372624 -0.0073324484
0000e0 c9 30 30 3d 56 3f 27 be 6a 4b 3d bd 44 b3 d7 be
       0.043015275 -0.16332754 -0.0462145 -0.42128956
0000f0 ce 83 fc be ee c4 63 bd c0 35 dc bb ea 8f 8f 3d
       -0.4931931 -0.05560773 -0.0067202747 0.07009871
000100 bd fa 20 be 2b 7e 2b 3e 9a a4 88 3d b2 4d f2 3d
       -0.15720649 0.16747348 0.0667202 0.118312255
000110 da 5d 52 be 8a f5 f9 3d 82 21 86 be d5 e5 84 be
       -0.20543614 0.12205036 -0.2619744 -0.25956598
000120 e1 d7 41 be 2e f4 9c 3d 8e e0 6b bf 41 40 80 3c
       -0.18930008 0.07663761 -0.9213952 0.015655639
000130 a5 66 59 bf 6d 2d 92 bd ef a5 87 3d 23 31 10 3e
       -0.8492225 -0.071375705 0.06623446 0.14081244
000140 1b b2 0a bf 40 4e 82 3b f3 1f 03 3c 45 98 e6 3c
       -0.5417802 0.0039766133 0.008003223 0.02814878
000150 75 99 27 bd b0 5f b1 be d5 e6 8b 3e 66 20 63 be
       -0.040917832 -0.34643316 0.27324548 -0.22180328
000160 ab 37 43 3e 7f db b0 bd 00 97 1d 3d 8d 82 b7 3c
       0.19064204 -0.086356156 0.038474083 0.022401119
000170 1c 52 04 be 70 f4 a0 bd 42 85 2b 3e 5b f0 08 3e
       -0.12921947 -0.07859123 0.16750053 0.13372938
000180 2b f4 1c 3c e0 76 57 bf 16 8a 99 3c 03 a3 4e be
       0.009579699 -0.84165764 0.018742602 -0.20179372
000190 ea a9 6c 3e 2e 4a 31 3d 27 84 be bc 8f b5 45 3e
       0.23111692 0.043283634 -0.023256375 0.1930754
0001a0 15 66 d7 bd 53 b3 cf bd 91 04 ef bd 6d fa f1 3d
       -0.105175175 -0.10141625 -0.11670793 0.11815343
0001b0 23 60 89 3d a9 a6 3c be b7 52 8f bc 5c b9 ad bd
       0.0670779 -0.18422951 -0.017495496 -0.0848262
0001c0 9d 94 0e be be ad 5d bd 4e 22 25 bd 0f f8 be bd
       -0.13923879 -0.05412077 -0.04031592 -0.09324657
0001d0 55 ba 98 3d 76 31 58 3c 83 13 22 bd f8 af 25 bc
       0.07457415 0.013195386 -0.03956939 -0.010112755
0001e0 c6 2b 1e be 4c c7 a7 bd 99 58 02 be b8 fb 03 3e
       -0.15446386 -0.0819231 -0.1272911 0.12888992
0001f0 0f 23 df bd 36 ed e8 3c 73 ec 87 be 73 e9 fb bd
       -0.10895359 0.028433423 -0.26547584 -0.12300386
000200 a6 53 cc bc 45 db 44 3e 40 da 9c bd 64 e5 40 bd
       -0.02494223 0.1922427 -0.076588154 -0.047093764
000210 3c c4 03 bd a0 cc 76 be 99 14 31 be f1 97 3d 3d
       -0.032169566 -0.24101496 -0.17293014 0.04628748
000220 3b be 34 bd 2f f8 35 bd 2b eb 66 3d 5d 30 0f 3d
       -0.04412673 -0.04442614 0.056376617 0.034958232
000230 5a 11 29 bd 40 5d 0e be 31 23 46 3e c3 f0 7a 3e
       -0.041276313 -0.1390276 0.19349362 0.24505906
000240 56 72 7c 3d eb c1 24 bb 4f 36 d4 3d 80 2b 84 bd
       0.061632477 -0.0025139998 0.10361921 -0.064536095
000250 c2 d9 3b 3d 4e ba 56 bd 1a 39 96 bd e0 bd 81 3d
       0.045861967 -0.052423768 -0.0733511 0.06335044
000260 d9 7d 40 bd 75 d0 84 bd 8f 54 66 be ae ab 21 be
       -0.046995018 -0.064850725 -0.22493194 -0.15788147
000270 d2 37 14 bd fd 0c e8 bd c9 66 c1 3c 7a 23 54 be
       -0.036186047 -0.11330602 0.023608582 -0.20716658
000280 2f b8 49 be ec e5 da 3d 74 6b a6 3c d8 96 d1 bc
       -0.19699167 0.10688385 0.02031491 -0.025584623
000290 7d df 0f be 31 77 6f be 70 81 17 be 2d 97 7b bd
       -0.14050098 -0.23385312 -0.1479547 -0.06142347
0002a0 63 e6 40 bd aa 9d a3 3d 98 55 a7 3d 4e 71 eb bd
       -0.047094714 0.079890564 0.081706226 -0.114962205
0002b0 a8 b7 a1 bc 6b cb 0f be b5 c6 81 bd 4b b5 de bb
       -0.019740894 -0.14042442 -0.063367285 -0.006796514
0002c0 2d 89 6d bc 74 79 d7 bd 7c fe 34 bd 86 42 61 be
       -0.014498037 -0.10521212 -0.044188008 -0.21998033
0002d0 12 d6 45 be 5f b4 0e be b6 af 1d be 26 56 e9 3d
       -0.19319943 -0.13935994 -0.1539906 0.11393385
0002e0 3d ec 01 3d 43 51 03 be fc ad 76 3c 35 99 87 bb
       0.031719435 -0.12823968 0.01505613 -0.0041381367
0002f0 87 d4 5f 3c 84 b8 fd 3c e3 bb 0b be f3 9a a4 bd
       0.01366151 0.030971773 -0.13645892 -0.08037367
000300 43 d4 0b 3e 64 f4 28 be 51 50 6a 3d 4d c8 30 be
       0.1365519 -0.16499478 0.057205502 -0.17263909
000310 b9 bd 24 be b2 f9 2e be a3 2a 02 bd 1b 38 84 bd
       -0.16087998 -0.17087439 -0.031778943 -0.06456014
000320 9c b7 c6 be c4 c2 e6 bc 15 f1 fe 3e 95 dd 1d 3d
       -0.38811958 -0.028169043 0.49793306 0.038541395
000330 d1 bd 3e be bb 3b 26 be 72 b4 f7 bd 37 7e ba bd
       -0.18627097 -0.16233723 -0.12094964 -0.09106105
000340 f3 01 b4 bd ee 24 4b 3e 86 59 02 bf b3 17 96 bc
       -0.08789434 0.19838306 -0.5091785 -0.018321848
000350 3c 26 60 3d ea 81 e2 bd cd e8 be bd 9c 25 0c bf
       0.054723963 -0.110599354 -0.09321747 -0.5474489
000360 62 86 b3 bd 63 58 34 be 91 71 cd bd cd c4 92 bd
       -0.08765866 -0.17611842 -0.10031427 -0.07166443
000370 70 da 9b bc cf 63 54 be 4a 2e 17 bd 57 0d 26 bd
       -0.019025058 -0.20741199 -0.03690938 -0.040540066
000380 2c 92 46 be d3 a9 dc bd 68 f9 f6 be 6a 3d e1 bd
       -0.19391698 -0.10774579 -0.48237157 -0.10998042
000390 dd 23 29 be d2 95 09 3e a6 2d e8 be ae 49 ff 3d
       -0.16517587 0.13436058 -0.45347327 0.12465225
0003a0 5f 0e 10 be 7a 28 04 3c 42 d0 f1 bc 68 cf 28 be
       -0.14067982 0.008066291 -0.02951825 -0.16485369
0003b0 6e da cc bc 5c 8d ba 3d 7c f8 ad be 5b 80 29 bc
       -0.0250065 0.091089934 -0.3397864 -0.010345544
0003c0 5e 8d bc 3d a1 bd 1c bf bb 64 d0 3d 16 65 4f bd
       0.09206651 -0.6122685 0.10175463 -0.050633512
0003d0 04 2f a3 bc dd 4e 15 be 47 fa f4 bd ba 98 6c 3d
       -0.01991988 -0.14580865 -0.11961799 0.05776284
0003e0 a2 c9 88 bc 7e ad ce bd 49 01 83 3c fe 25 f9 bd
       -0.016697709 -0.10091685 0.015991824 -0.121654496
0003f0 ce 0a 20 be 1b 11 af be 45 0c 28 be db 32 d4 3d
       -0.15629122 -0.34192738 -0.1641093 0.103612624

linear2.bias f4 [250]
000000 9d 24 d7 be 3d c3 15 bf 69 0f d1 be e3 99 b8 bd
       -0.4202012 -0.58501035 -0.4083207 -0.090137266
000010 65 c8 82 bf f1 17 65 40 e1 d0 cc be b5 ca 37 bf
       -1.0217406 3.5795863 -0.40003112 -0.7179368
000020 62 b9 61 be de c5 fc bd 7c 71 18 bf fa 74 76 be
       -0.22043374 -0.12342428 -0.59548163 -0.2406806
000030 51 69 c9 3d 70 46 b8 bb 1e 95 e0 3d 1f a3 1d be
       0.09834541 -0.005623631 0.10965942 -0.15394257
000040 27 9f 27 bf 98 21 1a be 17 39 7a be 89 b7 2f be
       -0.6547722 -0.15051877 -0.2443584 -0.17159857
000050 45 cf 34 be 9f dc fc be de 8e 63 be b6 c0 79 bf
       -0.17657192 -0.4938707 -0.22222468 -0.9755968
000060 7c 52 57 be 23 14 b2 be 46 8d fe b9 66 e1 09 bf
       -0.21027559 -0.34780988 -0.00048551912 -0.53859556
000070 f1 41 b9 be 9e b2 de bc 49 e7 6a be 67 db 8b be
       -0.36183122 -0.02718478 -0.22939791 -0.27315828
000080 22 a8 02 bc 8d 76 33 bd 1d d9 9b 3f 8b ec c0 be
       -0.007974656 -0.04381423 1.2175633 -0.37680468
000090 af 77 13 bc 98 e1 a7 be d0 34 86 be 1e c8 a4 bc
       -0.009000703 -0.32789302 -0.26212168 -0.020114955
0000a0 f2 54 ba be 8a 76 d5 be be 7d 4e bf de 4b 03 bf
       -0.36392933 -0.41692 -0.8066062 -0.5128764
0000b0 e8 7a 1e be 04 2d f4 bc 3b 4b 27 bf 7d 42 f9 be
       -0.15476573 -0.029806621 -0.6534917 -0.4868354
0000c0 8a 4d 3c be 19 c6 bc be e9 44 a2 bf be 7a 22 bf
       -0.18388954 -0.36869887 -1.267728 -0.6346854
0000d0 3b 82 59 bd 92 38 1d bf c6 d2 15 bf 87 49 f9 be
       -0.053102713 -0.61414444 -0.5852474 -0.4868891
0000e0 3b 99 46 bf 31 6a 7d bf 06 c5 71 be 5e 2d 03 bf
       -0.7757756 -0.9899016 -0.23610315 -0.512411
0000f0 ae 78 82 bc de 53 68 bf b7 2f ac 3e ea 7a 8d be
       -0.015926685 -0.9075297 0.33630154 -0.27632838
000100 a5 ed 37 bb 22 85 0c be 77 64 ac c0 0a 1c a2 be
       -0.002806523 -0.13722661 -5.387264 -0.31662017
000110 46 9a 10 bf 66 64 55 be b4 46 d8 bd ed df 3c bc
       -0.564854 -0.2083908 -0.105603606 -0.011527997
000120 05 d6 0e bd be f3 bc be e2 5b 1e bc a2 5f 30 bf
       -0.034872074 -0.3690471 -0.009665461 -0.68895924
000130 f9 c3 57 bf 14 0e 08 bf dd 09 ba be f1 d3 97 bf
       -0.84283406 -0.5314648 -0.3633565 -1.1861554
000140 48 49 84 be 3c dd 04 bf 55 db f4 be 15 52 d4 be
       -0.2583716 -0.51900077 -0.47823587 -0.41468874
000150 86 8e a1 be af 54 43 be 22 39 44 bf f3 6b 98 be
       -0.3155405 -0.19075273 -0.7664968 -0.2976986
000160 82 f6 1a be 08 4f b0 be ae aa 0f bf 39 fb 01 bc
       -0.15133098 -0.34435296 -0.5611981 -0.007933431
000170 1d 5e 92 bf e3 21 0c be 81 41 62 bf 73 a1 b8 be
       -1.1434971 -0.13684802 -0.883812 -0.36060676
000180 dc 4a 24 bf 7c e6 21 bf ab 29 da be a6 9b 1a ba
       -0.64176726 -0.63242316 -0.42609915 -0.0005897827
000190 d3 a5 d4 be fa d1 b7 be e8 b5 e7 be d0 24 cb be
       -0.41532764 -0.35902387 -0.4525597 -0.39676523
0001a0 88 82 5a bf 63 90 53 bf dd 11 e7 be d8 cc 68 c0
       -0.85355425 -0.8264219 -0.45130816 -3.6375027
0001b0 e2 9b 9e be 20 58 10 be d0 54 bb be 9d 52 98 be
       -0.30978304 -0.14096117 -0.36588144 -0.2975053
0001c0 34 94 51 bb 38 03 c8 be a9 aa 8f be 28 c9 83 be
       -0.0031979205 -0.39064956 -0.2805989 -0.25739408
0001d0 67 f1 89 be d5 4e 69 be cf d0 45 be 34 45 58 be
       -0.26941988 -0.22783978 -0.19317935 -0.21120149
0001e0 c6 f3 4d bf e0 a4 ca be 21 74 81 be 19 b6 24 bf
       -0.80450094 -0.39578915 -0.25283912 -0.6434036
0001f0 b1 c7 4d be c7 fb 14 bc b0 00 c1 be 33 49 ba bd
       -0.20095707 -0.0090932315 -0.37695837 -0.09095993
000200 7b 7a d0 be a6 35 ac be 5e 79 db bf a4 48 eb be
       -0.40718445 -0.3363468 -1.7146413 -0.45953858
000210 2b a1 22 bf af 79 01 be 52 6b 3b bf 70 9b db be
       -0.6352717 -0.12644075 -0.7321063 -0.42892027
000220 75 81 06 bf 29 72 0e be bc d4 1d bf 3e f4 1f bf
       -0.52541286 -0.13910736 -0.6165273 -0.6248206
000230 fe 3b 93 bb ab 6f fa be eb bd c7 be 4c e0 65 be
       -0.0044932356 -0.4891332 -0.39012083 -0.22448844
000240 3a 7d 42 bf 5f b2 7c be 47 28 0f bf f1 2e 13 bf
       -0.7597233 -0.24677418 -0.55920833 -0.574935
000250 f4 39 43 bf 89 1e 92 bd 53 5c 28 be cf 5d 82 be
       -0.76260304 -0.0713473 -0.16441469 -0.25462195
000260 d1 8f d5 be 1c be 82 be 09 bb 6d be fd 31 3d bf
       -0.41711286 -0.25535667 -0.2321588 -0.739044
000270 2a 38 46 bf 01 3b d9 be fe f1 31 bf 83 e8 e2 be
       -0.7742945 -0.4242783 -0.69509876 -0.44318017
000280 32 83 17 bf e3 57 b9 bf 07 28 91 be 26 c7 88 be
       -0.59184563 -1.4479946 -0.2835085 -0.26714438
000290 cb 5b b3 bf 53 a3 53 be 5e 79 1b bf 83 52 92 bf
       -1.4012388 -0.20667772 -0.60732067 -1.143143
0002a0 5e 43 62 be 5f bd e3 be bc 18 83 bf 38 1c d6 be
       -0.22096011 -0.44480416 -1.0241923 -0.41818404
0002b0 19 8b d6 be 0d ad 90 bf dd 36 9a be 84 00 0d bf
       -0.41902998 -1.1302811 -0.30119982 -0.5507891
0002c0 0c 2b 70 bd 24 2a 98 be 63 00 ac be 9f 35 1d be
       -0.058634803 -0.2971965 -0.33594045 -0.15352486
0002d0 88 46 18 bd 58 c3 8b be 21 4a 39 bd 65 e3 db be
       -0.03717664 -0.27297473 -0.04523671 -0.42946926
0002e0 fa 97 58 bf d0 37 c9 bf 7d 13 81 bf 24 e3 3d bf
       -0.846069 -1.5720158 -1.0084072 -0.74174714
0002f0 69 ef 82 bf a6 8b d9 be 72 b6 2c c0 08 97 b6 bd
       -1.0229312 -0.42489356 -2.6986356 -0.08915526
000300 cc 5d 83 be a9 c0 c3 be 61 15 40 bf 17 a8 13 bf
       -0.256575 -0.38232926 -0.7503262 -0.5767836
000310 74 a0 c8 bd a1 58 4f bf f5 c6 80 bd ea 1f c1 bd
       -0.09796229 -0.8099461 -0.06287948 -0.09429915
000320 bc a9 44 be 51 af ad be 58 39 52 bd d7 19 d4 3e
       -0.19205374 -0.33922818 -0.05132422 0.41425964
000330 45 ec 01 bf 62 f3 a7 be b6 af 82 bf 80 9a 5d bf
       -0.50751144 -0.32802874 -1.0209873 -0.86563873
000340 5e 36 8c be 74 dd eb be f2 ef 77 be 17 0d 2e be
       -0.2738523 -0.46067393 -0.24212626 -0.16997181
000350 f8 a1 15 bf 37 0f 3a be de b3 61 bd df ef 2c bf
       -0.5845027 -0.18169867 -0.055103175 -0.67553514
000360 1e 2e d9 be 55 fd 0c bc ee ab 94 be e2 72 00 bf
       -0.42417997 -0.008605321 -0.29037422 -0.501753
000370 8a 3c 85 3f 0a 9b 30 bf 70 aa 5d bd be 22 65 be
       1.04091 -0.6898657 -0.05411762 -0.22376534
000380 b2 a4 fd be 56 c2 95 be 4e f4 b9 3f 35 21 1d bf
       -0.49539715 -0.2924983 1.4527681 -0.61378795
000390 33 7b b5 bb b5 1f a6 bd 33 e0 56 bf 4c 45 54 be
       -0.005538368 -0.081115164 -0.8393585 -0.2072956
0003a0 98 28 44 bd f9 d6 f5 be e3 b0 79 bf da 93 a1 be
       -0.047890276 -0.48015574 -0.9753553 -0.31558114
0003b0 af d9 cc bd e6 47 30 bd f5 54 12 bf c9 a1 6d be
       -0.10002457 -0.043037318 -0.57160884 -0.23206247
0003c0 a1 7b ac 3f 75 fd 0f bd f7 a5 f9 be e3 81 dd be
       1.3475229 -0.035153825 -0.48759434 -0.43263158
0003d0 46 89 88 bb 28 42 15 be 42 e0 07 be cf 23 c9 be
       -0.004166755 -0.14576018 -0.13269141 -0.39285132
0003e0 ab b8 c7 be 65 65 bd be
       -0.39008078 -0.3699142

output.weight f4 [4, 250]
000000 9d 6c fe be 58 d1 ac be 3e 39 a1 3d 18 8c ad bd
       -0.4969224 -0.33753467 0.07872246 -0.084739864
000010 e9 17 6b bd b3 5d dc 3d cd 8f 33 3c 88 ae 5d bf
       -0.05739585 0.10760059 0.010959578 -0.8659444
000020 67 b8 34 bf 40 04 89 bf 3f 35 8f be 6e fb 8b be
       -0.70593876 -1.0704422 -0.2797031 -0.27340263
000030 aa 4c 90 be 3c 1b 4a 3e 86 2a 98 3d e9 e6 70 3e
       -0.2818349 0.19736952 0.07429986 0.23525585
000040 a6 de 16 bd 84 3c 00 bf 03 cd 7c bc 4a 7d b3 3d
       -0.036833428 -0.5009234 -0.015429738 0.08764131
000050 86 a1 21 3d a8 e2 2f bd 65 42 98 3e e2 07 61 bc
       0.03946068 -0.042940766 0.29738155 -0.01373479
000060 12 57 e9 bc f1 09 56 be ef 48 10 bf 72 d8 14 bf
       -0.028483901 -0.2090223 -0.5636129 -0.5814277
000070 87 4c 06 bf f6 97 10 be cd de df bc 18 e8 53 bc
       -0.5246052 -0.14120468 -0.02732792 -0.012933753
000080 11 e2 ea bd 32 1e de bd 34 bb 42 bd 2f 8e 05 be
       -0.114689 -0.10845603 -0.047541812 -0.1304252
000090 24 2a c9 be a7 a1 16 3d 0d 49 ab be 5e 63 aa bc
       -0.39289963 0.036775257 -0.3345417 -0.020799335
0000a0 4f 85 e5 bd 8d c7 13 be 2d 93 8e be d5 12 24 be
       -0.11207067 -0.14431591 -0.2784666 -0.16022809
0000b0 99 dd 09 bf ed 40 dd bd f7 d6 3e 3d 1c 6c 1a be
       -0.53853756 -0.10803399 0.046591725 -0.15080303
0000c0 78 c1 2b bd 85 79 4a 3e 8a 9c 4b be ad 49 56 3e
       -0.041932553 0.19772919 -0.19883934 0.20926543
0000d0 fa 50 3d 3d 9d a5 25 bd 6b c5 b8 3d df 88 79 3c
       0.046219803 -0.040441144 0.090220295 0.0152303865
0000e0 b0 47 02 3d 24 91 d4 bf 9f b8 56 3d 0a 39 36 bf
       0.031806648 -1.6606793 0.052422162 -0.71180785
0000f0 50 a4 8c be 54 9a 0d bf 4e 7b 9d bd e4 3f c8 bc
       -0.2746911 -0.5531361 -0.07689534 -0.024444528
000100 7f f6 49 bd bb 38 16 be 71 fe 1d 3d ce 34 2c bf
       -0.049307343 -0.14670078 0.038572732 -0.67268074
000110 86 75 87 be b0 be 70 be 2f 50 43 bd 93 17 6f be
       -0.2645685 -0.23510242 -0.04768389 -0.23348837
000120 19 d4 1f bf 2e 51 2c 3e 02 68 ba 3a ed 8c a7 bd
       -0.6243301 0.16827843 0.001422167 -0.08181176
000130 20 a5 b8 bf 92 4e c5 bc 7c 89 18 be 17 fd ae bd
       -1.4425392 -0.024085317 -0.14896196 -0.08544367
000140 bc b1 b3 3c 9f 92 49 be d4 c2 2d 3d 17 66 60 be
       0.021935336 -0.19684838 0.04242213 -0.21913944
000150 68 7a 94 bb c9 5d a5 bd 40 0e f2 be 97 28 30 3b
       -0.0045311935 -0.08074529 -0.47276497 0.0026879662
000160 dc 26 a0 3c a8 76 7b be 8a d7 ab be dd 26 aa be
       0.01954978 -0.24556983 -0.3356288 -0.33232775
000170 eb 29 af bd 07 d2 37 3d 70 60 15 bf 52 c4 f7 bd
       -0.08552917 0.044878032 -0.58350277 -0.12097992
000180 db 61 ef bc 6e 9d b8 3d 8a 5e 35 bf 73 32 5c bd
       -0.029221466 0.09014402 -0.7084738 -0.05375905
000190 e6 b4 85 bd e6 a7 02 be 4a 3d b4 bf 74 f6 14 3d
       -0.06528644 -0.1275936 -1.4081204 0.03636785
0001a0 e9 84 4b 3e a9 e7 4d bf 3f 26 39 bf 6b bb 0d be
       0.1987492 -0.8043161 -0.72323984 -0.13841026
0001b0 16 b6 52 be 70 e7 21 bc 2c 33 a9 be 69 93 be be
       -0.20577273 -0.009881839 -0.33046854 -0.3722184
0001c0 bf 1d e4 3d fa 38 8a 3e 26 bb ab be 25 b3 37 be
       0.11138486 0.26996595 -0.3354122 -0.17939432
0001d0 cc 25 88 be c3 16 83 bd dd ca fb 3c 8d 08 8e be
       -0.26591337 -0.06400826 0.030736381 -0.277409
0001e0 a6 78 af be 83 be 6b be 31 d6 57 3e f3 b0 8b be
       -0.34271735 -0.23021893 0.21077801 -0.2728344
0001f0 1b 25 bd be 8d b5 f8 3c 00 9c d4 3c 97 7d 4d 3e
       -0.36942372 0.030360008 0.025953293 0.2006744
000200 d1 5c af be d4 d8 3e be 59 16 19 3d e1 8f 33 3e
       -0.342505 -0.18637401 0.037374828 0.17535354
000210 21 70 04 be 58 24 27 bc 5a f5 8d bf d9 27 4a bd
       -0.12933399 -0.010201536 -1.10905 -0.049354408
000220 3e c4 d7 be 43 84 00 3d 65 3f ef 3d cc 71 53 3c
       -0.42141908 0.031376135 0.116820134 0.012905549
000230 d3 27 2d 3e ad f8 98 3d 13 c7 ec be 37 34 e0 be
       0.16909723 0.07469306 -0.46245632 -0.43789837
000240 1b 17 b9 3e eb 92 4f 3d 02 85 3f bf ab c6 9e 3d
       0.3615044 0.05067722 -0.7481233 0.07752737
000250 61 f5 21 bf d5 d7 94 3e 08 2e b6 3c 62 4c 12 3e
       -0.63265043 0.29070917 0.022238746 0.1428695
000260 da 9d 2f bd 96 20 aa 3d 63 a3 24 bc 8b b9 92 be
       -0.04287515 0.083069965 -0.01004872 -0.28657183
000270 ba ac df bc b0 77 07 bf 69 4e c8 3d 72 e7 09 bf
       -0.027304042 -0.52917004 0.097805806 -0.5386878
000280 c0 45 c6 3c 8a 56 17 3a 4b b4 72 3b f5 dd d4 3d
       0.024203181 0.0005773088 0.0037033733 0.103938974
000290 92 0c db 3d 12 64 5b bd 02 65 1b be 67 b8 9e be
       0.10695757 -0.05356223 -0.1517525 -0.31000063
0002a0 e0 a2 8c bd 92 4c a3 be 55 c3 11 be 6e 26 98 bf
       -0.068670034 -0.31894356 -0.1423467 -1.1886728
0002b0 da 53 60 3e 9a 1a 28 bd 1b eb 14 bf cd 67 ce bd
       0.21906987 -0.041040994 -0.5817124 -0.10078392
0002c0 25 a2 08 bf ee d5 6e be 60 cc 98 be b8 78 18 bf
       -0.5337241 -0.23323795 -0.29843426 -0.595592
0002d0 b1 b2 fa be cd f7 09 3e 06 b0 24 be 3f 25 17 bf
       -0.48964456 0.13473435 -0.16082773 -0.5904121
0002e0 ce 42 d9 be be 48 ba bd f2 63 4f be 81 25 db be
       -0.4243378 -0.09095906 -0.2025297 -0.4280205
0002f0 94 c4 85 be 46 6f 36 3e 05 3a cc bd bf 71 1a bf
       -0.2612654 0.17815885 -0.09972004 -0.6032981
000300 fc 61 8c 3d 03 de c9 be 2f b4 40 3e 25 f3 c0 be
       0.068546265 -0.39427194 0.18818735 -0.37685505
000310 6c 0f 4a 3d 89 04 86 3b a4 94 e1 3d 67 9c 9c bd
       0.049331114 0.004089896 0.11014679 -0.07647019
000320 38 a1 28 bf 75 42 50 be 11 84 54 bf e9 0e 4b 3e
       -0.65871 -0.20337851 -0.8301402 0.19829907
000330 21 04 05 bf 79 05 5c be 8f 6a 1f bf 8c 14 fb bd
       -0.51959425 -0.21486463 -0.6227197 -0.122597784
000340 93 e8 a7 3d b3 25 a5 bd aa a5 37 3d 84 2b db bd
       0.08198657 -0.08063831 0.044835724 -0.10701659
000350 5e ed 93 bd 3a 38 56 bd 72 da 87 bf a2 12 4c be
       -0.072230086 -0.052299716 -1.0613539 -0.19928983
000360 76 23 9e 3d 79 0b 00 be 41 aa a5 3e da fc 87 bf
       0.077216074 -0.12504376 0.32356456 -1.0624039
000370 4d a7 bb bf 06 70 c6 3c 56 5c 4c bc d7 ce 26 3d
       -1.4660431 0.024223339 -0.0124731865 0.0407246
000380 4a dd 8e bf d6 5e d4 be 68 4f 0f be dd 49 bc bc
       -1.1161282 -0.41478604 -0.13995135 -0.02298444
000390 77 2b 50 3e 9a 19 fe bd 1f a7 ac bd e6 5a 6c be
       0.2032908 -0.12407227 -0.08430313 -0.2308155
0003a0 de 93 44 bd 37 a1 ec 3c c1 44 15 c0 38 74 bc bf
       -0.04799258 0.028885467 -2.3323214 -1.4722967
0003b0 61 30 b9 bf 6d c6 9b be 2b aa e2 3d 57 bc 74 3d
       -1.4467889 -0.30424824 0.11067613 0.059749927
0003c0 09 2a b6 be ac 26 7c bd 68 fd 9b be 7f e7 eb be
       -0.35578945 -0.061560318 -0.3046677 -0.46075055
0003d0 08 d7 49 3d 53 32 9c bd 58 77 4f 3d de 32 3d 3e
       0.049277335 -0.07626786 0.050650924 0.18476436
0003e0 d1 7b 07 be 60 c6 c2 bc f5 f7 65 bd d0 7e 6e be
       -0.13230826 -0.023776233 -0.056144673 -0.23290563
0003f0 85 9c 22 3d 88 ca 1f bc 83 87 a9 be 2f bb e6 bd
       0.03970005 -0.009752877 -0.331112 -0.11266171

output.bias f4 [4]
000000 e7 93 1b c0 32 33 f7 3f e1 0f 6c bf bb fe 87 bf
       -2.4309022 1.9312499 -0.9221173 -1.0624613
