models/weights/model_4.pth (torch, 60011 bytes, 6 tensors)

linear1.weight f4 [50, 13]
00000000: 1782 213f 7ebf ac40 23af f4bf 5734 ff3e
00000010: 2f14 6f3f cf69 273e 32b9 493e 65d0 633f
00000020: 7218 8d40 c897 5fbf 61d1 29c0 ca70 f6bc
00000030: 5d0a 383f c5de d5be d51c 82be b98f e9be
00000040: 7b55 8fbd 47c4 62be e291 a43d 13b1 25bb
00000050: 6e07 813d 4769 20bf 5921 22bf 1084 253f
00000060: f7a5 9fbd c17f 84bf c477 d9be 619e ea3d
00000070: 8406 84bd ea17 d9be e16a 18bf 536d f1bd
00000080: 73f2 bfbe 2eb3 35bf 5d1a f7be 8ec3 69be
00000090: 85e3 67be 8450 e43c 5353 32be 372e b140
000000a0: bba7 473f 3830 e0be bca2 58bf 0d56 fbbe
000000b0: c0bd 8fbf 8ed5 ccbf 37bf 5bbf a67a 9640
000000c0: 0901 5fbf d906 a53f aa08 d43d a21c 1c41
000000d0: 5a6c 70bf f0e0 8cbe c54f f9be ae10 923e
000000e0: 314e 97bc ae31 813e 5d08 8d3e b091 d43e
000000f0: 21d2 19c0 00a3 5abe c10b 863f f563 98bf
00000100: 56d1 9940 7c8b b2bd 34c3 85bd 379f 0ebe
00000110: e665 eebd fc54 e53d 4e62 553e fae8 3d3e
00000120: ea8e 53be c49c fdbd 00aa 46be 201f 2c3e
00000130: fcf0 cfbd 5815 073e 789d 44c0 d32c 6040
00000140: 4fba 1640 13b9 b7bf 3934 f0bf 1416 babf
00000150: fd50 88bf 90ec c0be 4c3c adc0 91bd 7e3f
00000160: 65b7 083f 7043 8339 708a 89c0 05a8 16bf
00000170: fa72 d9bf 2dc5 68c0 bdbc f3bd 67c6 c9bd
00000180: 8fb3 ecbe 26fe 91bd 0754 dcbe bd4c db3f
00000190: 85ad 55be dfe7 3740 5a5e 543e e2df a0be
000001a0: 93d6 753d c54a c93d f844 84bd 5ce5 85be
000001b0: 722f 8b3e f465 56bd b4d0 dcbc f286 87bc
000001c0: 9ba3 e23c 67f8 61be 6cac b73d 4950 13be
000001d0: 29e3 c0bd c5a0 4fbf f079 74bd 0ed4 8abd
000001e0: 296f d8be fca6 f5be 5005 7dbe bd4e e2bd
000001f0: aab2 d33e f05d 1ac0 9c81 c2be d203 8a3f
00000200: 908b ffbf 0c6a fc3f 2d79 cebe e325 4ac0
00000210: 7536 19c0 9e8f bdbe 6f2d 40be 14ed 70bf
00000220: 9110 b4be 60b3 2c3e 0923 783e 7639 45bd
00000230: bf6f f63f ecfc 27bf a763 c4bf d836 ea3f
00000240: 5e05 3440 8a76 f03e 4949 2040 4798 5f40
00000250: 0887 1540 7a7c 8440 0af6 9140 bd21 3240
00000260: 1e0c 02c0 fde5 8540 5431 063c a37b 34c1
00000270: 868d 52bd 3505 0e3d ac08 a6bd bad2 fabd
00000280: 7b36 1b3e 0908 10bd edbb 9ebe 7168 6ebe
00000290: c2b8 863d 473a 64be 4033 0c3e eaf9 69be
000002a0: c8cf 08be 2728 e33e 2ddb f13f ffa3 44c0
000002b0: e3be 82bd 56c3 a53e c7d7 90bf e5c0 cc3e
000002c0: c2a6 df3d f3a1 ea3f e015 96bf 102f 2740
000002d0: 2361 60bd 836b e0bf 5f4b 503f 62e8 c4c0
000002e0: c507 f63f 62db 01c0 48fb 13bf 8c7d e0bf
000002f0: 0f02 d4bf fd79 39c0 a912 c23e 69ba 0a3f
00000300: 9d6d 97c0 8e08 5dbb 78da c9c1 6f20 e1be
00000310: 6075 2d3e cea7 21bd e463 8bbe f96c cabe
00000320: 8cc0 7fbe bf96 84be 851b 55be f4e1 cbbd
00000330: 039e 6ebe 4c2d 80ba fe37 f0be 78c2 53be
00000340: 2191 86bf 6607 00bf 5de4 d0be a462 80bf
00000350: e8bb cfbf ec54 82bf 983a 97bf 1e7d 94bf
00000360: 4a0a f7bf 6118 e43d 6768 4dbf 3771 d4be
00000370: c27a 5840 9d3b 8ebe e5c9 aebd 9b24 11be
00000380: 1e91 c8bd 041d 36be ddf7 413e 05d5 533e
00000390: 055e 943b f1da e3bd 3613 a3be 705e 6dbe
000003a0: 1de0 8abe f42e d8bd 3c68 bbbe 7367 063f
000003b0: 6c8e 68bf 19d7 0ebf 7203 cebe 08a7 92bf
000003c0: a59b 06bf e0a9 8cbe aee6 183c 7193 17bf
000003d0: cafd 8a3f 6d91 46bf 713a fcbf 9ecd bcbd
000003e0: f9a4 793f e903 cf3f 1c56 95be 4be5 8e3e
000003f0: 028f 83be 2cec 1dbf 62fe 81bf 19ac 923f
0.63089126 5.3983755 -1.9115947 0.4984462 0.9339017 0.16348957 0.19699553 0.8898986
4.409234 -0.87340975 -2.6534045 -0.030083079 0.71890813 -0.41771522 -0.25412622 -0.45617464
-0.06998726 -0.22145186 0.080356374 -0.0025282546 0.06300245 -0.6266064 -0.63332134 0.64654636
-0.07795327 -1.0351487 -0.42474186 0.1145599 -0.06446555 -0.42401057 -0.59538084 -0.1178843
-0.37489662 -0.7097653 -0.482623 -0.22828504 -0.22645386 0.027870424 -0.17414598 5.5368915
0.7799031 -0.43786788 -0.8462331 -0.4908909 -1.1229782 -1.6002672 -0.85838646 4.7024717
-0.87110955 1.2892715 0.10353215 9.75699 -0.9391533 -0.27515364 -0.48693672 0.2852835
-0.018469902 0.25233215 0.27545443 0.415174 -2.4034503 -0.21351242 1.0472337 -1.1905504
4.8068037 -0.08718011 -0.06531373 -0.13927923 -0.11640529 0.1119785 0.20838282 0.18545905
-0.20659986 -0.12383416 -0.19400787 0.16808748 -0.10153386 0.13191736 -3.0721111 3.5027359
2.3551214 -1.4353355 -1.8765937 -1.4537988 -1.0649716 -0.37680483 -5.4136105 0.99508005
0.5340484 0.00025036512 -4.298149 -0.5885013 -1.6988213 -3.6370347 -0.11901233 -0.09852295
-0.46230742 -0.07128553 -0.43032858 1.7132794 -0.20866974 2.8735273 0.20739117 -0.3142081
0.060019087 0.09828714 -0.06458467 -0.2615155 0.27184635 -0.052343324 -0.026954986 -0.01654384
0.027665904 -0.22067414 0.08968434 -0.14386095 -0.09418327 -0.8110469 -0.0596866 -0.067787275
-0.42272308 -0.4797896 -0.24709058 -0.110501744 0.41347247 -2.4119835 -0.3798951 1.0782416
-1.9964466 1.9719863 -0.40326825 -3.1585624 -2.3939488 -0.37023634 -0.18767332 -0.9411175
-0.3516889 0.16865301 0.24232115 -0.048150502 1.9252852 -0.65620303 -1.5342911 1.8297987
2.8128276 0.46965438 2.504473 3.4936693 2.3363667 4.140195 4.561284 2.7833092
-2.0319896 4.1843247 0.008190472 -11.280185 -0.0514045 0.034672935 -0.08107123 -0.12247224
0.15157501 -0.035163913 -0.3100275 -0.23282029 0.065782085 -0.22287856 0.13691425 -0.22849241
-0.13360512 0.4436657 1.8895012 -3.0725095 -0.06384065 0.32375592 -1.131585 0.39990917
0.109204784 1.8330673 -1.1725426 2.6122475 -0.054780137 -1.753281 0.8136501 -6.153367
1.9221121 -2.029015 -0.578053 -1.7538314 -1.6563128 -2.8980706 0.37904862 0.5419069
-4.7321305 -0.0033727023 -25.231674 -0.43970057 0.16939306 -0.03946667 -0.27224648 -0.39536265
-0.24975795 -0.2589626 -0.20811279 -0.099552065 -0.23302464 -0.0009779125 -0.4691772 -0.20679653
-1.051304 -0.5001129 -0.40799227 -1.0030103 -1.622922 -1.0182166 -1.1814756 -1.1600683
-1.9300015 0.111374624 -0.8023743 -0.41492626 3.3824925 -0.27779856 -0.08534602 -0.1417412
-0.09793304 -0.17784506 0.18942209 0.20686729 0.0045278096 -0.11125744 -0.31850594 -0.23180556
-0.2712411 -0.105558306 -0.36602962 0.525016 -0.9084232 -0.5579696 -0.40237004 -1.1457224
-0.52581245 -0.27473354 0.009332342 -0.5920935 1.08587 -0.7756565 -1.9705335 -0.09218906
0.97517353 1.6173068 -0.2916726 0.27909312 -0.25695044 -0.61688495 -1.0155756 1.145877

linear1.bias f4 [50]
00000000: 892f 973e 4e3b e1bd 84c7 81bc 9299 04bf
00000010: 40a1 ea3e 5ade 06be 0384 c6bf e967 8cbe
00000020: 6373 13be 5bb7 84be dfd0 6ebf e0b8 743f
00000030: 4b04 613e dddc 05be 2b7e 32c0 7741 53be
00000040: b791 4bbf 4f90 21be 5e66 50bf 21f7 94bf
00000050: 7a64 5840 e9bb 88bf 78da bd3c 11d8 8ebe
00000060: 6ab4 d6be abb9 f8be 28f7 e3be 3730 c63d
00000070: bc5d a2be 2564 8ebf c290 b1bf 3b14 17bf
00000080: c84b f0be 0828 d2be f2d7 0fbe fea4 22be
00000090: 5618 c4be b278 21bf 423c 49bf 8661 4abf
000000a0: 6117 a7bf 43d3 57bf 85a1 05bf d6e1 4bbf
000000b0: 0c95 083d 8ce5 2abf 75bd ea3f fbc2 7ebf
000000c0: fbdd 8cbe 2065 703c
0.29528454 -0.109976396 -0.015842207 -0.5179683 0.4582615 -0.13170758 -1.5509037 -0.27423027
-0.14399485 -0.2592114 -0.9328746 0.95594597 0.21974294 -0.13072534 -2.7889507 -0.20630442
-0.7951922 -0.15777706 -0.814062 -1.1637918 3.3811326 -1.0682346 0.023175463 -0.2789922
-0.4193452 -0.48579153 -0.44524503 0.09677165 -0.3171214 -1.1124312 -1.3872302 -0.59015244
-0.46932817 -0.41046166 -0.1404722 -0.15883252 -0.38299817 -0.6307479 -0.7860757 -0.7905506
-1.305401 -0.84306735 -0.52199584 -0.79641473 0.033345267 -0.6675651 1.8339068 -0.99516267
-0.27513108 0.014672548

linear2.weight f4 [250, 50]
00000000: a1c7 fe3d 31b9 f03c 9df9 4dbd efd4 c0be
00000010: 8fe6 133c 209b 5c3c 4e63 82be 0d5c 2cbe
00000020: 80cc bdbd 6226 f4bd fe29 e4ba 5788 84be
00000030: 612b fabd d029 22bd a3d5 00bf 7da4 933c
00000040: a4f7 bcbc 2869 bd3d b93f 2dbd 9407 62be
00000050: 2ee8 00bf 463d 30be 7280 14be a9f1 15bd
00000060: 43ac 36be eefe 36bd 4d27 afbc ad97 11be
00000070: f2d1 34bc ffaf ecbe 7e41 c7bd ac3f 22be
00000080: af3a 953c fbe8 44be 258d 70bd f73f b2bd
00000090: 0b1f 98bd 5732 e0bc dd3e 893c 6f2c 0d3d
000000a0: afec 09be 38a9 713d 0da5 cbbd 56e9 d1bb
000000b0: 5872 3fbe c774 2fbe 1575 c3bd c50b 21be
000000c0: a5e0 87bd f0a8 f03c 71ba 81bd d657 d43d
000000d0: 7e04 0fbc ea91 25bf 3559 dbbe 20ee 5c3c
000000e0: b3fc 1cbf 02f5 69be f121 8abd 6643 34bf
000000f0: 8fd7 42be b2a5 64be 2eb5 6f3c 822c 2d3d
00000100: 95d3 a9bd 98a6 0cbe 7169 08bd fca3 d03d
00000110: 9319 ebbd d470 28be 9f86 b3bf 9e31 1fbe
00000120: 3cc1 0bbf 0c4a 02be d4c5 a0bd c610 493c
00000130: ae3f 0a3e 986d dd3d 3640 26be 254d 82bf
00000140: 07df 863a 8e33 87be 70de af3d 2def 0ebe
00000150: 21f1 c0be c637 a0be 5bdb e33d 9497 3c3c
00000160: 57ab 45be 6b5f 0f3c e11b 0dbe 1aa0 44bc
00000170: 3aec 1dbe 8d65 65bc 0841 f9bd 2dd4 26be
00000180: 1b40 62be d0fd f9bc eedf e43d 3ec1 cd3d
00000190: 7f9f 743f 60cb 11be 8adb 273e 3735 803f
000001a0: c790 f7be 7006 5d3d 21dc fb3d 5372 b43e
000001b0: 407d bebb 9dc3 d3be 2b33 093f 8538 a23d
000001c0: 2aa3 eb3c 4a62 363e 8a46 4e3f 8e7e 223e
000001d0: 156a 1ebe f38b 5f3b 49e2 973e 4d45 afbf
000001e0: f904 493f eb2c f9bd 2825 9dbf 3d13 283e
000001f0: 78ee c4bb 59e3 313e 1c7a 8dbd f440 833d
00000200: a81e cebd b7af af3e 81f9 b53e 4796 6e3d
00000210: 81be b0bd 6474 33be 42f9 f2be 0ff1 88be
00000220: c1a2 e5be 8d92 6bbd da79 34bd 5cac 383e
00000230: 7545 0c3f b528 7abe fb65 fa3e 56d2 d63e
00000240: b742 c9bb d9e9 85bd b49e 0f3f 4236 c63d
00000250: e70b ccbd fd5c 91bd a953 0ebd ead1 673d
00000260: 97c1 c03d bfe3 f33d dae9 9d3e b809 0a3d
00000270: c46c 183e 9cd4 003e a018 c0bb 708c 6a3e
00000280: 411e 093e 9355 073e 1768 0ebe 8ab0 263d
00000290: 2954 c03d 42c0 273d ad5e 403d 415d 023e
000002a0: 4b9a 443d 17f0 f83d d8e2 293e 3933 a53c
000002b0: 56c8 3a3e f81a e43d 5a4a 513d c93c ee3d
000002c0: 5db5 c93c f0e2 403e 19aa 853e e9e2 fd3d
000002d0: fc58 093e 31b3 8e3e fd3b d33d 55b9 77bc
000002e0: 1518 a23d e053 e93c e9af bc3b 130c d43c
000002f0: b7da 243e d45b 5c3e 5708 863d f1d5 403e
00000300: e436 223e 3de5 2abb bf2a 5b3d f825 323e
00000310: b0c9 873e fb7e 1b3d 00d0 7abd 108b 06bc
00000320: f07c 283d 1be2 353e 262a 85bc 7b7a 1b3e
00000330: dcc4 833e a8fa 003d ca21 8d3e d8dc bb3d
00000340: e852 4f3d fdfd f43d fb8f e93d b764 d03d
00000350: ca6c 5dbd 34f4 70bd ad8e 8e3e fbe2 7dbd
00000360: 360e a23d 0ec7 d1bd 9a65 583d a768 573e
00000370: 43ea 0e3e c1f0 5d3c 4ec8 8d3e 7e79 34bd
00000380: 62a6 d43d 28b1 3e3e 101c 9d3d 3669 18bd
00000390: 46e9 c03d 0eac 323e 1611 af3d 421b 883d
000003a0: 09ec 68bd 1251 743d 62ef a83d d3de 2e3e
000003b0: 57f2 81bb 0813 ea3c 3cb2 a13b 8871 9f39
000003c0: 5ae8 3a3e a868 073e 475a 693e 7fa8 653e
000003d0: d3b9 f13c bd92 9cbd 6d93 b93b 4308 b8bd
000003e0: ffc6 913d 82be cc3d 733b 12c0 c8db 2abd
000003f0: c5a8 173e 23f3 b4be a591 9ebd 78f0 39bd
0.1244042 0.029385181 -0.050286878 -0.37662455 0.009027137 0.013464719 -0.25466388 -0.1683199
-0.09267521 -0.119213834 -0.0017407534 -0.2588527 -0.12215305 -0.039590657 -0.50325984 0.01802277
-0.023067303 0.092485726 -0.0422971 -0.22073203 -0.5035428 -0.17210874 -0.14502123 -0.03660742
-0.1783915 -0.044676714 -0.021381045 -0.14218016 -0.011036383 -0.46228024 -0.097292885 -0.15844601
0.01821646 -0.192295 -0.058728356 -0.087036066 -0.07427796 -0.027367754 0.016753608 0.034466203
-0.13469194 0.05899927 -0.0994359 -0.0064059896 -0.18695962 -0.17134391 -0.09543816 -0.15727146
-0.066346444 0.02937743 -0.06334389 0.10368316 -0.008729098 -0.6467577 -0.42841497 0.013484508
-0.6132309 -0.2284737 -0.06744755 -0.7041534 -0.19027542 -0.22328833 0.014630599 0.042278774
-0.08292309 -0.13735425 -0.03330368 0.101875275 -0.11479487 -0.1644929 -1.4025458 -0.15546271
-0.5459173 -0.12723559 -0.07850233 0.0122720655 0.13500854 0.10811919 -0.16235432 -1.0179793
0.0010289856 -0.2640652 0.085873485 -0.13958426 -0.37683967 -0.31292552 0.11125823 0.011510748
-0.19303642 0.008750777 -0.13780166 -0.012001062 -0.15422145 -0.014001262 -0.12170607 -0.16291876
-0.22094767 -0.030516535 0.11175524 0.10046624 0.9555587 -0.14237738 0.16392341 1.001624
-0.48352644 0.053961217 0.12297846 0.35243472 -0.005813271 -0.4136018 0.535937 0.079209365
0.028764326 0.17810932 0.80576384 0.1586859 -0.15470155 0.0034110516 0.2966483 -1.3693024
0.7852321 -0.121667705 -1.2276964 0.16413589 -0.006009873 0.17371882 -0.06908056 0.06408873
-0.10064441 0.34313747 0.3554192 0.058248784 -0.08630086 -0.17524868 -0.47455794 -0.26746413
-0.44850734 -0.05751281 -0.04406152 0.180345 0.54793483 -0.24429591 0.4890593 0.4195735
-0.006141986 -0.065387435 0.56101537 0.096783176 -0.09963208 -0.07097814 -0.034747753 0.056596674
0.09411924 0.119086735 0.30842477 0.033700675 0.14885241 0.12581104 -0.0058623105 0.22905135
0.13390447 0.13216238 -0.13906895 0.040695705 0.09391052 0.040954836 0.04696529 0.12730886
0.047998708 0.121551685 0.1659044 0.020166026 0.18240485 0.111379564 0.051096298 0.116326876
0.024622614 0.1883657 0.26106337 0.12396795 0.13412851 0.27871087 0.10314176 -0.01511987
0.079147495 0.028482378 0.005758275 0.025884664 0.16099058 0.21519405 0.065445594 0.18831612
0.15841252 -0.0026076578 0.053507563 0.17397296 0.26521063 0.037962895 -0.06123352 -0.008211866
0.041134775 0.17762034 -0.01625545 0.15183441 0.2573613 0.031489044 0.27564842 0.09172982
0.050616175 0.11962507 0.11404415 0.1017546 -0.054058827 -0.05882664 0.27843228 -0.061984044
0.07912867 -0.10243045 0.05283127 0.21036015 0.13956551 0.01354617 0.27691883 -0.044061176
0.103832975 0.18622267 0.07671368 -0.037209712 0.094194934 0.17448446 0.08548181 0.06645824
-0.056865726 0.059647627 0.08248784 0.17077188 -0.0039656567 0.028573528 0.0049345773 0.0003041143
0.18252698 0.13223517 0.22788344 0.22427557 0.029507553 -0.076451756 0.0056633265 -0.08985951
0.071180336 0.09997274 -2.2848785 -0.041713506 0.14810474 -0.3534175 -0.07742623 -0.045395344

linear2.bias f4 [250]
00000000: 2ac6 03bf 6ad0 3cbf ae8c 383f eff1 4d3e
00000010: 6d6a bb3e a449 cfbe 868c 86bf ec9c d1be
00000020: 8526 2b3e 770e 263f 32dd b9bf 54e6 0dbf
00000030: 1ff5 a0bd f0b1 083e fac3 febe d59b d43e
00000040: 6c1c 273e 4c08 9e3b 690d 90be c51e 233e
00000050: 4228 03bf bb18 64bf 593e 3ebf bf56 c7bd
00000060: f90d 963f 7bd1 17bf 056d 4a3e 6f7f f1be
00000070: a8d4 a2be 68ef 3d3f 1b40 19bf dd73 c93d
00000080: a857 ef3e fc93 933f fefe 12bf 313c 12be
00000090: 49c3 43be 2201 4bbf e507 84bf bcd6 65c0
000000a0: fa2d 4d3f 0839 df3f 6dc7 a6be 96b9 543e
000000b0: 9735 15be 1d86 f13f 9c7a cabf f94b 873f
000000c0: 0e3b 26bf e155 f2bf 9216 99be 3e18 83be
000000d0: 4de7 173e 16d4 abbe 64cf 743e 4c34 f4be
000000e0: ea73 58be 8c4e 18c0 4c8b c1be 930c e13e
000000f0: 2dbf 7ebe ecda 94be b15e 53bf 6c27 6b3e
00000100: e082 223e 5186 eebe e00a e83f a1d1 15bf
00000110: 0a6e 21c0 b7ec 65bd 1cb1 cd3e 4790 c93f
00000120: 623f b23e 28fb 48bd 6698 0b3f 4cd4 4dbf
00000130: 7c66 bdbf 7690 8c3e dd49 213f 31b2 48c0
00000140: 478b 44be 4fbb cdbe 0260 133f 185c 3a3f
00000150: 8a60 55bf 64dd 02bf 6877 2abf 39f2 4c3f
00000160: 8e7d bebe 7cbf 9c3f ea1b 1dbf 1132 91be
00000170: ee61 a5be 7b58 e5be ae7b 07c0 e644 1abf
00000180: 6d43 9ebf c1cf d1be c46b 9dbf 58be f4be
00000190: 3547 d63f 3a9b c6bf 7fd3 18bd 4c4e d3bf
000001a0: 378a 303e 027a 6d3d 2f76 c03e da25 223f
000001b0: 5730 91be 4994 7c3c 3c1e 30c0 423a b9be
000001c0: a2aa dbbf 2e79 94be 7687 d63f b915 3b3f
000001d0: abdf 29be 6fac e03f 3be1 64bf 51d5 fdbf
000001e0: 3220 003f def2 703e b7a5 c33f deed 953f
000001f0: 1976 94bf 3569 7cbe 5c53 e03d a9e0 2a3f
00000200: 670e 54be ca66 e8be 24ba 06bf 6a0d 2ebf
00000210: 17e3 51c0 f387 c63e 8a0c 48be 3549 21bf
00000220: 0ba4 c7bf 2a80 4a3f e7b8 113f 911b 423e
00000230: 2ebe 9a3e ffe5 b0bf 9afe 213e 1f7a 41be
00000240: 38e4 ad3e 44c0 d63f d97f 14bc 1c8e 53be
00000250: cffc ebbf 4036 49be 7835 9ebe 553b 0d3e
00000260: d99c 643e bec2 fa3d e836 9fbf c260 5d40
00000270: cc52 58be d1b0 103e 7197 34be 2013 27bf
00000280: 6c94 67bf 9523 12bf 0545 593f 3368 afbe
00000290: 8fad 323f ed37 3cbf ee16 19bf ea64 5abf
000002a0: ea9c 3fbf fc79 44bf 34a7 2a3f ac4f 403e
000002b0: 4adb c0bd 7f12 343f d6a4 3bbf c00f a73e
000002c0: d083 76be 0a0f 823f 14f3 1d3f a126 c7bf
000002d0: 6803 d1be bbd8 03bf 0e56 13be e150 a43f
000002e0: ff9b d2be db48 8abf 7abe 8fbf a96f 50bf
000002f0: d08f e1bf b5e6 3abf 0f27 fdbe 8274 b33f
00000300: f0a6 0f3f 525c e9bf a11a 993f 186a 85be
00000310: 8db3 16bf 0dc0 e6be fac8 543e 2c67 073f
00000320: c0a7 9a3f 2b07 8cbf 3c40 41bf d6d6 9a3e
00000330: f82e 5e3e b116 8ebe 023a dfbe 6448 9e3e
00000340: 6e07 32bf b76a 953f bf86 453e d66d 133f
00000350: 76ce e0be a017 353f 8e54 3d3f 8272 cdbf
00000360: f131 24bf 9e13 3fbe 8189 c3be b6e2 2fbf
00000370: d84e dd3f 0148 81bd 0bc4 103f 7a2b 88bf
00000380: 9f68 49be 91dd 06be ff31 80bf 3f04 bf3e
00000390: b95d 4bbf 0479 9bbf fc3b b4be e571 63bf
000003a0: 1201 08c0 4e9e 273f 4296 3fbf 4a21 18bf
000003b0: 65bb f7be 608d eabf 2cb9 90bf 4f2a 58bf
000003c0: c8c8 443e 0df3 02c0 26c0 75be 65df 733e
000003d0: 866b a7bf 7b29 893e 6508 f5bf 268a babd
000003e0: 925a 0ebd 0e17 9d3e
-0.5147425 -0.73755515 0.7208966 0.20111822 0.36604634 -0.4048587 -1.0511634 -0.40940034
0.16713913 0.6486582 -1.4520628 -0.5542958 -0.07859253 0.13349128 -0.49758893 0.4152514
0.16319436 0.0048227664 -0.2813523 0.15929706 -0.51233304 -0.89100236 -0.74313885 -0.097333424
1.1723014 -0.59304017 0.1976815 -0.47167537 -0.3180287 0.7419343 -0.5986344 0.09836552
0.46746564 1.1529536 -0.5742034 -0.14280774 -0.19117464 -0.79298604 -1.0314909 -3.5912313
0.8014828 1.743928 -0.32574025 0.2077392 -0.14571224 1.8869053 -1.5818667 1.057006
-0.6493386 -1.8932458 -0.29900032 -0.25604433 0.14834328 -0.33560246 0.23907238 -0.4769615
-0.21137968 -2.3797941 -0.37801588 0.43954906 -0.24877615 -0.29073274 -0.8256636 0.22964257
0.15870237 -0.4658685 1.8128319 -0.58522993 -2.5223413 -0.056133952 0.40174186 1.5747155
0.34813982 -0.049067646 0.54529417 -0.80402064 -1.4796901 0.27453965 0.6300333 -3.135876
-0.19193755 -0.40181968 0.5756837 0.72796774 -0.8335043 -0.51119065 -0.6658845 0.800571
-0.37205166 1.2245936 -0.6137072 -0.2835851 -0.32301277 -0.44794068 -2.1169238 -0.6026138
-1.2364327 -0.40978816 -1.2298512 -0.4780147 1.6740481 -1.5516121 -0.037311073 -1.6508269
0.17240225 0.057977684 0.37590167 0.63339007 -0.28357193 0.015416213 -2.7518454 -0.3617726
-1.7161448 -0.28998703 1.6760089 0.7308002 -0.16589229 1.7552623 -0.89406174 -1.9830724
0.50049126 0.23530146 1.5284947 1.1713216 -1.159854 -0.24649508 0.109533995 0.66749054
-0.20708619 -0.45390922 -0.5262778 -0.6798922 -3.2794855 0.38775596 -0.19536033 -0.6300233
-1.5596937 0.7910181 0.56922764 0.18955828 0.3022322 -1.3820189 0.15819779 -0.18894242
0.3396318 1.6777425 -0.009063684 -0.20659679 -1.8436526 -0.19649601 -0.30900168 0.13792165
0.22325458 0.122441754 -1.2438631 3.4590306 -0.21125335 0.1412995 -0.17635895 -0.6526356
-0.9046085 -0.57085544 0.8487094 -0.34259185 0.6979608 -0.73522836 -0.5980061 -0.8531023
-0.74848807 -0.76748633 0.6666138 0.18780392 -0.09416826 0.7034072 -0.73298395 0.32629204
-0.2407372 1.016084 0.6169903 -1.5558664 -0.4082291 -0.5150258 -0.14388296 1.2837182
-0.4113464 -1.0803484 -1.1230004 -0.8142038 -1.7622013 -0.7300828 -0.49443862 1.401993
0.561141 -1.8231299 1.1961251 -0.26057506 -0.5886772 -0.45068398 0.20779791 0.528918
1.2082443 -1.0939687 -0.7548864 0.30242032 0.21697605 -0.27751687 -0.43598944 0.30914605
-0.69542587 1.1673192 0.19289683 0.5758947 -0.43907517 0.70739174 0.73957145 -1.605057
-0.64138705 -0.18659827 -0.38190845 -0.6870531 1.7289686 -0.06312562 0.5654914 -1.0638268
-0.19668816 -0.13170458 -1.0015258 0.37307927 -0.79439884 -1.2146306 -0.35202014 -0.88845664
-2.1250653 0.6547593 -0.7483865 -0.59425795 -0.48385158 -1.8324394 -1.130651 -0.8443956
0.19217217 -2.0460846 -0.2399908 0.23815687 -1.3079689 0.2678946 -1.9143187 -0.09108381
-0.034754343 0.30681652

output.weight f4 [4, 250]
00000000: 50b4 26bf 1104 d93b 7959 5abf ac84 95bd
00000010: da4d 35bd bf31 003d 3afb a73d 4351 f7bd
00000020: 667a bebd e154 fcbb 1f07 c2bd c45d 87bf
00000030: 012c ae3c f044 1ebe 2118 40bf ef45 c9be
00000040: 5278 5bbe c454 82bc 195f 3e3e 1abd 983d
00000050: 1be8 a6be 3076 98be 5c40 b83e 0b1f d8bd
00000060: 18df bdbd 76d3 90be 80af ccbd a06f f93d
00000070: e63a 2b3b 5f82 a8bd 8ee7 083e 8dea eabd
00000080: 9c77 2fbe d544 88be 5858 acbd 17bd afbd
00000090: 2a75 773d 5f10 9dbe 3e00 cdbe f934 8abf
000000a0: 0997 a4be 71d7 933c 9cf5 f63d c271 57bd
000000b0: be9f a63e 0d56 17bc d30a 843e 3fad fcbd
000000c0: 136e 923d f49f 6e3f 0b71 98bd a416 00bd
000000d0: 78b0 abbd 749e 263f 0e86 ed3d 9d19 5fbd
000000e0: 661b aabd 1360 793e c187 963e 1cfc 8cbc
000000f0: 85df d9bd b399 bebd a722 2e3f 8f02 5dbd
00000100: 3169 86bd 8f25 d7bd 4a24 0cbe 5d7f e5be
00000110: 9ba4 1ac0 1d9d 00be 0a8a f3bd 058d 8ebe
00000120: dbcb 82bd 9c9c 2abd 9824 933d 7934 443e
00000130: 3732 263f fec5 5ebe c0c5 8dbd d7e2 ccbd
00000140: 5d71 31bd 1e9a 78be 1058 9cbd 5cbd 3ebe
00000150: c6dc 203f 2956 f1bc c057 023f aa33 853d
00000160: 229f 70bd 3322 b4be 3185 993d 6a07 6a3c
00000170: f2fe 123c 3092 053c 78c9 123f 6092 25bf
00000180: 36e7 9ebe 3ac9 ebbd f3e0 7ebe 7c39 b33e
00000190: e067 ad3d 1e73 b3bd faae 97bd fd14 1dbe
000001a0: 26d3 76bd 82db ec3c 9704 203d eb45 84bd
000001b0: 71c3 15bd fc30 013b 5e17 e53f ec0d bebd
000001c0: 371e 72bf 9050 0fbd d0b3 2fbe 14ff b5bd
000001d0: afc6 d23c c88f 3e3c de8c 07bd 5d3e 803e
000001e0: 9c1d bb3d 1a7f 8cbc 1989 623c db71 3d3d
000001f0: 0771 773e 2b31 023c 413f 0b3c 58ed 043a
00000200: b620 91bf be10 5dbd 76f5 06bf 6506 023f
00000210: 4782 c0bd 462a 03c0 ef35 993d 43fb e0bd
00000220: 4aee 87bf ec22 a1bb d631 d9bd cc2c 3abd
00000230: a6a4 1c3f d9d1 f43e 5cc6 14bf 3c23 3b3c
00000240: 54f4 debd 76a3 3fbe 99ef f4be 2bb9 013c
00000250: 0903 a4bf 0621 cabb 0d3d a53e 605b 94be
00000260: 9e39 cabd abd9 f7bd 3d87 b83e c949 343e
00000270: ef4e f2bd 0f14 0abe 6bdb 24bf 2ce3 fe3e
00000280: e315 efbe 55ef 28bd 26c5 d1bd 6e40 fe3c
00000290: e2f5 0ebe c289 38bd 2729 703e 40c3 42bf
000002a0: 8ded 383e 08c4 313e a4d6 1cbe 9e29 943e
000002b0: e4dc dcbb 0dc7 f23e 5b70 da3e 3841 46be
000002c0: 7d0b b53d 96ed c73e ecdb 883d 0e76 bb3e
000002d0: df10 d93e 8f13 d33e 354a a43c 1272 66bc
000002e0: efd9 33bf 57a6 62c0 db2d d6be 4ceb f0be
000002f0: 0f83 6f3e e815 50bd e136 cebc eded 043d
00000300: 397f ffbb e31e fa3e 919d e4ba 9272 2ebd
00000310: b241 08bd e77d 9dbe 9e01 25bd 5f4a 90be
00000320: 43be 18bf 1a25 b03d 0b16 39be 3087 98bd
00000330: 5291 3bbe 65c2 943d 2794 2dbd 6a46 963d
00000340: 8b02 d33e 85f3 c3be 4653 e4bd defd a03c
00000350: f718 48bf 6738 ab3b a225 17be e425 36be
00000360: d4a3 883f 5628 803d c680 713e 331d 1abf
00000370: 5546 8bbe a2a9 b4be 2cac 0ebe 8925 913e
00000380: 6d6b 343c 8c28 773c ccf6 253e 7455 b4bc
00000390: 5bcc 313d bbfb dfbd c771 ebbe 849e f03e
000003a0: 5e8d ca3d 249c acbe 55f5 c83d f287 f93e
000003b0: a5d6 38be d3c3 8ebe f13a 82be a057 f03c
000003c0: 78e3 acbd 010d 48bd 4423 593d 167c 69be
000003d0: 7ce0 bdbf a229 a53d 5ffd 19c0 da1b d2bd
000003e0: 1a77 713d f07b 5dbd 9465 173f 1f2b b1bd
000003f0: bfbf 20be 968c eebb 46fc 873d 1501 afbd
-0.65118885 0.006622799 -0.85292774 -0.07300696 -0.0442637 0.03129744 0.082022145 -0.12076046
-0.093006894 -0.007700548 -0.094740145 -1.057549 0.021261217 -0.15455985 -0.7503682 -0.39311168
-0.21432617 -0.01590956 0.18590964 0.07457943 -0.32598957 -0.2977767 0.35986602 -0.10552796
-0.092710674 -0.28286332 -0.099944115 0.12179494 0.0026127636 -0.08227991 0.13369581 -0.11470518
-0.17135471 -0.26615015 -0.08415288 -0.08580988 0.06041447 -0.30676553 -0.40039247 -1.0797416
-0.3214648 0.018047066 0.12058565 -0.052598722 0.3254375 -0.009236825 0.25789508 -0.123377316
0.07149901 0.9321282 -0.07443436 -0.03127159 -0.08383268 0.6508553 0.115978345 -0.054467786
-0.08306007 0.24353056 0.29400447 -0.017210059 -0.10638336 -0.093066595 0.68021625 -0.05395752
-0.065630324 -0.105052106 -0.13685718 -0.44823733 -2.4162967 -0.12559934 -0.11891563 -0.27841964
-0.063865386 -0.04165326 0.07184714 0.19160642 0.6492037 -0.21755216 -0.069224834 -0.10004204
-0.043321002 -0.24277541 -0.07633984 -0.18626922 0.62836874 -0.02946003 0.50915146 0.06503995
-0.05874551 -0.35182342 0.07496107 0.014283994 0.0089719165 0.00815253 0.57338667 -0.64676476
-0.31035775 -0.1151299 -0.24890499 0.35004795 0.08467078 -0.08762191 -0.07406421 -0.15340038
-0.06025996 0.028913263 0.039066877 -0.06458648 -0.03656334 0.0019713035 1.7897756 -0.09279999
-0.94577354 -0.03498894 -0.17158437 -0.08886543 0.025729505 0.01163096 -0.033093326 0.2504758
0.09136507 -0.01715045 0.013826632 0.04625116 0.2416421 0.007946293 0.008498968 0.00050707674
-1.1338108 -0.053971045 -0.52718294 0.5079101 -0.093998484 -2.0494552 0.0748099 -0.10985424
-1.0619595 -0.004917493 -0.106052086 -0.045452878 0.61188734 0.4781635 -0.5811517 0.011421975
-0.10886446 -0.18714699 -0.47839049 0.007917683 -1.2813426 -0.0061684875 0.3227314 -0.28975964
-0.09874271 -0.12102064 0.3604068 0.17606272 -0.11831462 -0.13484214 -0.64397305 0.49782693
-0.46696386 -0.04124387 -0.10242681 0.031036582 -0.13960984 -0.04505325 0.23453198 -0.7607918
0.18059368 0.17359936 -0.15316254 0.28938 -0.0067401994 0.4741749 0.42663845 -0.19360816
0.08840082 0.3904845 0.06682572 0.36613506 0.42395684 0.4122586 0.020054916 -0.014065282
-0.70254415 -3.5414026 -0.4183186 -0.47054517 0.23389839 -0.05080214 -0.025172653 0.032453466
-0.0077971485 0.4885169 -0.0017441978 -0.04258973 -0.033265777 -0.30760118 -0.040284745 -0.2818174
-0.59665316 0.086008266 -0.18074815 -0.0744766 -0.18317154 0.0726364 -0.042377617 0.07337649
0.41212878 -0.38271728 -0.11148696 0.019652303 -0.78163093 0.0052252295 -0.1476045 -0.17787892
1.0674996 0.062576935 0.2358428 -0.60200804 -0.27202097 -0.3528567 -0.13932866 0.2834895
0.01101194 0.015085351 0.16207427 -0.022013403 0.04340778 -0.10936686 -0.45985243 0.46995938
0.09890245 -0.33712876 0.09812418 0.4873653 -0.1805063 -0.27883777 -0.25435594 0.029338658
-0.08441824 -0.048840526 0.053012148 -0.22801241 -1.4834132 0.080645815 -2.4060895 -0.102592185
0.058951475 -0.054073274 0.5913937 -0.08650803 -0.15698145 -0.0072799427 0.06639914 -0.08545128

output.bias f4 [4]
00000000: 7994 cbbc b46d db3d 4fbc 06be be8a 31ba
-0.02485107 0.107142836 -0.13157772 -0.00067726884
