models/weights/model_10.pth (torch, 59987 bytes, 6 tensors)

linear1.weight f4 [50, 13]
0	0x3ea8cda2	0.32969385
1	0x3e67a45d	0.22621293
2	0xbed46311	-0.41481832
3	0xbd138f52	-0.036025353
4	0xbe06d55e	-0.1316733
5	0xbd66a053	-0.05630524
6	0x3d43fe38	0.047849864
7	0xbe4d67e8	-0.20059168
8	0x3f0d392b	0.55165356
9	0x3e1b9424	0.1519323
10	0xbd32434d	-0.043521214
11	0x3bdee9be	0.0068027666
12	0xbfe1d366	-1.7642639
13	0xbda258e1	-0.079271086
14	0x3e9c8fd4	0.30578482
15	0xbeab8665	-0.33500972
16	0xbe194dac	-0.14971036
17	0xbe70ace2	-0.2350345
18	0xbeb7f432	-0.35928494
19	0xbea13f60	-0.31493664
20	0xbebbf0a5	-0.36707035
21	0xbe09bcd8	-0.13450944
22	0x3ea8120a	0.32826263
23	0xc003843d	-2.0549462
24	0xbbc086d6	-0.0058754487
25	0x3fd641c7	1.6738824
26	0xbe3cda00	-0.18442535
27	0xbe98e177	-0.29859516
28	0xbe790a29	-0.24320282
29	0xbe50f49b	-0.2040581
30	0xbd386fbe	-0.04502844
31	0x3cbbf9ae	0.022946205
32	0x3d8cfb16	0.06883828
33	0x3c8510bf	0.016243337
34	0x3ca34a94	0.019933023
35	0x3c04b9a3	0.0081009
36	0x3ea4df4d	0.32201615
37	0xbe75cce5	-0.24003942
38	0x3eb000db	0.34375653
39	0xbd4b6fd4	-0.049667194
40	0xbddf0510	-0.108896375
41	0x3d2cc6fe	0.04218196
42	0xbe6391aa	-0.22223535
43	0x3e761c80	0.2403431
44	0x3dc23097	0.09481924
45	0x3e39b12a	0.18133989
46	0x3deaa785	0.11457733
47	0x3da9f5fb	0.0829887
48	0xbe7cf084	-0.24701124
49	0x3cd710a1	0.026253046
50	0xbdd3b6db	-0.10337611
51	0x3d98f1b9	0.0746798
52	0xbe5b02b4	-0.2138775
53	0x3e78691d	0.24258848
54	0x3e4e7df4	0.20165235
55	0x3edb2682	0.42802817
56	0x3dcaacc1	0.098962314
57	0x3e883f85	0.26610962
58	0x3e426cf8	0.18986881
59	0x3e3e9a8e	0.18613645
60	0xbe910dd4	-0.28330863
61	0xbe861142	-0.26185042
62	0x3fa202a8	1.2657061
63	0x3da4df03	0.080503486
64	0xbf83d6cf	-1.0299929
65	0xbc00336a	-0.007824758
66	0xbcae3a50	-0.02126804
67	0xbe7c21a4	-0.24622208
68	0x3ed7fa6e	0.4218325
69	0x3e52170f	0.20516609
70	0x3e84624f	0.25856254
71	0xbc16d351	-0.009205655
72	0x3e1d92a1	0.15387966
73	0x3f8826ee	1.063688
74	0x3e259b11	0.16172434
75	0xbedfcc7c	-0.43710697
76	0xbedb3963	-0.4281722
77	0x3e3cdbe6	0.1844326
78	0x3d62b772	0.05535073
79	0x3d5bd0d5	0.053665955
80	0xbd68c5fe	-0.056829445
81	0x3cc43c08	0.023954406
82	0x3df988ef	0.12184321
83	0xbe981a9d	-0.29707804
84	0xbc925f2e	-0.01786765
85	0x3df0c7fc	0.11756894
86	0x3e951f62	0.29125506
87	0xbe09d1ae	-0.13458893
88	0xbe3afeb3	-0.18261223
89	0xbe4c2683	-0.19936566
90	0xbe96d89b	-0.29462132
91	0xbe70430c	-0.23463076
92	0x3e3ccd33	0.18437652
93	0x3f08cce9	0.5343767
94	0xbed99005	-0.4249269
95	0xbf13b729	-0.57701355
96	0xbf0145e4	-0.5049727
97	0xbf119577	-0.5686869
98	0xbf14a965	-0.58070976
99	0xbf4d2211	-0.80130106
100	0xbda48d2c	-0.08034739
101	0xbf7f9ad3	-0.9984562
102	0x3c88020a	0.016602535
103	0x3f51f86b	0.8201968
104	0x3e641eaf	0.2227733
105	0xbe8d6988	-0.27619576
106	0xbe2f0173	-0.17090397
107	0x3e27b477	0.16377436
108	0x3ea8bd58	0.32956958
109	0xbe5fd5c7	-0.21858893
110	0x3e375819	0.179047
111	0xbe1db94c	-0.15402716
112	0xbdfdfa53	-0.12401261
113	0xbe4454f0	-0.19173026
114	0x3f6f44c4	0.93464303
115	0xbd786208	-0.060640365
116	0xbda9609d	-0.08270381
117	0x3c9c5969	0.019085603
118	0xbde6dff6	-0.11273186
119	0x3e6d7416	0.23188815
120	0xbe0fbfdd	-0.14038034
121	0x3e24f123	0.16107611
122	0x3e69b12f	0.22821496
123	0xbd926e4b	-0.07149943
124	0xbe0377fd	-0.1283874
125	0x3f00ea0b	0.5035712
126	0xbddf7bad	-0.10912261
127	0x3f77a1b2	0.967311
128	0xbf0641ab	-0.5244395
129	0x3c9e293e	0.019306775
130	0xbea902bc	-0.330099
131	0xbe8818c5	-0.26581398
132	0xbc29261b	-0.010324026
133	0x3e115419	0.14192237
134	0xbe983f2f	-0.29735705
135	0x3e76825b	0.24073164
136	0x3e02d0dc	0.12774986
137	0xbde10b72	-0.10988511
138	0xbda3753f	-0.07981347
139	0xbee1c19a	-0.4409302
140	0x3d88bec5	0.066770114
141	0x3e4e489f	0.2014489
142	0x4005db0c	2.0914946
143	0x3d746bfa	0.059673287
144	0x3ef03931	0.46918634
145	0xbdfd3af5	-0.12364761
146	0xbc24792b	-0.010038654
147	0x3d269ff6	0.040679894
148	0x3e630af0	0.22172141
149	0x3eb442e9	0.35207298
150	0x3f1b10b7	0.6057238
151	0xbe7ec8dd	-0.24881311
152	0xbef7190f	-0.48261306
153	0x3f881b20	1.0633278
154	0x3e2871ed	0.16449709
155	0xbfd47ac2	-1.6599963
156	0xbe0cb91c	-0.13742489
157	0xbece8acc	-0.4034027
158	0x3eaf4d38	0.342386
159	0xbe019789	-0.12655462
160	0x3e53325d	0.20624681
161	0xbe5f4bed	-0.21806307
162	0xbd41c621	-0.04730809
163	0x3e81358a	0.2523616
164	0x3e976562	0.29569536
165	0x3ea93e4f	0.3305535
166	0xbf8d552d	-1.1041619
167	0xbe0f8f4d	-0.14019509
168	0x3f2aacd4	0.66669965
169	0x3eb1ca6d	0.3472475
170	0xbef72015	-0.48266664
171	0xbe45d942	-0.19321159
172	0xbd9974ca	-0.07492979
173	0x3e80165e	0.25017065
174	0x3e15bcb9	0.14622773
175	0xbd709ba5	-0.058742184
176	0x3f02d459	0.51105267
177	0x3f4f1667	0.8089356
178	0x3d6071ab	0.054795902
179	0x3e458c0a	0.19291702
180	0xbd22a6c9	-0.03970984
181	0xbf997a9c	-1.1990542
182	0x3ed417c2	0.41424376
183	0x3e33ea41	0.1756983
184	0xbabbb041	-0.0014319496
185	0xbe7127ae	-0.23550293
186	0x3e5a8d66	0.21343002
187	0x3c5ec239	0.013596111
188	0x3e554970	0.20828795
189	0xbe8c169b	-0.27360997
190	0x3edbb6de	0.42912954
191	0xbe16b01f	-0.14715622
192	0x3df974e9	0.12180502
193	0x3cee7be5	0.029111812
194	0xc03330f4	-2.7998629
195	0x3e9dd705	0.3082811
196	0xbe47bf01	-0.19506456
197	0xbe8952cd	-0.26820984
198	0xbe21c7a6	-0.15798816
199	0xbe22324d	-0.158395
200	0x3dd6e217	0.10492342
201	0xbed7f01c	-0.42175376
202	0xbec07060	-0.37585735
203	0x3f26fb11	0.65226847
204	0x3e1e60c0	0.15466595
205	0x3c9327d6	0.017963331
206	0x3c5afef7	0.013366452
207	0x3f1b0ca8	0.60566187
208	0x3ea8b346	0.32949275
209	0xbe045f64	-0.12927014
210	0x3ebc94a0	0.36832142
211	0x3de1eefb	0.1103191
212	0x3db3ee45	0.08785681
213	0x3e7f357c	0.24922746
214	0x3dc36cbd	0.095422246
215	0x3c1d13bc	0.009587225
216	0x3e53f979	0.20700635
217	0xbe756182	-0.23962978
218	0x3fb24f2f	1.3930415
219	0xbca10933	-0.019657707
220	0xbff2a3b3	-1.8956207
221	0x3ee4a98a	0.44660598
222	0x3e8d6ec2	0.27623564
223	0x3e6ca314	0.23109084
224	0x3e0800c9	0.1328155
225	0x3e969481	0.29410174
226	0xbe0531a0	-0.13007212
227	0x3e819d51	0.25315335
228	0x3ea6c140	0.32569313
229	0x3fcb5731	1.5885984
230	0xbed22429	-0.41043213
231	0x3f7b85a1	0.98250777
232	0xbb2dcc3c	-0.0026519438
233	0xbe78f8f0	-0.24313712
234	0x3ed2e543	0.41190538
235	0x3e78cd7a	0.24297133
236	0xbe6b84a2	-0.22999814
237	0x3e2f884a	0.17141834
238	0x3ecb2f1c	0.3968438
239	0x3815b9b8	3.5697332e-05
240	0x3ee7b66c	0.45256364
241	0x3f02702a	0.509524
242	0x3eda12de	0.4259252
243	0xbeae0ebd	-0.3399562
244	0x3f59c6fd	0.8506926
245	0x3e0eb4c3	0.13936143
246	0xbf9b9f76	-1.2158039
247	0x3e4e4f5e	0.20147464
248	0xbedbc169	-0.42920998
249	0xbe2f6c0f	-0.17131065
250	0xbc91fc32	-0.017820451
251	0x3f1053cc	0.56377864
252	0x3e92b4dd	0.28653613
253	0x3e2869ab	0.16446559
254	0x3e122c67	0.1427475
255	0x3f404d2e	0.75117767

linear1.bias f4 [50]
0	0x3e95f856	0.29291028
1	0x3e3990c0	0.18121624
2	0xbdac655a	-0.08417769
3	0xbd690601	-0.05689049
4	0xbdd42714	-0.10359016
5	0xbc76091a	-0.015016818
6	0xbed05525	-0.4068996
7	0xbe962bd0	-0.293303
8	0x3d4bf351	0.04979259
9	0x3e23893c	0.1597032
10	0x3e04d158	0.12970483
11	0x3df1533b	0.11783453
12	0x3e35c76d	0.17751856
13	0xbd8b51ac	-0.06802687
14	0xbe4d9655	-0.20076878
15	0xbf06a045	-0.525883
16	0xbc89f734	-0.016841508
17	0xbdecd69c	-0.11564371
18	0x3e4683ac	0.19386166
19	0xbd28fa38	-0.041254252
20	0xbef8463a	-0.4849108
21	0xbd85cb70	-0.06532943
22	0xbd33bd9b	-0.043881994
23	0xbe8a4fb2	-0.27013928
24	0xbe43e82f	-0.1913154
25	0xbcbf607d	-0.023361439
26	0xbde64dfe	-0.112453446
27	0xbe3c6951	-0.1839955
28	0x3e899f54	0.2687937
29	0xba8cbb37	-0.0010736947
30	0x3e8f130f	0.27944228
31	0xbcad4551	-0.021151217
32	0x3e820db7	0.2540109
33	0x3eacc784	0.33745968
34	0xbe50cd8b	-0.20390908
35	0xbe80fff7	-0.25195286
36	0xbe48d78f	-0.19613479
37	0xbed86ac0	-0.42268944
38	0xbd880f39	-0.066435285
39	0xbec98cf9	-0.39365366
40	0x3d8c34d2	0.06846012
41	0x3df1c4bd	0.11805103
42	0xbd1e6873	-0.03867383
43	0xbed2f2f4	-0.41200984
44	0xbcdde80c	-0.027088188
45	0xbe16585f	-0.14682148
46	0xbe911524	-0.28336442
47	0xbe93c9ed	-0.28864995
48	0xbebe3889	-0.37152508
49	0xbe17334f	-0.14765666

linear2.weight f4 [250, 50]
0	0xbe57f57e	-0.21089742
1	0xbde5a34f	-0.11212789
2	0xbd3a67f7	-0.045509305
3	0xbdc0ab5f	-0.094076864
4	0xbe56e465	-0.20985563
5	0x3e1ee892	0.15518406
6	0x3c66f74a	0.014097044
7	0x3df56d91	0.11983789
8	0xbe1dcd85	-0.1541043
9	0xbe22355a	-0.15840665
10	0xbe93f9ec	-0.28901613
11	0xbe0f53be	-0.13996789
12	0x3da8d298	0.082432926
13	0xbdbe3eb4	-0.092893034
14	0x3d1e2105	0.03860571
15	0xbdbc6e50	-0.09200728
16	0x3e96de6c	0.2946657
17	0xbdb8440e	-0.089973554
18	0xbe2092de	-0.15681025
19	0x3ea732a9	0.32655838
20	0x3d6bb0b3	0.05754156
21	0xbd7cda4f	-0.061731633
22	0xbe87a2f0	-0.264915
23	0xbd99e6ea	-0.075147465
24	0x3d616849	0.055031095
25	0xbd7c6f8d	-0.06162982
26	0x3c95cf9a	0.018287469
27	0x3dc06873	0.09394922
28	0x3cf626f9	0.03004788
29	0xbe8ea60e	-0.27861065
30	0xbe9cc1e3	-0.30616674
31	0x3eaa82d2	0.33302933
32	0x3eb1b003	0.347046
33	0xbe5d105f	-0.21588276
34	0x3dba5a51	0.09099258
35	0xbe62f095	-0.22162087
36	0xbf21c6b1	-0.63193804
37	0xbe70193b	-0.23447125
38	0xbd7f1920	-0.06227982
39	0x3ee292c0	0.44252586
40	0xbe4dbc2f	-0.20091318
41	0xbdbcff4a	-0.0922838
42	0xbd97b012	-0.074066296
43	0xbdd2803f	-0.10278367
44	0xbdd983bb	-0.10620829
45	0x3aaf5b1a	0.0013378591
46	0x3e03e634	0.12880784
47	0x3c5e0c8a	0.013552794
48	0x3e923709	0.28557613
49	0xbece6df5	-0.40318266
50	0xbdf0b68a	-0.117535666
51	0xbe514dde	-0.2043986
52	0xbdcdc727	-0.10047751
53	0x3e0584df	0.13038968
54	0xbdb2929e	-0.08719371
55	0x3ff66833	1.9250549
56	0x3e765d67	0.24059068
57	0xbe4cc5d1	-0.19997336
58	0x3e4f9c89	0.20274557
59	0xbca1b872	-0.01974127
60	0xbdaee125	-0.08539037
61	0x3bc414ed	0.00598394
62	0x3d3ffb67	0.046870615
63	0x3e9a1dfc	0.30101
64	0x3e8b1fdb	0.2717274
65	0x3e125eaa	0.14293924
66	0x3ed75cf3	0.42063102
67	0x4014f38e	2.3273654
68	0x3de67371	0.112524875
69	0x3c784090	0.015152112
70	0xbdf408fd	-0.11915777
71	0x3e641661	0.22274162
72	0xbe2591f3	-0.16168956
73	0x40070ce8	2.1101627
74	0x3c38e3d5	0.011284788
75	0x3efee16a	0.49781352
76	0xbd5d84c4	-0.054081693
77	0x3cb58543	0.02215827
78	0xbef921ca	-0.48658592
79	0x3e2d29fa	0.16910544
80	0xbd87e922	-0.066362634
81	0xbe861a73	-0.26192054
82	0x3f107781	0.5643235
83	0xbd248b63	-0.040171992
84	0x3df951ba	0.12173791
85	0x3f083105	0.531998
86	0xbf4655bd	-0.77474576
87	0x3dffd278	0.124913156
88	0x3eba59b6	0.3639657
89	0xbde6ccca	-0.11269529
90	0x3e8290dd	0.25501147
91	0x3f9adc7a	1.2098534
92	0x3ea9e568	0.33182836
93	0xbe2953a6	-0.16535816
94	0x3eccf374	0.4002949
95	0x3ee06062	0.43823534
96	0xbddfaf40	-0.10922098
97	0xbd81da88	-0.0634051
98	0xbda37583	-0.07981398
99	0xbe48e0e8	-0.19617045
100	0x3d5d7ea8	0.054075867
101	0x3e008301	0.12549974
102	0x3f28cf2b	0.65941113
103	0x3d79b607	0.06096461
104	0xbf0a36aa	-0.5398966
105	0x3ed59542	0.41715437
106	0x3de5b5e5	0.11216334
107	0xbf30d612	-0.69076645
108	0x3f3d952c	0.74055743
109	0x3dc1767f	0.094464295
110	0xbe85d1d5	-0.26136652
111	0xbce4baa8	-0.027921036
112	0xbd890534	-0.066904455
113	0x3e86fdbb	0.26365456
114	0x3e0d41d3	0.13794641
115	0xbda1cb57	-0.07900112
116	0xbea7c6cc	-0.32768857
117	0x3e4a9f57	0.19787346
118	0xbe0ac468	-0.13551486
119	0xbe19840f	-0.14991783
120	0xbebcfd94	-0.36912215
121	0xbf00afa1	-0.5026799
122	0x3ee069f4	0.43830836
123	0x3f827a14	1.0193505
124	0xbd9ee280	-0.07758045
125	0xbd98263c	-0.07429168
126	0xbd742902	-0.05960942
127	0xbe9c9037	-0.30578777
128	0xbebde74f	-0.37090537
129	0xbde04c4c	-0.109520525
130	0xbeba7810	-0.36419725
131	0x3f5b3f34	0.85643315
132	0x3e01638b	0.12635629
133	0x3ea21288	0.31654763
134	0xbc30e416	-0.010796567
135	0x3e9bfc10	0.30465746
136	0x3edfec67	0.43735048
137	0x3d77d006	0.06050112
138	0x3d805275	0.062657274
139	0xbda93fab	-0.08264097
140	0x3ccf4ce0	0.025305212
141	0x3f0ded82	0.55440533
142	0xbdec420a	-0.115360335
143	0xbd12219d	-0.035676587
144	0xbef2833c	-0.4736575
145	0xbdad37df	-0.08457922
146	0xbd740736	-0.05957719
147	0xbe9cacde	-0.30600637
148	0xbeb56bc3	-0.35433778
149	0xbe2ed2b6	-0.17072567
150	0xbf509326	-0.8147453
151	0xbe13488e	-0.14383146
152	0x3e4d9977	0.20078073
153	0x3e06b8bf	0.13156413
154	0xbd25dcaa	-0.040493645
155	0x3e96110c	0.2930988
156	0x3ea45424	0.32095444
157	0x3e77dd59	0.24205531
158	0x3fad7b51	1.3553258
159	0xbe4c0b38	-0.19926155
160	0x3e070427	0.13185178
161	0x3d8be084	0.06829932
162	0x3aee249b	0.0018168868
163	0xbe4252f5	-0.18976958
164	0xbe9a7355	-0.30166116
165	0xbd2e66ca	-0.042578496
166	0x3e32d0a6	0.17462406
167	0xbe9a8662	-0.3018065
168	0xbe535c21	-0.20640613
169	0x3f2ce6b4	0.67539525
170	0x3e029b4b	0.12754552
171	0xbb47b510	-0.0030472912
172	0x3e418bce	0.18900988
173	0x4019cbf1	2.4030726
174	0xbdac0edc	-0.08401272
175	0x3f117984	0.56826043
176	0xbd7d9646	-0.06191089
177	0x3e5cb20d	0.21552296
178	0x3df31b91	0.11870492
179	0xbec41a7c	-0.38301456
180	0x3cb51e7d	0.022109265
181	0xbe6e4272	-0.23267534
182	0xbe02df7e	-0.12780568
183	0x3f0f901f	0.56079286
184	0x3e1b5101	0.1516762
185	0x3e960d79	0.29307154
186	0xbeec47ef	-0.4614863
187	0xbe8de180	-0.27711105
188	0x3f809693	1.0045952
189	0x3e7f92e2	0.24958375
190	0xbe71dc9a	-0.23619309
191	0x3e13bf4f	0.14428447
192	0xbee7b2a6	-0.45253485
193	0xbd567a3a	-0.052362658
194	0x3e9c4df2	0.30528218
195	0x3e2c08cb	0.16800229
196	0x3e991ca6	0.2990467
197	0x3d597185	0.053086776
198	0x3e8dc3ec	0.2768854
199	0x3dc6108d	0.096711256
200	0xbc168479	-0.009186857
201	0xbe2f4787	-0.1711713
202	0xbfb899dc	-1.4421954
203	0x3aeaef1f	0.0017924047
204	0x3d8a5cf2	0.06756009
205	0xbee29981	-0.4425774
206	0xbdec1664	-0.11527708
207	0xbea72c0b	-0.3265079
208	0xbfd892fb	-1.6919855
209	0xbde969fa	-0.113971666
210	0x3eb42eae	0.35191864
211	0x3e1a8b4b	0.15092199
212	0x3e8454f0	0.25846052
213	0x3e4d1f75	0.20031531
214	0xbd28b3b1	-0.041186992
215	0xbd581e4d	-0.052763272
216	0x3e886064	0.2663604
217	0x3ce44d14	0.027868785
218	0x3e116ddb	0.14202063
219	0x3f05d421	0.5227681
220	0x3d36dfa7	0.044646885
221	0xbe537389	-0.20649542
222	0x3e537b26	0.20652446
223	0xbf453999	-0.7704101
224	0xbe00cdb3	-0.12578468
225	0xbe5976db	-0.21236746
226	0x3e064441	0.13111974
227	0xbe0f00ff	-0.13965224
228	0xbbf677cc	-0.007521605
229	0x3e7ed8db	0.24887411
230	0xbdfad818	-0.12248248
231	0xbd34ea8c	-0.044168994
232	0xbd2fe39b	-0.04294167
233	0xbea3b59f	-0.31974503
234	0xbdde9eeb	-0.10870155
235	0x3e0438bc	0.12912267
236	0xbf000510	-0.50007725
237	0xbcdb0956	-0.02673785
238	0xbd92f766	-0.07176094
239	0x3e779803	0.24179082
240	0x3f10ab6a	0.5651156
241	0xbf077f4c	-0.52928615
242	0xbe7d50f0	-0.24737906
243	0xbe87400b	-0.26416048
244	0x3b24da32	0.0025154469
245	0x3e5005c5	0.20314701
246	0xbdd828ee	-0.10554682
247	0xbeb278a8	-0.34857678
248	0xbe47e68c	-0.1952154
249	0xbf046dec	-0.5173023
250	0x3e68c97f	0.22733115
251	0x3ccb2aab	0.02480062
252	0xbf152de0	-0.58273125
253	0x3dd741af	0.10510575
254	0xbf650371	-0.89458376
255	0xbf0724a3	-0.5279028

linear2.bias f4 [250]
0	0xbd6c03b1	-0.057620708
1	0x3e5f346a	0.21797338
2	0xbda1ea52	-0.07906021
3	0x3d583ac1	0.052790407
4	0x3eebbe50	0.46043634
5	0x3e865667	0.26237795
6	0x3e31def6	0.17370209
7	0xbee93ae8	-0.45552754
8	0xbe8567e0	-0.26055813
9	0xbe7e7b99	-0.24851836
10	0xbe03d2df	-0.1287341
11	0x3c44bfc4	0.012008611
12	0x3d5381aa	0.05163733
13	0x3e52888b	0.205599
14	0x3dbaf8ef	0.091295116
15	0xbe226084	-0.1585713
16	0xbddc8598	-0.107676685
17	0xbda7bac4	-0.081899196
18	0x3e38c1ed	0.18042727
19	0x3d3e2005	0.046417255
20	0xbee4a112	-0.44654137
21	0x3c931410	0.017953902
22	0x3e046bf8	0.12931812
23	0xbdf300b6	-0.1186537
24	0xbd5a6ead	-0.053328205
25	0xbcf6c47f	-0.030122994
26	0xbef14e77	-0.47130176
27	0xbeb07ca4	-0.34470093
28	0xbe0a91f5	-0.1353224
29	0xbe8e0202	-0.27735907
30	0xbef8cd6b	-0.4859422
31	0x3e16f1d4	0.14740688
32	0xbe20027b	-0.15625946
33	0x3e805f8c	0.25072896
34	0xbc3ae987	-0.011408216
35	0xbe07f8c7	-0.13278495
36	0xbdc573f5	-0.09641258
37	0x3e55c3b6	0.20875439
38	0x3e6f7949	0.2338611
39	0x3e531a3e	0.2061548
40	0xbe1b7c3b	-0.15184109
41	0xbd8b8806	-0.06813054
42	0x3f0fed41	0.56221396
43	0xbda0746a	-0.07834704
44	0x3eb39633	0.3507553
45	0x3e213e9f	0.15746544
46	0xbe847fef	-0.25878856
47	0x3ea8e1b0	0.32984686
48	0x3ca6d23e	0.020363923
49	0x3dd60e63	0.10451963
50	0x3ca841ad	0.02053913
51	0x3c63efa7	0.013912118
52	0x3dc7a00a	0.09747322
53	0x3cca9c5f	0.024732767
54	0x3df8e848	0.12153679
55	0x3e52d76f	0.20589994
56	0xbdfecca5	-0.124413766
57	0x3db63711	0.08897222
58	0x3d5b09b1	0.05347604
59	0x3db3d32e	0.08780514
60	0xbdfb53cc	-0.12271842
61	0x3bc09bf6	0.005877967
62	0x3e695f9c	0.22790378
63	0x3d259445	0.040424604
64	0x3ec5ad00	0.3860855
65	0x3b94d02c	0.0045414176
66	0x3e8cfbfd	0.27536002
67	0x3eb65053	0.35608158
68	0x3df8803f	0.12133836
69	0x3d8df435	0.069313444
70	0x3eeb4a65	0.45955196
71	0xbe5fae72	-0.2184389
72	0x3e9168fa	0.28400403
73	0xbe37c369	-0.17945637
74	0xbe26a5bf	-0.16274165
75	0xbdce5d17	-0.10076349
76	0x3dec64c6	0.115426585
77	0x3e890eb3	0.26769027
78	0xbd848760	-0.06471133
79	0xbd239f15	-0.039946634
80	0xbe54c4dd	-0.20778222
81	0x3d97404d	0.07385311
82	0x3e1f1f65	0.1553932
83	0xbda2659c	-0.07929537
84	0x3bd9e882	0.0066500315
85	0x3d0495eb	0.032369535
86	0xbd80042a	-0.06250794
87	0x3e65c685	0.2243901
88	0x3e73d5f2	0.23812082
89	0xbd127f5a	-0.035765983
90	0xbea4d7e7	-0.3219597
91	0x3e8e708e	0.27820247
92	0x3dbafba2	0.091300264
93	0xbec70c0c	-0.3887638
94	0xbe88c509	-0.26712826
95	0xbd930762	-0.071791425
96	0x3e4295f8	0.19002521
97	0x3d073f63	0.033019435
98	0x3cc2d721	0.023784222
99	0xbe8d6ad8	-0.27620578
100	0x3e313402	0.17304996
101	0xbeb5c02e	-0.35498184
102	0xbcce5199	-0.025185393
103	0xbd821458	-0.063515365
104	0x3e281046	0.16412458
105	0xbd8a834d	-0.06763325
106	0x3d6d2c99	0.05790386
107	0xbe7886d9	-0.2427019
108	0xbdfd17b3	-0.12358036
109	0xbe3f117c	-0.18659014
110	0xbe2ce8f7	-0.16885744
111	0xbe4b8605	-0.19875343
112	0xbecc8b8d	-0.3995022
113	0xbd9f0b59	-0.07765836
114	0xbeb3bd6d	-0.35105458
115	0x3e85270a	0.26006347
116	0x3e1110e6	0.14166602
117	0x3caf62ee	0.021409478
118	0xbbb0c0a4	-0.0053940583
119	0xbdb2d3cd	-0.08731804
120	0x3cbf9a54	0.02338902
121	0xbe0a50eb	-0.1350743
122	0x3e63e47b	0.22255127
123	0xbe1b761f	-0.15181778
124	0xbc7acfce	-0.015308334
125	0x3e28057a	0.16408339
126	0xbcdda864	-0.027057834
127	0xbe2e1409	-0.1699983
128	0x3dfabae5	0.122426786
129	0xbe4b892f	-0.1987655
130	0xbeed392b	-0.46332678
131	0x3db4ade3	0.08822229
132	0xbe355d7d	-0.17711444
133	0x3ed4e76a	0.41582805
134	0xbe91d622	-0.28483683
135	0x3ebe9558	0.37223315
136	0x3d94289f	0.0723431
137	0xbe1192f6	-0.14216217
138	0x3d3907a7	0.045173313
139	0xbcd9c233	-0.02658186
140	0xbece38ad	-0.40277615
141	0x3c5ec5f7	0.013597003
142	0xbd93d14d	-0.07217655
143	0xbe5660ea	-0.20935407
144	0x3ec771ee	0.3895411
145	0x3cece336	0.028916936
146	0x3d6382a1	0.0555445
147	0x3e03393a	0.12814799
148	0xbd026812	-0.03183753
149	0x3da3c9ac	0.0799745
150	0x3def6520	0.1168921
151	0xbe6fa6fa	-0.2340354
152	0xbdd12343	-0.10211804
153	0x3c2d1073	0.010563004
154	0xbdbeeecb	-0.0932289
155	0xbde48649	-0.11158425
156	0x3e15456e	0.14577267
157	0xbd5c1989	-0.05373529
158	0xbe82330f	-0.2542958
159	0x3dbae893	0.09126391
160	0x3d13a7db	0.03604875
161	0xbd5b06c2	-0.05347324
162	0xbddc0a95	-0.10744206
163	0x3ec9d3f6	0.39419526
164	0x3c0f102b	0.008731882
165	0x3e76803e	0.24072358
166	0x3ec8b773	0.3920246
167	0x3dede2bf	0.11615514
168	0xbee517cb	-0.44744715
169	0xbc117a69	-0.0088792825
170	0xbdd121cc	-0.10211524
171	0x3c7ce58d	0.015435589
172	0x3e96c4f4	0.29447138
173	0xbd19166c	-0.0373749
174	0xbd8e6b13	-0.069540165
175	0x3d8e3f09	0.06945617
176	0x3cbbfe7a	0.022948492
177	0xbd3dfbcb	-0.046382707
178	0xbdf8a2d7	-0.12140434
179	0x3d0f209d	0.03494321
180	0x3dc1fc5b	0.09471961
181	0xbe8499a5	-0.2589847
182	0xb9b8c206	-0.00035239774
183	0x3d93971d	0.07206557
184	0x3d004851	0.031318966
185	0x3c8bc8ac	0.017063461
186	0xbdf76591	-0.12079919
187	0xbdc26866	-0.09492569
188	0xbdd6846a	-0.10474475
189	0xbecd3a6a	-0.4008363
190	0x3d9a70eb	0.07541069
191	0x3d448333	0.047976684
192	0xbeacb979	-0.33735254
193	0xbd25f42a	-0.040516056
194	0xbd819360	-0.06326938
195	0xbec588d3	-0.3858095
196	0xbdb8f844	-0.09031728
197	0xbd995d40	-0.07488489
198	0x3d0bb5d4	0.03410895
199	0xbe0173c0	-0.12641811
200	0xbda6efea	-0.08151229
201	0x3ea8af63	0.3294631
202	0x3eab1d95	0.33421007
203	0x3e686cab	0.22697704
204	0xbe3405f3	-0.17580394
205	0xbe3dcec4	-0.18535906
206	0xbcd5d821	-0.026104035
207	0x3d651dfb	0.055936795
208	0x3ee0473f	0.43804356
209	0xbc941545	-0.018076548
210	0x3b61b9b3	0.003444296
211	0x3d4a3633	0.049368095
212	0x3efdc574	0.49564707
213	0xbe5a5cfe	-0.21324536
214	0xbdbc7210	-0.09201443
215	0x3ddb341c	0.107032984
216	0xbeb2a8c5	-0.34894386
217	0x3e7e025d	0.24805589
218	0x3e09e395	0.13465722
219	0xbe40d102	-0.1882973
220	0x3dd1c340	0.10242319
221	0xbcc63f0d	-0.024199987
222	0xbdb5a1be	-0.088687405
223	0xbe265ffa	-0.1624755
224	0xbe216051	-0.15759398
225	0x3e52aafc	0.20573038
226	0xbe21c83e	-0.15799043
227	0xbe845d99	-0.2585266
228	0xbc5570e5	-0.013027404
229	0x3e72bb30	0.23704219
230	0xbd34ba92	-0.04412324
231	0xbc3294da	-0.010899747
232	0x3e4c28a8	0.19937384
233	0x3e0da467	0.13832246
234	0xbe5fff13	-0.21874647
235	0xbe147b51	-0.14500166
236	0xbe8a7be8	-0.27047658
237	0x3d3b9353	0.045794796
238	0xbedb6204	-0.42848217
239	0x3c1bd4a5	0.009511148
240	0x3d7c05e5	0.06152906
241	0xbeaf457f	-0.3423271
242	0x3c3839ea	0.011244277
243	0xbdf06c0a	-0.11739357
244	0xbe20d0d7	-0.15704666
245	0x3d1753f0	0.036945283
246	0x3e6c5168	0.23077929
247	0xbdb64bc2	-0.089011684
248	0xbdf323b6	-0.11872046
249	0x3cf317b6	0.029674392

output.weight f4 [4, 250]
0	0x3d1fc72e	0.039008312
1	0xbd7725d9	-0.06033883
2	0xbe81ca4b	-0.2534965
3	0xbe7eb2ff	-0.24872969
4	0xba39cf1e	-0.0007088053
5	0xbeecec95	-0.46274248
6	0xbe207541	-0.15669729
7	0x3f1ce6b2	0.61289513
8	0x3db2e877	0.087357454
9	0xbe1e3b76	-0.1545237
10	0x3d8d76db	0.069074355
11	0x3b9e6fa9	0.0048350883
12	0x3d94b1e8	0.072604954
13	0xbcb7504c	-0.022377156
14	0x3d343b19	0.044001672
15	0x3e0ebae8	0.13938487
16	0xbd849ecd	-0.06475601
17	0xbcdbfd08	-0.026854053
18	0xbd950ca1	-0.072777994
19	0xbec0eed0	-0.376822
20	0x3d76a65b	0.060217243
21	0x3f83f4af	1.0309047
22	0xbe023312	-0.12714794
23	0xbd9d8df8	-0.07693094
24	0xbe82ecca	-0.2557128
25	0x3e02dd70	0.12779784
26	0xbe20c274	-0.15699178
27	0xbe98c706	-0.29839343
28	0x3cb51263	0.022103494
29	0xbe6052b2	-0.21906546
30	0xbd6fa7b2	-0.058509536
31	0x3e43c092	0.19116428
32	0x3cc6faee	0.024289574
33	0xbef5d62f	-0.48014972
34	0xbe7bb401	-0.24580385
35	0xbf156e3e	-0.5837134
36	0xbe938138	-0.28809524
37	0xbeb4ae74	-0.35289347
38	0x3da3a7b1	0.07990969
39	0xbd7f14fd	-0.062275875
40	0x3da7261b	0.08161565
41	0xbe902914	-0.2815634
42	0xbd198e8c	-0.03748946
43	0x3bf4f3fc	0.0074753743
44	0x3c733e08	0.014846332
45	0xbdf92b03	-0.12166407
46	0x3e08ec18	0.13371313
47	0x3cc03ac1	0.023465516
48	0x3eda3574	0.42618906
49	0xbe0ea860	-0.13931417
50	0xbf3b0226	-0.73050153
51	0x3d921044	0.07132009
52	0xbdb34767	-0.08753853
53	0x3f07ca7b	0.53043336
54	0xbdf2aecb	-0.11849745
55	0x3c51a8ea	0.01279662
56	0xbda99212	-0.08279814
57	0xbdf2234d	-0.11823139
58	0xbc047cce	-0.008086396
59	0x3f04f8af	0.5194196
60	0x3d9d531a	0.07681866
61	0xbeaca483	-0.33719262
62	0x3d262810	0.04056555
63	0xbd06fb26	-0.032954358
64	0xbd11e6cf	-0.035620507
65	0xbc3b04d4	-0.011414725
66	0xbe023673	-0.12716083
67	0xbe3e8a06	-0.1860734
68	0x3ddeb593	0.10874476
69	0xbe20d5ff	-0.15706633
70	0xbaab5a9a	-0.0013073266
71	0x3c9b6416	0.018968623
72	0x3d26ad92	0.040692873
73	0x3d1d75d8	0.038442463
74	0xbd5f6989	-0.054544006
75	0x3eb31ef2	0.34984547
76	0x3d5429c3	0.05179764
77	0xb8ee3762	-0.0001135904
78	0xbdd70c75	-0.10500423
79	0xbe13dfe4	-0.14440876
80	0x3e957239	0.29188707
81	0x3d0879cd	0.033319283
82	0xbc563186	-0.013073331
83	0xbe43e94e	-0.19131967
84	0x3c8575bf	0.016291497
85	0xbeed0f9e	-0.46300977
86	0xbd95f387	-0.0732184
87	0x3965a548	0.00021900714
88	0x3dc5c144	0.09656003
89	0xbd76058e	-0.06006389
90	0x3d41caa0	0.04731238
91	0x3dd1ed1b	0.102503024
92	0x3d46d252	0.04854042
93	0x3c031b5e	0.00800213
94	0x3df2dcd3	0.11858525
95	0xbd959cbe	-0.07305287
96	0xbf0b7ee5	-0.544905
97	0x3fa8dc3d	1.3192211
98	0xbc196540	-0.009362519
99	0xbe07d029	-0.13263
100	0xbdd97611	-0.106182225
101	0x3ed805c2	0.42191893
102	0xbd7ff1db	-0.06248651
103	0x3c92c928	0.017918184
104	0x3f01e6a5	0.5074256
105	0xbd979425	-0.07401303
106	0xbed589f0	-0.417068
107	0xbea4418f	-0.32081267
108	0x3f0127a9	0.5045114
109	0x3f52962f	0.8226041
110	0x3b54e666	0.003248596
111	0xbeba5fa8	-0.36401105
112	0x3d826a97	0.06367987
113	0xbc2b281c	-0.010446575
114	0xbe5d682e	-0.21621773
115	0x3d15e977	0.036599603
116	0x3d92d35f	0.07169222
117	0xbda63662	-0.081158414
118	0xbacf58eb	-0.0015819346
119	0x3e604685	0.21901901
120	0xbd9aa32f	-0.07550656
121	0xbd478e86	-0.048719905
122	0xbccdb2aa	-0.025109608
123	0xbdcbea4f	-0.099568
124	0xbd6cee95	-0.057844717
125	0xbeb319f9	-0.34980753
126	0xbe30c086	-0.17260942
127	0xbe0930aa	-0.1339747
128	0xbe0822f7	-0.13294588
129	0x3f210807	0.62902874
130	0x3dbca758	0.09211606
131	0xbd8cd8a9	-0.06877262
132	0x3dea385e	0.114365324
133	0x3daaf769	0.08347971
134	0xbd161b1e	-0.036646955
135	0xbdd67773	-0.10472002
136	0xbe3ec93b	-0.18631451
137	0xbdc4199a	-0.095751956
138	0xbe80a547	-0.25126097
139	0xbde792ec	-0.1130732
140	0xbd51f9f4	-0.051263765
141	0x3d93527f	0.07193469
142	0xbd67f9d7	-0.05663475
143	0xbe5ead05	-0.21745689
144	0x3cf68866	0.030094337
145	0x3bb5ba6d	0.0055459053
146	0xbceffaeb	-0.029294452
147	0x3f101d77	0.5629496
148	0x3f1baf8a	0.60814726
149	0xbedaca19	-0.42732313
150	0xbe206c3a	-0.15666285
151	0xbd530096	-0.05151423
152	0x3f094331	0.5361815
153	0x3ced89ed	0.028996432
154	0xbc7d0fa0	-0.01544562
155	0x3c06c503	0.008225682
156	0x3e821634	0.25407565
157	0xbe95c079	-0.29248407
158	0x3ed86e74	0.4227177
159	0xbd292158	-0.041291565
160	0x3d1c1786	0.03810837
161	0x3d935712	0.07194342
162	0xbe3e5f56	-0.18591055
163	0xbe61a4ee	-0.22035572
164	0x3e42d356	0.19025931
165	0xbf9e1144	-1.2349019
166	0x3e246475	0.16053946
167	0xbc92bbc5	-0.017911801
168	0x3e4c41fa	0.19947043
169	0xbd3efe95	-0.046629507
170	0x3c525fbc	0.012840208
171	0xbe5d06ec	-0.21584672
172	0x3a9a5ad8	0.0011776341
173	0xbef358f7	-0.47528812
174	0xbc8d9952	-0.017285023
175	0x3d1702db	0.036867958
176	0xbe76b006	-0.24090585
177	0x3ed6dbbf	0.41964528
178	0x3e294828	0.16531432
179	0xbededc73	-0.43527564
180	0xbd822366	-0.06354408
181	0xbe1ecc2a	-0.1550757
182	0xbca68b9d	-0.020330245
183	0x3bc36425	0.005962866
184	0xbe40484d	-0.1877758
185	0x3e3b2f0b	0.18279664
186	0x3d110d21	0.03541291
187	0xbe10cc32	-0.14140394
188	0x3a5bb3c1	0.00083809724
189	0x3ddcb94a	0.107775286
190	0xbe3ca810	-0.18423486
191	0xbcb29922	-0.021801535
192	0xbd976f69	-0.07394297
193	0xbbeaea46	-0.007169041
194	0xbf1ed26f	-0.62039846
195	0xbdefa6f2	-0.11701764
196	0x3d97d339	0.074133344
197	0x3e2988ac	0.16556042
198	0x3da5dc5f	0.08098673
199	0xbc7e663e	-0.015527306
200	0xbbed3b93	-0.007239768
201	0x3e19c287	0.15015613
202	0xbeacb73c	-0.33733547
203	0xbf1e00c2	-0.61719906
204	0x3ebed777	0.37273762
205	0xbdc3bab1	-0.09557093
206	0xbef38e96	-0.47569722
207	0x3e0b4409	0.13600172
208	0xbc972854	-0.018451847
209	0xbf1a32b3	-0.6023361
210	0xbc8de1ab	-0.017319521
211	0x3caacc68	0.020849422
212	0x3d848c8a	0.06472118
213	0x3c065d59	0.008200967
214	0xbef3d900	-0.47626495
215	0xbcdc7b06	-0.02691413
216	0x3d892158	0.06695813
217	0xbe6b69bd	-0.22989555
218	0xbdaa25f2	-0.08308019
219	0x3d23f4b7	0.0400283
220	0xbe758fa7	-0.2398058
221	0xbe2a35cf	-0.16622089
222	0x3f0fbc1d	0.56146413
223	0x3cf6d089	0.030128734
224	0xbed9c01d	-0.42529383
225	0xbe5d2c9a	-0.21599045
226	0x3dabe0e9	0.083925076
227	0x3de6b6a1	0.112653024
228	0x3d42137c	0.047381863
229	0xbe8b3bdd	-0.2719411
230	0xbd3e6461	-0.046482448
231	0x3dc91b54	0.098196656
232	0x3d75a406	0.059970878
233	0xbe60484d	-0.2190258
234	0xbe678120	-0.22607851
235	0xbe5c8a75	-0.21537192
236	0x3e8bde22	0.2731791
237	0xbc258ef8	-0.010104887
238	0xbef40740	-0.4766178
239	0xbd6c9413	-0.057758402
240	0xbee3b7dc	-0.4447621
241	0xbf60f818	-0.8787856
242	0xbe6607e6	-0.2246395
243	0xbd1bb5c1	-0.03801513
244	0x3dab723f	0.083714
245	0xbaae5c72	-0.0013302697
246	0x3d501e1a	0.050809957
247	0xbd911cb4	-0.07085553
248	0x3d889b4e	0.06670247
249	0xbd3ca6e2	-0.04605759
250	0x3ccbca37	0.024876697
251	0x3edbfcb2	0.4296623
252	0xbe6228cc	-0.22085875
253	0x3e3ea38c	0.18617076
254	0x3d98b650	0.07456648
255	0x3f363073	0.7116768

output.bias f4 [4]
0	0x3c297391	0.010342495
1	0x3d67eab8	0.05662033
2	0xbd28bd1b	-0.04119597
3	0xbcd85785	-0.02640892
