models/weights/model_5.pth (torch, 60011 bytes, 6 tensors)

linear1.weight f4 [50, 13]
000000 2f 84 3d be b4 39 12 bd 48 7a 3c 3c b7 b5 11 bf
       -0.18507455 -0.03569956 0.0115037635 -0.569179
000010 37 e8 0f be 81 9e 26 bf d9 f3 84 be bf a3 18 bf
       -0.14053427 -0.6508561 -0.2596729 -0.59624857
000020 48 fc 0b be a2 c7 1b bf c4 34 88 be 78 d1 4d bf
       -0.13670456 -0.6085149 -0.26602757 -0.8039775
000030 50 e1 24 bf c9 36 2a bf bc cc bf be 5a da a9 3d
       -0.644063 -0.66489846 -0.37460887 0.082936004
000040 9e 5e b5 be a0 d5 27 be 9a b0 67 3b 5c ab 17 be
       -0.3542375 -0.16390085 0.0035353065 -0.14811462
000050 c4 d6 f3 be 4b c7 06 bf 98 92 9d be a2 df c7 bc
       -0.4762479 -0.52647847 -0.30775905 -0.024398629
000060 77 47 4e be 13 7a 0d bf 48 cb bb 3c bc 8b b4 3f
       -0.20144449 -0.55264395 0.02292408 1.4105144
000070 fc e1 56 c0 b7 84 8e bf aa c6 db be f9 1d da bf
       -3.357543 -1.1134251 -0.42925006 -1.7040397
000080 c6 e4 18 be 7a 07 e6 be a7 11 60 40 27 57 86 bf
       -0.1493102 -0.4492758 3.5010774 -1.0495347
000090 11 bb 43 bf fc f5 cd 3e 9e 79 82 bf 92 6b 85 40
       -0.76457316 0.40226734 -1.0193365 4.169381
0000a0 d2 03 9e c0 73 ee 0a c0 30 40 c9 3f 0f a7 a4 3f
       -4.9379663 -2.1708038 1.5722713 1.2863482
0000b0 e5 ac df 3f 0a 59 21 3f 82 b8 c3 3f 06 2c 94 40
       1.7474638 0.6302649 1.5290682 4.630374
0000c0 5c 87 de 3e ae 0d 08 40 bc c5 50 3d 2e 79 44 41
       0.43462646 2.125835 0.050969824 12.279585
0000d0 b9 e3 ef be c2 37 41 be 21 db a6 bd 54 69 1c bf
       -0.46853426 -0.18868926 -0.08147264 -0.6109822
0000e0 43 b4 38 be 2a 6f 71 be e8 af ce be 70 1f 46 be
       -0.18037514 -0.23577562 -0.4036858 -0.1934793
0000f0 c9 c5 2d bf 3a 18 8e be 17 45 67 3e 32 0b 35 be
       -0.6787992 -0.27752858 0.2258495 -0.17680052
000100 95 5b f2 be 8b ae f0 3e f4 c5 80 be 56 97 2f c0
       -0.47335497 0.47008166 -0.25151026 -2.7436118
000110 16 18 ad 3e a7 3d 47 3f 2d 14 2d bf 5a 26 63 3f
       0.3380744 0.7782845 -0.6760891 0.88730395
000120 e7 1c f0 3e c8 3b 67 3f d4 20 36 3f ce d5 16 40
       0.4689705 0.90325594 0.7114384 2.3567996
000130 82 79 22 be 9b f8 37 bf e0 fd 40 bf 4b 3c 5f c0
       -0.15866664 -0.71863717 -0.7538738 -3.488055
000140 15 b8 86 c0 ee b4 aa be d6 e9 f9 be 2f 61 a0 bd
       -4.209971 -0.33341163 -0.48811215 -0.07831036
000150 0f 9a 3c bf 04 53 74 bd da 5b 76 bd 86 65 de bd
       -0.73672575 -0.059649482 -0.06014619 -0.10859208
000160 f0 1b c1 3f 6a 7e 6a bf dd b0 41 be 99 b6 5a bf
       1.5086651 -0.9159914 -0.18915124 -0.8543487
000170 d6 9b b7 3c ee e9 f9 bd cf c6 96 be 9a 39 18 bf
       0.022413176 -0.12202822 -0.29448554 -0.59462893
000180 4b 00 77 bf 9f 63 e5 be cf a7 3c bf e9 de 4b 3e
       -0.9648482 -0.44802567 -0.73693556 0.19909252
000190 8a 12 af be c6 2e 6b 3e 07 ad fe be 96 c7 9a bf
       -0.34193832 0.22967061 -0.49741384 -1.2092159
0001a0 2e c9 66 bf 4b fb 4d bf 5e 9d 26 bf b0 dd 2e bf
       -0.90150726 -0.8046157 -0.65083873 -0.6830702
0001b0 c4 67 2b be 88 99 f8 bf 94 cb 69 be 47 dd f3 be
       -0.16738802 -1.9421854 -0.22831565 -0.4762976
0001c0 d7 11 d6 3f 1f 99 09 bf c5 78 a1 3f 95 0c 21 bf
       1.6724194 -0.5374927 1.2614981 -0.62909824
0001d0 c0 f0 0e c0 ae 92 7c 40 5d 9d b1 40 24 98 da 3e
       -2.2334442 3.9464526 5.5504594 0.426942
0001e0 ce 2a 78 3f 18 6d c5 3e 9b 2e 17 3f e2 ec cf 3f
       0.96940315 0.38559794 0.5905549 1.6244166
0001f0 5b 63 2f 40 8e a1 89 40 ce ef ba bf 20 41 29 40
       2.7404392 4.300971 -1.4604433 2.6446
000200 a9 ed c6 3b 7c 40 6d c0 91 ce 94 be 81 d9 31 40
       0.0060708118 -3.7070608 -0.29063848 2.7789004
000210 9a f4 5c bf ca cc ab bf 46 48 2e bf 59 37 04 bf
       -0.8631073 -1.3421872 -0.6807903 -0.51646954
000220 38 ad 94 bf cd 97 7e bf 9f bf 5b 40 00 5a fc bd
       -1.1615362 -0.9945038 3.4335706 -0.12321854
000230 4d 5a bd 3f 6c 56 35 bf ee 21 3a bf 6a f5 4c bf
       1.4793183 -0.70834994 -0.7270802 -0.8006197
000240 db 93 89 bf a2 77 7c bf b3 97 54 bf a0 4a e2 be
       -1.0748247 -0.98620045 -0.83043975 -0.4419756
000250 37 0e 09 c0 95 8b 74 bf 78 a3 2b bf c2 c6 41 3f
       -2.1414926 -0.95525485 -0.6704631 0.75693905
000260 e2 2d 79 bf aa 65 93 40 a2 b6 63 bf 76 a3 09 c0
       -0.97335637 4.60616 -0.8895055 -2.1506019
000270 4c 31 56 c0 58 fc a2 3f a4 5f f3 3f bb 93 32 40
       -3.3467588 1.2733259 1.9013562 2.7902668
000280 30 e7 77 40 6f be 36 40 f1 b7 6c 40 34 dc 2c 40
       3.8734856 2.8553731 3.698727 2.7009401
000290 79 53 a7 40 ae c0 86 bf 7d 57 5c 40 bd 6d e9 bd
       5.2289395 -1.0527551 3.4428399 -0.11397884
0002a0 04 78 4c c1 a8 82 4b bf c7 6a 27 3f 3f e5 dc bf
       -12.779301 -0.7949624 0.65397304 -1.725746
0002b0 98 f9 9c bf 9e 1d 7f bf a8 c8 8a bf 04 26 99 bf
       -1.226367 -0.9965457 -1.0842485 -1.1964726
0002c0 0a fe 62 bf dd 11 6f bf 4e 39 80 bf 15 91 28 3f
       -0.8866888 -0.9338663 -1.0017488 0.6584638
0002d0 9e 71 02 bf 50 6e db 3e 92 0c 64 3f 78 9f eb 40
       -0.50954616 0.428576 0.8908168 7.3632164
0002e0 db 59 68 c0 46 3c 73 3f ae 46 e5 3f f6 3c 0a bf
       -3.6304843 0.95013845 1.7912195 -0.5399927
0002f0 23 3e 49 3f 2b 8f 5b 3f 41 8f 84 40 29 c0 d6 be
       0.7861044 0.8576533 4.142487 -0.41943482
000300 ae 20 39 3f 63 3e cf 3d 1c dd 4f bf 9f d3 c0 bf
       0.7231549 0.10119321 -0.8119676 -1.5064582
000310 63 50 8f bd c6 90 8f 3d 44 3e 7b 3e c7 97 86 3e
       -0.069977544 0.07010035 0.24535471 0.26287672
000320 e3 64 a6 3e a4 ae 55 3f 53 89 23 3f ae d1 12 c0
       0.32498845 0.83469605 0.63881415 -2.2940478
000330 2d 42 2f be 2c 85 80 3f 05 fa 13 bf 65 c3 d5 be
       -0.17115088 1.0040641 -0.57803375 -0.41750637
000340 94 46 11 3e ce 45 5f c0 8a e6 3d c0 7a 48 9c be
       0.1418708 -3.4886355 -2.967196 -0.30524045
000350 ca 0d 0d bd 9c 38 cf bf 16 ff 58 be 85 87 3b be
       -0.03443698 -1.6189151 -0.21191058 -0.18313415
000360 a1 10 64 3f 9d 27 5f 3c 07 26 00 40 91 97 62 bf
       0.89087874 0.013620284 2.002321 -0.8851252
000370 9b 6a c3 bf 6a 9a 30 bf f3 b7 63 c0 d5 a0 3b c0
       -1.5266908 -0.6898562 -3.5581024 -2.9316914
000380 62 f5 0a be 27 ec a9 3f 8b cc 04 bf 62 39 03 3f
       -0.13570169 1.3275193 -0.5187461 0.51259434
000390 c4 44 2d be fe f7 a8 40 ff 03 54 3f ec 0c 95 40
       -0.16920763 5.2802725 0.828186 4.6578274
0003a0 4f 27 46 bf e2 e2 6f 3d f1 3b 6a 3f 78 36 45 c0
       -0.7740373 0.05856598 0.91497713 -3.0814495
0003b0 77 b1 89 c0 2f 5d 4f 3f e4 bc df 3e a2 e8 b8 be
       -4.302913 0.8100156 0.436988 -0.36114985
0003c0 44 79 55 3f 91 29 51 3f 04 71 77 3f 0a 1a 71 3f
       0.8338816 0.8170405 0.96656823 0.9418036
0003d0 d8 0c 15 40 88 8c 47 3e 91 4b 68 bd fc 44 d8 be
       2.328909 0.19487202 -0.05671269 -0.4224013
0003e0 e9 62 3d c0 de da 41 c0 2b 66 01 bf 95 2e b7 3e
       -2.959162 -3.0289836 -0.5054652 0.35777727
0003f0 c0 e5 a3 bf 0c 00 a8 3d fb 09 98 be 03 6e 47 40
       -1.2804489 0.08203134 -0.29695114 3.1160896

linear1.bias f4 [50]
000000 16 48 fa be 9f 8a 17 bf 63 4e 0e bf 4d 4c 55 40
       -0.48883122 -0.59195894 -0.5558836 3.332782
000010 7a 93 0e be 52 34 d0 be 75 a6 46 bf 74 eb 6e bf
       -0.13923445 -0.40664917 -0.77597743 -0.9332802
000020 8d b7 92 bf c7 3a 5c 3f c7 fb ae bf 61 8d c4 bf
       -1.1462265 0.8602719 -1.3670586 -1.5355645
000030 8d 24 ea 3e 2d 03 56 bf e6 c1 d0 bb 4b fe ea bd
       0.4573101 -0.83598596 -0.0063707707 -0.11474284
000040 f3 53 e0 3d b4 13 3a bf 29 53 0f 3f 41 96 42 bf
       0.10953512 -0.72686315 0.5598627 -0.7601052
000050 af bf 70 3e 17 2b b0 be 8e 13 9a bf a4 25 19 be
       0.23510621 -0.34407875 -1.2037218 -0.14955765
000060 3a b4 29 be 70 d5 bb be fd b8 01 bf e5 6c 00 bf
       -0.16572657 -0.36686277 -0.50672895 -0.5016616
000070 fe 2e 1b bf f0 98 13 bf 73 d9 87 bd 2e 90 e1 be
       -0.6061858 -0.5765524 -0.06633272 -0.44055313
000080 a1 6b 9b bf 29 6c 5f bf 91 2b 2d bf 67 b7 ff be
       -1.2142221 -0.87274414 -0.676446 -0.49944612
000090 34 89 4c bd 1a e8 ca be 23 c6 18 bf a3 4b 1c 3f
       -0.049935535 -0.39630204 -0.5967733 0.6105291
0000a0 4e f2 72 bf 4b 92 9f bf 5c 7e c3 bf 96 7d 8d be
       -0.9490098 -1.246652 -1.5272937 -0.27634877
0000b0 98 ab 4d 3f 0a bf 1c bf 29 96 76 bf a5 e2 ea be
       0.80339956 -0.61229 -0.96322876 -0.4587604
0000c0 be bd 64 c0 75 df 81 3e
       -3.574081 0.25365797

linear2.weight f4 [250, 50]
000000 70 bc 2e be 3a 68 ac be 9a 55 f5 bf 84 7b 61 bd
       -0.1706407 -0.3367327 -1.9166749 -0.055049434
000010 32 b8 21 be 69 ae 42 bf 22 e4 d8 be 3d d8 7c 3d
       -0.15792921 -0.7604738 -0.42361552 0.06172966
000020 a7 1e 11 be 94 03 01 bf d3 c6 a8 bd 5b 16 8d be
       -0.14171849 -0.50396085 -0.08241048 -0.27556118
000030 5e 99 98 bf e8 25 34 be c8 61 a0 be 2c ea 78 be
       -1.1921804 -0.17592585 -0.313246 -0.2430808
000040 c0 66 bd be f3 c9 d1 be d0 6d b0 be 59 30 21 bf
       -0.36992455 -0.40974388 -0.3445878 -0.629644
000050 aa 21 e6 3d 77 87 03 be c4 17 3a bf 88 db 6b bf
       0.1123689 -0.12844644 -0.72692513 -0.92131853
000060 15 f4 12 be e9 3d 19 3d 48 68 84 bd e7 9c 21 bf
       -0.14350922 0.037412558 -0.064652026 -0.6313004
000070 4d 68 25 be da b2 9a be 08 29 68 bd 11 f3 7f be
       -0.16153069 -0.30214578 -0.056679755 -0.24995066
000080 7a c1 24 be 64 d3 da bc e4 70 bf bb 43 f0 23 be
       -0.1608943 -0.026712127 -0.005842315 -0.16009621
000090 91 75 a3 bd f9 b1 29 3d e2 4b 98 3c ae b0 61 bf
       -0.079814084 0.041429494 0.018590871 -0.88160217
0000a0 54 41 04 bf ad 6b d4 3d 91 66 25 bf b4 72 a7 bd
       -0.5166218 0.103721 -0.6460963 -0.08176175
0000b0 ea c0 32 3f 04 37 4b bf 3c 64 01 be 4b a5 4e be
       0.69825613 -0.7938082 -0.12635893 -0.20180242
0000c0 83 c7 93 bf 00 53 09 3c db 09 cf 3c 88 a9 23 be
       -1.1545261 0.008381605 0.025273254 -0.1598264
0000d0 91 8c fd 3c 36 c2 38 3d c1 40 de bd 64 ed c9 bf
       0.030950816 0.04510709 -0.108521946 -1.5775571
0000e0 ec 2e d4 bd 19 a4 b4 3e 60 91 c8 3c 63 a6 ac bf
       -0.10360512 0.35281447 0.024483383 -1.3488277
0000f0 66 96 1b c0 dd 65 a8 3d 53 79 78 bf 06 4e 1d 3e
       -2.4310546 0.08222554 -0.97060126 0.15361795
000100 dd 19 e7 bc 20 cb 9b 3e e9 2a 58 3e 6c f2 84 be
       -0.028210575 0.3042841 0.21110119 -0.25966203
000110 f1 94 b4 3e ae ec 44 c0 5c f9 57 bd 87 de da 3e
       0.35269883 -3.0769458 -0.052728042 0.427479
000120 01 ca 61 bf b3 0f d1 3d 60 f2 4a 3d 7a 82 3f 3e
       -0.8819886 0.102080725 0.049547553 0.18702117
000130 c7 1b 09 bd f1 c3 6d c0 5a ad 07 bd 13 91 5e be
       -0.033473756 -3.7150843 -0.033124305 -0.21735029
000140 68 31 9a 3e f1 fa 09 3e 05 3e 99 bf 3b ab 13 be
       0.3011582 0.13474633 -1.1972052 -0.14420788
000150 ea 07 33 3d bc 62 24 bd ec d6 15 3e c0 eb 12 bd
       0.04370872 -0.040133223 0.14632767 -0.03586936
000160 ae fc 07 3e 2a e0 91 c0 df 59 a5 bf 4a 8c 00 c0
       0.13279983 -4.558614 -1.2918051 -2.0085626
000170 d5 68 d9 be 2d cb e4 bd 99 d7 59 bf e2 3c 16 3f
       -0.42462793 -0.11171565 -0.850946 0.5868665
000180 76 0b 59 c0 cb 5f a4 bd e5 cb 0b be 98 fd a8 3c
       -3.3913245 -0.080260836 -0.13651998 0.020628735
000190 0d 33 60 3d 0f 2e 1b 3e 1d 69 52 3e f1 46 20 3f
       0.054736186 0.15154289 0.2054791 0.6260825
0001a0 67 b7 44 bd 2a bb fa 3d 7f 31 81 3e 25 86 60 bd
       -0.04802647 0.1224273 0.25233075 -0.05481543
0001b0 d7 f2 7e bc ba 0c 02 3f c2 16 09 3e a3 44 23 be
       -0.015560827 0.5080067 0.13387588 -0.15944152
0001c0 24 ec 93 3e 1e b4 0c 3c 0d 12 a6 3d 96 df 46 3f
       0.28891098 0.008587865 0.08108912 0.77684915
0001d0 d4 a4 c9 3d 95 6e e8 bd e6 85 09 3e 48 8b 4b 3e
       0.098458916 -0.11349217 0.13429984 0.1987735
0001e0 f7 ac 6d 3d 25 5a 06 3f c6 35 79 3e f9 76 a3 bc
       0.05802628 0.524813 0.24336919 -0.019954192
0001f0 84 f1 0d 3e aa df 10 3f c8 6b 71 3c 85 ba 86 3b
       0.13861662 0.56591284 0.01473517 0.0041115903
000200 bd 85 f7 3c 01 e7 10 3e ac b3 cd 3d 66 ef b4 3d
       0.030215139 0.14150621 0.10044035 0.08834724
000210 75 fe de 3c 54 1b dc 3c d1 4f a1 3e 91 9e eb 3d
       0.027220944 0.0268685 0.31506208 0.115048535
000220 d9 b1 f4 3c c4 f7 ed 3d 65 a7 42 3d 88 0a 1b 3e
       0.02986996 0.11619523 0.04752292 0.15140736
000230 be af a2 bd d5 f6 ba be f6 6e dc 3e 2b 77 57 be
       -0.079436764 -0.36516443 0.43053406 -0.21041553
000240 82 0c 1b 3e 5b 1d 10 40 a6 d9 c5 3d 85 00 d9 3d
       0.1514149 2.2517917 0.09660654 0.10595802
000250 4c c4 4e 3f d8 03 71 bd eb 8b 9f be 42 50 86 bd
       0.80768275 -0.058841556 -0.31161436 -0.06558277
000260 05 97 96 3d 13 f1 21 bf 9b 71 13 bc ab fc ec 3d
       0.073530234 -0.63258475 -0.008999254 0.1157163
000270 9b 8a f1 bd 5b d4 5c 3e f1 36 74 bf fc bc 26 be
       -0.11794015 0.21565382 -0.95396334 -0.1628303
000280 34 ef 67 3b 9d 57 ae be 51 42 1f bd bc c8 ec 3e
       0.003539038 -0.3405122 -0.038881604 0.46246898
000290 d0 4f 5c bf 91 0e ff bd 8d bb 0a 3e 9b a8 f9 3c
       -0.86059284 -0.1245395 0.13548107 0.030475905
0002a0 04 5b aa be 19 c3 54 3e 5a 99 0f be 1b f4 b8 3e
       -0.33272564 0.20777549 -0.14023343 0.36123738
0002b0 5b 9d 43 bf 56 1d cd be 3d b7 f0 3d a8 c3 86 3e
       -0.7641198 -0.40061444 0.117537 0.2632115
0002c0 bc 6c c3 bc 35 a6 b4 3d 05 96 21 3e 9d 69 1a 3e
       -0.02385556 0.08820764 0.15779884 0.15079351
0002d0 e7 98 37 3e f5 d7 ae 3d a8 82 c6 be 87 c9 2d be
       0.17929421 0.08537284 -0.38771558 -0.16971408
0002e0 70 62 1f be bf 66 2d be 42 fa 2a be b6 57 b9 3d
       -0.15564895 -0.16933726 -0.16697028 0.09049933
0002f0 b5 6b 77 3e 23 e2 a7 be 0e 0c f5 be 16 8a f7 be
       0.2416218 -0.32789716 -0.4786076 -0.4834754
000300 1b 0b 31 be 67 91 3d 3d f4 fc 46 bf 12 d4 ec 3d
       -0.17289393 0.046281245 -0.77729726 0.11563887
000310 d7 1f 2a 3e 20 1f 89 3d 3e 87 5e bf a0 e1 2a 3d
       0.16613708 0.0669539 -0.86925113 0.04171908
000320 53 40 21 3d 80 f1 0e be 01 3c ce bc b9 67 f1 be
       0.039367985 -0.13959312 -0.025175096 -0.47149447
000330 a7 05 b8 3d b5 02 5b 3d d8 d1 6b 3c df 89 2e 3e
       0.08985453 0.05346938 0.014393292 0.17044781
000340 81 7b 38 bc a2 c4 68 bf 3f 8c d2 be 7d 76 60 3e
       -0.011259914 -0.9092504 -0.41122624 0.219202
000350 60 ba 01 be 10 2f ce be 5d d7 dd bd f0 82 8c bd
       -0.12668753 -0.4027028 -0.10832093 -0.06860912
000360 34 b0 9a bc ba 2d d8 bd 30 c3 9d bd a0 e1 09 3e
       -0.018882848 -0.10555597 -0.07703245 0.13464975
000370 38 00 fc 3c 70 40 a8 be 0b bc b5 be 4e 80 74 be
       0.030761823 -0.32861662 -0.35495028 -0.2387707
000380 e8 d9 fc bd 97 56 c7 3e 39 8b ac 3d 65 88 19 3e
       -0.1234625 0.3893325 0.08424992 0.14993437
000390 60 1c 16 3e cd 44 34 be 3a 20 bc bd 44 52 bd bd
       0.14659262 -0.1760437 -0.09185834 -0.092442065
0003a0 80 f2 4f bd c7 cf b8 3d 53 f2 30 bf ea d4 86 be
       -0.050768375 0.090240054 -0.6911976 -0.26334316
0003b0 12 34 43 3e cc 88 ae bd 9c b9 e0 3d 5f 45 69 be
       0.19062832 -0.08522186 0.10972902 -0.22780369
0003c0 57 74 7b bd 0d bb 7d be 88 6c b3 bd f1 cd 16 be
       -0.061390247 -0.24778385 -0.08760935 -0.14726998
0003d0 04 cf 38 3d 92 47 0e bf 1a 96 8a bd 76 08 2d 3e
       0.0451193 -0.5557796 -0.06766911 0.16897759
0003e0 35 73 e3 be 10 70 87 bd 4a 99 64 bc a4 de e1 bd
       -0.44423833 -0.06613171 -0.013952563 -0.110287935
0003f0 46 cf c0 3e 89 e2 63 3f 7a 7e c5 bc 3b a7 1e bd
       0.37658137 0.8901754 -0.02410816 -0.038733702

linear2.bias f4 [250]
000000 a9 57 ff be de 61 9f be 91 29 11 3f 21 f0 1e bf
       -0.49871567 -0.31129354 0.5670405 -0.6208516
000010 9c f4 86 be a3 fb d2 3e fc 45 3d bf b3 bf d9 bf
       -0.26358497 0.4120761 -0.7393491 -1.7011627
000020 5e c1 dc bf ec fe 95 3f 66 14 05 bf be 13 a6 bf
       -1.7246511 1.1718421 -0.5198425 -1.2974775
000030 93 f7 14 bf 02 b4 0c bf e9 38 6e 3f 6b c2 82 bf
       -0.5819027 -0.5496217 0.9305559 -1.0215582
000040 b4 c5 cc be 82 fe 55 3e 3c ca 5f bf ba 38 9b 3f
       -0.39994586 0.20897868 -0.8741796 1.2126687
000050 32 32 34 bf b5 4e 1c 3f 66 cf ff bf bf 05 c2 3e
       -0.7038909 0.610576 -1.9985168 0.3789501
000060 20 0d 3c bf 32 43 2c c0 24 93 54 3f 69 f2 de 3e
       -0.7345753 -2.6916013 0.8303702 0.4354432
000070 78 19 b9 be 61 cc 10 be 61 1c bf be e2 b0 24 bf
       -0.36152244 -0.14140464 -0.3732634 -0.643324
000080 1f f5 4f bf 18 5f 9b bf c0 6a c5 3e d9 c5 07 c0
       -0.812334 -1.2138395 0.38558006 -2.1214507
000090 6d e2 61 bf f7 f8 89 3e 3a 99 9f bf 75 66 ed bc
       -0.88236123 0.26947758 -1.2468636 -0.02897952
0000a0 77 c6 86 c0 fe 44 2c c0 df e4 bf 3e ef 9e 67 bf
       -4.2117267 -2.691711 0.37479302 -0.9047689
0000b0 17 7b ba bf e5 29 b2 bf d0 dd ff 3e c6 32 1d bf
       -1.4568814 -1.3919035 0.49973917 -0.614056
0000c0 52 f9 d7 bf 36 a1 8b 3f 7f 4b 42 bf 0f 35 3a c0
       -1.6872962 1.0908573 -0.7589645 -2.9094884
0000d0 26 67 29 bf 2c 8b 81 3f 80 0d 9a bf ef e5 2f be
       -0.6617302 1.0120597 -1.203537 -0.17177556
0000e0 e2 90 d6 be 09 d4 1e c0 f8 a2 95 bf 8a dc 89 bf
       -0.41907412 -2.4816916 -1.1690359 -1.0770428
0000f0 64 1a 32 c0 43 13 b5 be 55 fc 24 bd 58 38 dd 3e
       -2.7828608 -0.35366258 -0.040279705 0.4320705
000100 f6 90 04 bf 4d cb 41 40 fa d8 6d 3f 2a 81 9a be
       -0.5178369 3.0280335 0.92909205 -0.3017667
000110 93 34 ce bf 82 e9 07 3f 19 91 32 3e be a6 29 bf
       -1.6109794 0.5309068 0.17438163 -0.66270053
000120 ce a0 ab bd 6a d8 5f 3e 5f 1a c1 bf 50 22 c4 bf
       -0.083802804 0.21859899 -1.5086173 -1.5322971
000130 69 2f dd be fd 55 02 be 4f 30 25 3f 34 1b 87 3f
       -0.43200234 -0.12728114 0.6452684 1.0555177
000140 09 17 9a bf f3 24 08 3f 6b 14 8e be c5 fe 33 c0
       -1.203828 0.5318138 -0.27749953 -2.812425
000150 f4 ab 20 c0 49 d1 90 bf ac 23 39 bc 0f f4 d1 3e
       -2.5104952 -1.1313869 -0.011300009 0.41006514
000160 22 51 b7 c0 aa 10 ea be 87 40 20 bf af a6 0c bf
       -5.728654 -0.4571584 -0.6259846 -0.5494184
000170 25 1a f1 be 79 40 f1 be f6 90 6f bf 73 28 1b 3e
       -0.4709026 -0.471195 -0.9358057 0.15152149
000180 dc 63 11 c0 56 01 09 c0 c5 b4 b7 be d4 5a e3 bd
       -2.27172 -2.1407065 -0.35880104 -0.111013085
000190 53 7c 0b c0 d0 6b 3a bf b4 1e 53 c0 b7 64 8e bf
       -2.1794631 -0.7282076 -3.298749 -1.1124486
0001a0 69 98 bf bf ad d3 ef be 61 d9 a3 be c1 61 94 be
       -1.4968387 -0.46841183 -0.32001784 -0.2898083
0001b0 6b 37 3f be a1 d3 13 bf 44 96 2f bf 0c 5b bc bd
       -0.18673484 -0.57744795 -0.6858866 -0.09197053
0001c0 f1 c5 bd bf f9 80 c2 be b6 13 54 c0 b7 49 4f bf
       -1.4826032 -0.37989023 -3.313703 -0.80971855
0001d0 78 bb c0 bf a2 9a 2f bf 4f 68 f7 3e 85 83 85 bd
       -1.5057211 -0.68595326 0.4832177 -0.06519226
0001e0 7b 4a 13 bf cc e2 42 3e 27 5f bd be 67 a8 27 bf
       -0.57535523 0.19031829 -0.36986658 -0.65491337
0001f0 68 8c 05 bf c8 57 49 be ce 07 f5 bf 28 35 6e bf
       -0.5216737 -0.19662392 -1.9143007 -0.9304986
000200 0a 41 db 3f 9a 0e f6 3f 6e cf 50 bf bc ac 5d bf
       1.7129223 1.9223206 -0.8156651 -0.86591697
000210 8a d7 8f be 82 de 2d c0 67 a4 b7 bf 0d 3a 58 be
       -0.2809413 -2.7167058 -1.4347047 -0.21115895
000220 9d 71 99 bf 11 d4 10 3f 8d 6f 81 bc af 2b 66 bf
       -1.1987797 0.5657359 -0.015800262 -0.89910406
000230 c7 54 71 3f 96 63 00 3e 7b ac ab bf 21 99 fb be
       0.94269985 0.12537989 -1.3412012 -0.49140266
000240 ce 84 74 3c 55 6b 45 c0 8c 23 d7 be 0e d1 9a 3e
       0.014924241 -3.084676 -0.42019308 0.3023762
000250 f7 c8 2d be 0f 6e 13 c0 11 6d a3 bf de 5b dd bf
       -0.16971193 -2.3035924 -1.276766 -1.7293661
000260 3e 69 38 3e 34 98 20 bf 71 80 c6 c0 6c 78 08 3f
       0.18008897 -0.62732244 -6.203179 0.5330875
000270 56 64 11 bf 53 3c 49 c0 3f 4a 4a bf 7b 82 4e 3e
       -0.56793725 -3.144307 -0.7901954 0.20166962
000280 c6 69 05 3e f0 65 39 be 40 00 c5 be b2 f2 2d be
       0.1302863 -0.18105292 -0.38476753 -0.16987112
000290 9d c9 4b 3f c0 3e 19 3e 82 22 1d 40 49 02 48 c0
       0.7960451 0.14965343 2.4552312 -3.1251395
0002a0 a6 2d 6b 3f 4b 03 7a 3f 24 66 4e 3b d9 c2 63 bf
       0.9186653 0.97661275 0.0031493986 -0.8896919
0002b0 8b 5a 4d bf 35 8b c3 bd d8 7e 22 c0 df 1f 64 bf
       -0.8021628 -0.09548036 -2.538992 -0.8911113
0002c0 10 e9 a9 3e 05 53 4a 3f 77 86 9b 3e c9 fc e7 be
       0.33185625 0.7903293 0.30376026 -0.45310047
0002d0 4c 9c 18 c0 5a ed 4e 40 6b b6 3f 3f 31 00 cd be
       -2.3845396 3.2332368 0.7488772 -0.4003921
0002e0 0d 5c ac be 49 6d e9 bf 58 c7 d1 3f 9e 92 4b c0
       -0.3366398 -1.8236476 1.638896 -3.1808238
0002f0 88 be 85 3f 6f 0b 6d 3f 30 7a 1e bf b6 5b 1d 3e
       1.044877 0.9259557 -0.61905193 0.15367016
000300 44 1d 0f c0 65 aa 50 bd 42 6f d4 be 5d 27 17 3f
       -2.2361612 -0.05094375 -0.41491133 0.5904444
000310 ef da ba be 7f 6b b9 3e 7c 40 9d bf c4 87 1e bf
       -0.36495158 0.36214826 -1.2285304 -0.6192591
000320 e5 cf 5e bf d7 08 f8 3c b6 50 9d be e0 6a da bd
       -0.8703597 0.030277653 -0.3072564 -0.10664916
000330 9e 85 a1 40 31 51 b0 bf 88 2b a0 3d d0 82 fd be
       5.0475607 -1.3774778 0.07820803 -0.49513865
000340 2b 37 32 bf e3 42 93 bf cb e5 c0 bf b6 24 82 be
       -0.6961543 -1.1504787 -1.5070127 -0.25418633
000350 e0 97 83 bf 06 b9 2d c0 36 97 bc bf f8 0f e1 bf
       -1.0280724 -2.714418 -1.4733646 -1.7582998
000360 89 a3 fb be 3c 3c 3e be 24 42 bb bf 17 0e 3a 40
       -0.49148205 -0.18577665 -1.462956 2.90711
000370 10 20 71 3f ae 27 0c c0 ac fd e5 3e a7 37 30 3f
       0.9418955 -2.1899219 0.449201 0.6883492
000380 9b 26 c4 bf ca b5 02 c0 fe a9 e8 3f 55 03 1f bf
       -1.5324281 -2.0423455 1.8176877 -0.6211446
000390 fa f2 21 c0 c7 02 1c bf 79 34 3d bf 97 cf a8 bf
       -2.530455 -0.6094174 -0.7390819 -1.3188351
0003a0 cb 95 7b c0 62 00 f4 3e 18 ef 32 bf 28 e4 2d 3e
       -3.9310176 0.47656542 -0.6989608 0.16981566
0003b0 05 57 87 bc a0 46 91 be 83 72 99 be 6b d3 23 c0
       -0.016520986 -0.28374195 -0.29970178 -2.559779
0003c0 7c ad 13 3f 33 6c 63 3e 57 97 5c 3e 0f 6f af be
       0.5768659 0.22209243 0.21542107 -0.34264418
0003d0 71 59 d3 bf 9b fa 78 be 43 9a 32 c0 12 35 9c be
       -1.651167 -0.24314348 -2.7906654 -0.3050924
0003e0 d4 3d 6f bf 25 5f 7c be
       -0.9345372 -0.2464567

output.weight f4 [4, 250]
000000 87 e7 80 be f0 5a bb 3d d7 29 00 be db 05 17 bd
       -0.2517664 0.09148204 -0.1251596 -0.03687082
000010 b1 89 81 3d 2e aa 83 bf a5 c3 73 be 11 89 29 bf
       0.06325091 -1.028631 -0.23805101 -0.6622477
000020 2b bb c3 3e bb 1b 59 be a6 fa 28 bf 4c 61 9f 3e
       0.38228735 -0.21201985 -0.6600746 0.3112892
000030 19 12 91 bf 86 61 b8 3e c2 35 8d bd da 45 40 3e
       -1.1333648 0.36011904 -0.06895019 0.18776646
000040 91 0b a8 be c3 37 ac bd 88 3c 8b bd bf 1f 24 be
       -0.32821324 -0.08409073 -0.06798655 -0.16027735
000050 8d 50 f9 bc 2b 3b 3b be a3 37 cc be 3f 52 34 be
       -0.030433917 -0.1828429 -0.39886197 -0.176095
000060 e2 95 43 bf 13 b7 95 3e 0f 13 6c 3d b7 26 62 bd
       -0.7640058 0.29241237 0.057635363 -0.055212703
000070 2c a0 1c 3a bb 28 01 3e 75 39 33 3d 26 b3 3c bf
       0.0005974795 0.12613194 0.043755967 -0.7371086
000080 62 58 66 3e 49 77 14 be 70 78 a2 bd e3 99 b2 bf
       0.22494653 -0.14498629 -0.07933128 -1.3953212
000090 81 9f 93 be e6 95 9f bd ad 12 3e be 34 37 7d bd
       -0.2883263 -0.07792263 -0.18561812 -0.061820224
0000a0 76 26 f9 3e df 80 e8 3d 2d 51 78 be 19 66 cd bf
       0.48662156 0.11352705 -0.24249716 -1.6046783
0000b0 d8 4c fd 3d f9 47 83 3d 41 ff 17 bd ba fe b2 3e
       0.123681724 0.06410212 -0.037108663 0.34959966
0000c0 de e6 7a bd 5c 59 20 bc 97 70 68 be d4 b5 46 3f
       -0.06125533 -0.00978693 -0.226992 0.776212
0000d0 97 34 31 3f b6 7b 4b be 67 87 f5 3c f2 79 7a bd
       0.6922087 -0.1987141 0.029971791 -0.061151452
0000e0 6b 6d 4d 3d 32 43 c0 3e 27 e2 9b 3d 36 d0 15 bd
       0.050153177 0.37551266 0.076114945 -0.03657552
0000f0 c5 6c cf be 0d 29 19 bf 0a 37 00 3f 41 0c 15 3e
       -0.40512672 -0.59828264 0.5008398 0.14555456
000100 23 08 65 bc 46 43 46 bf d4 74 17 bc 6f ca 2a 3d
       -0.013978991 -0.774464 -0.009244163 0.041696962
000110 f8 f6 73 3e 41 a7 80 bd 71 a8 30 bd 3a 57 73 3c
       0.2382468 -0.06281901 -0.04312939 0.014852339
000120 5b 14 b9 3d 90 a8 69 bd ff 87 99 bf dd 09 25 3f
       0.090370856 -0.05704552 -1.1994628 0.64468175
000130 ca fc 5c bd e0 4b 1c bd ad 61 1d 3d de 50 a0 bd
       -0.053952016 -0.038158298 0.03842323 -0.07827924
000140 dd 6b 5a c0 eb 1a 51 be 96 0f 88 be f3 de b9 bf
       -3.4128335 -0.20420425 -0.2657439 -1.4521164
000150 96 59 a6 3d d6 cd 9f bf 9f dc c8 bd d3 1c c3 bd
       0.08122556 -1.2484691 -0.09807705 -0.09526982
000160 cf 78 b3 3e 97 df d4 bf 6d 95 bd bd 04 87 43 bd
       0.35053107 -1.6630734 -0.09257016 -0.047736183
000170 8c 06 05 bd 99 b8 a7 bf 7f 79 ee be 1d f7 9c bf
       -0.032476947 -1.310321 -0.4657707 -1.2262913
000180 80 12 5e be 38 b0 3a 3e 89 6b a2 be 6a 3f e0 3c
       -0.21686745 0.18231285 -0.31722668 0.027373988
000190 6b 8b de be 57 a4 b5 be 32 38 de 3e 1a a8 3d 3e
       -0.43465742 -0.35476944 0.4340225 0.18521157
0001a0 b9 8c f4 3e c0 b3 b6 c0 6a 34 85 3d a1 22 d7 bd
       0.47763613 -5.709442 0.06504138 -0.10504652
0001b0 c6 6d b7 3d 64 c6 be 3d ab 69 f6 bf 80 ce 84 3d
       0.089564845 0.09315184 -1.9250997 0.06484699
0001c0 de 25 6f be a7 38 dc be 27 ab 22 3d e8 41 47 be
       -0.23354289 -0.43011972 0.039714005 -0.19458735
0001d0 e4 7a 35 bf 0a 48 af 3d e9 cc 3d 3e b0 d9 0d bf
       -0.7089064 0.08558662 0.18535198 -0.5541029
0001e0 eb e4 58 bd 48 23 90 3d 0d 31 94 3d 33 5e 44 be
       -0.05295269 0.07037979 0.07235918 -0.19176559
0001f0 74 1d 9a bd 9e 9d 14 3e bf 61 4b 3f bb b8 c3 3e
       -0.07525149 0.14513251 0.79446024 0.38226876
000200 41 5d 8f be c4 c8 00 3d cd 82 99 3e 6a 35 9b be
       -0.28000835 0.031441465 0.29982606 -0.3031419
000210 d4 9d a5 bd 8b c9 b8 3f 4c c5 3b bf 4e 42 90 3d
       -0.08086744 1.4436506 -0.73347926 0.070438966
000220 82 15 a5 3d bc ec f8 bd 92 95 5d be 87 00 85 3f
       0.08060743 -0.121545285 -0.21639088 1.0390786
000230 31 f3 13 bf 90 5f 01 be cb 23 03 bf 28 06 28 3e
       -0.57792956 -0.1263411 -0.5122649 0.16408598
000240 27 92 42 3d 5b 4a 55 bf d8 9a 21 bc 11 27 3f bc
       0.047502663 -0.8331658 -0.009863578 -0.011667029
000250 eb 25 33 be 4a c2 94 be 6c 60 33 3d 3a 3d 77 bd
       -0.17494933 -0.2905448 0.043793127 -0.060361125
000260 d1 2c 16 bd 6a 2c 8d 3b 6f 0d ba be de e1 8b bd
       -0.036663834 0.004308273 -0.36338374 -0.0683019
000270 5a 89 9c bd 77 a5 79 3f b5 d7 e5 3d 7b c2 02 3f
       -0.07643385 0.97518104 0.112227835 0.51078004
000280 5c 66 a8 bd 2f 06 f0 bc b5 1e c1 be 8f 75 09 3e
       -0.082226485 -0.029299824 -0.3771874 0.13423751
000290 65 37 a6 bd 05 09 22 be a4 62 67 bd 54 4f f0 be
       -0.081160344 -0.15823753 -0.056490555 -0.46935523
0002a0 68 ac 0a be 42 6d 0f bd 49 0d 94 bd 86 57 9f bd
       -0.1354233 -0.035016306 -0.072290964 -0.07780366
0002b0 a2 2a 07 bf 71 21 8e 3f fa 06 95 bd 1b 78 5c 3e
       -0.5279943 1.1103956 -0.07276721 0.21530192
0002c0 e5 49 cf bd c9 69 6a bf d1 77 53 bd dd 19 9b be
       -0.10121516 -0.91567665 -0.051627938 -0.3029317
0002d0 d0 eb 6b bf 1e 55 a6 be 2b f6 6c bd 0b e1 59 bc
       -0.92156696 -0.32486814 -0.05785195 -0.013298283
0002e0 9e 01 f9 bd d5 c5 81 be e7 d1 21 bd eb 1f 73 bf
       -0.121585116 -0.25346246 -0.03950682 -0.9497058
0002f0 5f 19 27 bd be 7e 8c 3e 30 94 98 bc 2d e5 88 bd
       -0.04079568 0.27440447 -0.018625349 -0.06684337
000300 01 1a 56 be 65 04 50 bc 53 85 78 3f fd 9f cc bd
       -0.20908357 -0.01269636 0.97078437 -0.09991453
000310 e5 ba d3 3e f2 4c 7a bf d2 04 43 3e 74 b5 e2 3c
       0.41353527 -0.9777366 0.19044808 0.027674414
000320 9f 0f bd 3e 01 55 83 be 36 64 33 bd e8 b7 c6 3d
       0.3692598 -0.2565079 -0.04379674 0.09703046
000330 7d b5 ab bd b4 c8 71 3e 6d 6e 24 bd 13 1a 1d bc
       -0.083842255 0.23611718 -0.040144373 -0.009588736
000340 cd 4e 84 3e 69 95 d3 be 13 67 d7 3e e7 ff e3 bc
       0.2584137 -0.41324928 0.42070827 -0.027831985
000350 77 ae b0 3e a2 01 19 bf 54 ea b6 bf 5d d4 c0 bd
       0.34508106 -0.59768116 -1.4290261 -0.09415505
000360 03 dd f4 bd 89 2d 3d 3c ce f4 a6 bf 3a 68 a3 be
       -0.11956217 0.011546501 -1.3043458 -0.31915456
000370 41 4d af be 5c a9 fe be cb 2e ce be 9f 1c b4 be
       -0.34238628 -0.49738586 -0.40270075 -0.35178086
000380 54 1a b6 3e ca 1b 1b c0 d6 e9 96 3d 62 df 9d bf
       0.35566962 -2.423571 0.073688194 -1.2333796
000390 d7 74 e9 3e 9f 02 26 be 51 af e8 bd eb 42 d8 be
       0.45596954 -0.16211937 -0.11361564 -0.42238554
0003a0 f5 35 08 3f f7 1d 18 bd 61 a4 99 bf ac 75 8f bc
       0.5320733 -0.03713795 -1.200329 -0.017512165
0003b0 ee e0 a9 bd 9f 18 8d bb 89 8f 37 3d 8f 4e 95 be
       -0.08294855 -0.0043059136 0.04481462 -0.29161498
0003c0 57 5f 54 bd 7f 85 00 be 7d c0 c1 bd cb 6b b0 bd
       -0.051848736 -0.12550925 -0.09460542 -0.0861431
0003d0 c4 9f 09 3e fa 46 33 be e1 66 83 be d1 f5 0f c0
       0.13439852 -0.17507544 -0.25664428 -2.2493784
0003e0 7e 30 bd 3e 28 bc b2 be 36 19 75 bd 43 80 53 3c
       0.3695106 -0.34909177 -0.059838496 0.012908998
0003f0 22 cb b0 3d 3a 8c 6b 3d ae 03 f0 bc c7 fe 76 bf
       0.086324945 0.057506777 -0.02929863 -0.9648251

output.bias f4 [4]
000000 4a 97 96 bd da 50 a2 3c a3 b6 f2 be e6 ea 25 3d
       -0.07353075 0.019813944 -0.47404966 0.04050722
