models/weights/model_11.pth (torch, 59975 bytes, 6 tensors)

linear1.weight f4 [50, 13]
0.34163046 0.22254136 -0.44206282 -0.036683686 -0.13127747 -0.057366494 0.049018014 -0.20671101
0.5850915 0.15466449 -0.35519204 0.0087570585 -1.9434112 -0.09928788 0.33408853 -0.35452756
-0.16791978 -0.25550696 -0.3792 -0.32874078 -0.38509244 -0.20912707 0.34768963 -2.3300753
-0.0127978 1.7680924 -0.21493007 -0.2338086 -0.27641582 -0.21433136 -0.02911991 -0.044727355
0.058075115 -0.014400366 0.059382673 0.019978642 0.7993926 -0.12855257 0.29284003 -0.049667194
-0.108896375 0.04218196 -0.22223535 0.2403431 0.09481924 0.18133989 0.11457733 0.0829887
-0.24701124 0.026253046 -0.10337611 0.0746798 -0.20592771 0.2927008 0.20118643 0.45432392
0.13378833 0.28886592 0.21818554 0.19462314 -0.20739304 -0.2682852 1.5334575 0.07938899
-1.0014609 -0.019497793 -0.02336256 -0.23344971 0.4279681 0.21265428 0.2644084 -0.002525083
0.1675194 1.0613439 0.18532531 -0.45441458 -0.3949552 0.20807755 0.06664944 0.0778523
-0.020149818 0.028296191 0.12512204 -0.29569712 -0.010248363 0.11000901 0.30579588 -0.079451874
-0.19902213 -0.19564068 -0.29677084 -0.2565544 0.19963863 0.5557652 -0.4535862 -0.6333831
-0.53526384 -0.6018489 -0.6721976 -0.90945965 -0.07532629 -1.1415565 0.025856944 0.88821554
0.17378277 -0.30227536 -0.12367919 0.12057578 0.28850856 -0.23748484 0.13578594 -0.20128708
-0.16886334 -0.23625243 1.0420636 -0.098658875 -0.08849324 0.05772118 -0.08540036 0.2546516
-0.13768926 0.15666576 0.23113713 -0.082793996 -0.13517392 0.527954 -0.16039126 1.3052787
-0.4979827 -0.017220907 -0.33703202 -0.28642255 -0.02953231 0.1490995 -0.29092243 0.24624492
0.12749796 -0.079457045 -0.07781046 -0.48057058 0.26962435 0.20605533 2.2806764 0.06935137
0.49117842 -0.12017509 0.010747709 0.049204275 0.24147189 0.3757174 0.6458362 -0.29161733
-0.5128123 1.2621998 0.16916133 -1.6892357 -0.13029341 -0.4320103 0.3422845 -0.12398681
0.21235129 -0.21664873 -0.03452527 0.257419 0.24598737 0.36453348 -1.1876287 -0.14575016
0.6699578 0.3711858 -0.6233616 -0.16829018 -0.077559374 0.20491557 0.15737014 -0.07698671
0.5055318 0.75595 0.07250059 0.28673688 -0.055988234 -1.2073609 0.45487458 0.1588842
0.004879155 -0.22221301 0.22936 0.028941298 0.22193672 -0.28283957 0.5102798 -0.1438784
0.06644189 0.028477965 -2.955423 0.33031166 -0.18551038 -0.26714504 -0.17226598 -0.15598215
0.08883944 -0.4272682 -0.36316893 0.70095205 0.16745147 0.066414505 0.004899043 0.63000154
0.3537327 -0.13304262 0.391423 0.12696458 0.10408623 0.26563114 0.116176285 0.0135935
0.23536463 -0.2569021 1.237998 -0.016470142 -1.9321387 0.46433076 0.29887322 0.2502269
0.1401746 0.30410475 -0.12116331 0.27146503 0.378603 1.7016598 -0.43383783 0.9645736
-0.00094838045 -0.2253554 0.4378356 0.2448814 -0.21722896 0.19941723 0.43681157 0.025665147
0.48866314 0.5700522 0.5110989 -0.34755996 1.1282276 0.13571598 -1.2324034 0.21454218
-0.45126402 -0.20414332 -0.005845451 0.5850319 0.29866645 0.17549816 0.16062006 0.8012586
00000000: 30ea ae3e e2e1 633e 0f56 e2be a241 16bd
00000010: 9a6d 06be 21f9 6abd 1dc7 483d 0dac 53be
00000020: 8ec8 153f 5e60 1e3e bbdb b5be c479 0f3c
00000030: b3c1 f8bf 7257 cbbd a70d ab3e a384 b5be
00000040: 2af3 2bbe cfd1 82be 8126 c2be b650 a8be
00000050: d62a c5be 6825 56be 6004 b23e f41f 15c0
00000060: ddad 51bc da50 e23f a116 5cbe 866b 6fbe
00000070: 6086 8dbe ae79 5bbe e18c eebc 0834 37bd
00000080: 2ce0 6d3d 83ef 6bbc 3f3b 733d 40aa a33c
00000090: fea4 4c3f 49a3 03be 21ef 953e d46f 4bbd
000000a0: 1005 dfbd fec6 2c3d aa91 63be 801c 763e
000000b0: 9730 c23d 2ab1 393e 85a7 ea3d fbf5 a93d
000000c0: 84f0 7cbe a110 d73c dbb6 d3bd b9f1 983d
000000d0: b7de 52be e1dc 953e d103 4e3e 259d e83e
000000e0: cfff 083e 3ce6 933e 086c 5f3e 4a4b 473e
000000f0: d75e 54be ae5c 89be 5648 c43f b296 a23d
00000100: df2f 80bf d6b9 9fbc d762 bfbc 710d 6fbe
00000110: a31e db3e 0bc2 593e 8a60 873e dd7b 25bb
00000120: 358a 2b3e 1eda 873f ebc5 3d3e 07a9 e8be
00000130: 9137 cabe 4812 553e 807f 883d 0771 9f3d
00000140: 3b11 a5bc 6acd e73c fe1f 003e 9d65 97be
00000150: c0e8 27bc 674c e13d 4791 9c3e aab7 a2bd
00000160: 75cc 4bbe 0856 48be 59f2 97be 195b 83be
00000170: 126e 4c3e a146 0e3f 733c e8be 6525 22bf
00000180: 0d07 09bf c512 1abf 2415 2cbf 59d2 68bf
00000190: ac44 9abd 861e 92bf f1d1 d33c 1862 633f
000001a0: 1cf4 313e d6c3 9abe 844b fdbd 6ff0 f63d
000001b0: 65b7 933e 3a2f 73be 780b 0b3e 331e 4ebe
000001c0: 83ea 2cbe 28ec 71be 5762 853f aa0d cabd
000001d0: f23b b5bd 0b6d 6c3d 62e6 aebd b261 823e
000001e0: 6afe 0cbe fd6c 203e 36af 6c3e e68f a9bd
000001f0: 086b 0abe fe27 073f 9b3d 24be 5f13 a73f
00000200: 97f7 febe dc12 8dbc 768f acbe faa5 92be
00000210: beed f1bc 8aad 183e c9f3 94be a127 7c3e
00000220: d38e 023e 60ba a2bd 175b 9fbd 590d f6be
00000230: 340c 8a3e 2b00 533e 9af6 1140 1708 8e3d
00000240: bd7b fb3e 5c1e f6bd 2917 303c 6c8a 493d
00000250: 6844 773e 085e c03e 8555 253f de4e 95be
00000260: ab47 03bf c38f a13f a138 2d3e e038 d8bf
00000270: a36b 05be 7430 ddbe ea3f af3e ccec fdbd
00000280: 9e72 593e 2ad9 5dbe 5f6a 0dbd 6ccc 833e
00000290: 1de4 7b3e 22a4 ba3e 3804 98bf 883f 15be
000002a0: 5b82 2b3f 110c be3e a094 1fbf 4354 2cbe
000002b0: 73d7 9ebd 63d5 513e a325 213e 35ab 9dbd
000002c0: 886a 013f f085 413f 307b 943d 2dcf 923e
000002d0: eb53 65bd cd8a 9abf 52e5 e83e 8ab2 223e
000002e0: 52e1 9f3b cf8b 63be 59dd 6a3e 4d16 ed3c
000002f0: 6143 633e 59d0 90be b2a1 023f dc54 13be
00000300: b012 883d 9f4a e93c a725 3dc0 9c1e a93e
00000310: 6ff6 3dbe 3cc7 88be 7e66 30be c9b9 1fbe
00000320: 74f1 b53d e6c2 dabe 47f1 b9be 9871 333f
00000330: 6678 2b3e 5404 883d 2788 a03b c847 213f
00000340: 741c b53e 533c 08be 9868 c83e 0103 023e
00000350: 292b d53d ce00 883e d5ed ed3d 45b7 5e3c
00000360: 6d03 713e ac88 83be b876 9e3f 64ec 86bc
00000370: 5250 f7bf c3bc ed3e e905 993e be1d 803e
00000380: ee89 0f3e 9eb3 9b3e 7824 f8bd 77fd 8a3e
00000390: 41d8 c13e fdcf d93f fe1f debe 4cee 763f
000003a0: bc9c 78ba 91c3 66be fd2b e03e 31c2 7a3e
000003b0: 4571 5ebe 0834 4c3e c4a5 df3e b73f d23c
000003c0: 0e32 fa3e f1ee 113f 61d7 023f 61f3 b1be
000003d0: c369 903f 21f9 0a3e 65bf 9dbf f2b0 5b3e
000003e0: 140c e7be f20a 51be 328b bfbb a7c4 153f
000003f0: cfea 983e cab5 333e 9679 243e 491f 4d3f

linear1.bias f4 [50]
0.29211783 0.16191839 -0.16768856 -0.05689049 -0.07549305 -0.01332488 -0.45503947 -0.29159072
0.0014593613 0.17364159 0.13743559 0.13811375 0.16974634 -0.019729454 -0.18115848 -0.54591244
-0.00025654648 -0.09599128 0.21228094 -0.028856538 -0.50579745 -0.046092566 -0.033120085 -0.33042222
-0.21789911 -0.038396362 -0.112453446 -0.102393106 0.2653616 0.028076064 0.2884412 -0.030545898
0.2606041 0.3726954 -0.20641556 -0.25549006 -0.21329664 -0.4511465 -0.07004301 -0.4261075
0.060520466 0.15504101 -0.028072713 -0.46788365 -0.038840897 -0.1322772 -0.29651693 -0.32987213
-0.39891437 -0.14562617
00000000: 7890 953e efcd 253e 8db6 2bbe 0106 69bd
00000010: 1a9c 9abd 9950 5abc effa e8be 614b 95be
00000020: 0a48 bf3a 1acf 313e eabb 0c3e b16d 0d3e
00000030: fcd1 2d3e aa9f a1bc 9c81 39be ebc0 0bbf
00000040: 1681 86b9 1497 c4bd 2d60 593e 8c64 ecbc
00000050: f17b 01bf 8fcb 3cbd eda8 07bd 1a2d a9be
00000060: f220 5fbe 8145 1dbd fe4d e6bd 7ab3 d1bd
00000070: 7add 873e c6ff e53c 91ae 933e 643b fabc
00000080: e76d 853e eed1 be3e 9a5e 53be 98cf 82be
00000090: 6f6a 5abe adfc e6be b672 8fbd c32a dabe
000000a0: 4fe4 773d 12c3 1e3e bff8 e5bc 728e efbe
000000b0: a217 1fbd ad73 07be 11d1 97be 00e5 a8be
000000c0: 813e ccbe 071f 15be

linear2.weight f4 [250, 50]
-0.29938722 -0.16574718 -0.044865556 -0.094076864 -0.21680814 0.15526506 0.05488717 0.17693081
-0.1541043 -0.25818974 -0.271814 -0.18227968 0.08276842 -0.019024119 -0.013658868 -0.1286228
0.2842482 -0.12363316 -0.21001394 0.3223252 0.07795811 -0.05742379 -0.25239316 -0.073707305
0.04638097 0.06085373 0.018287469 0.16565053 -0.0055811503 -0.39344013 -0.31692296 0.37654737
0.23680839 0.023800232 0.08694385 -0.27107352 -0.5675392 -0.28878573 -0.06026567 0.4273985
-0.28345042 -0.0934815 -0.10325962 -0.11969869 0.0724798 0.04418135 0.097478785 0.05231204
0.3057004 -0.418681 -0.10098463 -0.2187607 0.34234527 0.13038968 -0.09005311 2.382919
0.24060997 -0.21409826 0.21152197 -0.019741263 -0.15174004 -0.021312151 0.06910228 0.29372332
0.2647506 0.15858619 0.40152922 2.4188128 0.09966536 0.015152112 -0.12880711 0.23152971
-0.23171833 3.0342264 0.025739754 0.6007748 -0.054081693 0.02924614 -0.49396467 0.21913312
-0.09319641 -0.34030992 0.6133353 -0.039122835 0.13625939 0.5532249 -0.77648485 0.16863894
0.31394914 -0.09083423 0.27061364 1.4559922 0.32359514 -0.15833606 0.4175348 0.45400545
-0.078299955 -0.038995385 -0.087743334 -0.25772962 0.027505588 0.112748876 0.69029343 0.06096461
-0.5810341 0.59482944 0.11076979 -0.7917744 0.74804467 0.09446661 -0.41601428 -0.11410007
-0.12752718 0.3541838 0.1478626 -0.07691777 -0.3283606 0.22130102 -0.17509754 0.00405385
-0.41438764 -0.4588769 0.50171393 1.5076854 -0.025122596 -0.058489945 -0.05960942 -0.2976505
-0.55174667 -0.13885732 -0.2942149 0.8201061 0.1553624 0.3642737 -0.0044664014 0.342531
0.41611463 0.029890813 0.016769625 -0.16622782 0.028474461 0.64982986 -0.08041864 -0.085583396
-0.4588669 0.08070751 -0.15190293 -0.34228414 -0.35953763 -0.3242662 -0.8684787 -0.19208154
0.36201915 0.13156413 0.022342637 0.3832695 0.34724003 0.3471042 1.3679333 -0.31137517
0.24966338 0.19571722 -0.035838626 -0.22336668 -0.24639773 -0.04040346 0.20109284 -0.27400064
-0.13621943 0.77080077 0.19554584 0.0470688 0.24128434 2.3890278 -0.0571402 0.79164207
-0.06191089 0.14526065 0.14276141 -0.36699763 0.10131308 -0.1955087 -0.16693534 0.6159804
0.1708067 0.22941606 -0.39549172 -0.29824704 1.1049639 0.25672153 -0.24856861 0.2752887
-0.38351226 0.003617283 0.34405738 0.3018336 0.29133904 0.057711586 0.32892138 0.21075496
0.008372385 -0.1900651 -1.5509351 0.0017924047 0.0527958 -0.5331652 -0.07832685 -0.38439378
-1.8203787 -0.10076743 0.32413658 0.07184253 0.22587852 0.21967545 -0.06325562 -0.042316295
0.2628416 0.042896483 0.12170824 0.49789223 0.00835699 -0.24888462 0.15298986 -0.9043185
-0.14604497 -0.10968999 0.13111974 -0.13557884 -0.0026708187 0.23034629 -0.16156004 0.11384051
-0.058824353 -0.3842444 -0.14641322 0.15413457 -0.56490177 -0.014358612 -0.13796818 0.19479938
0.58308387 -0.47162855 -0.30139524 -0.28920358 -0.101702906 0.17516875 -0.041115146 -0.3634692
-0.22189948 -0.5728595 0.2637897 0.0016204198 -1.1442721 0.10510575 -0.96836025 -0.759128
00000000: 4849 99be a1b9 29be f2c4 37bd 5fab c0bd
00000010: f402 5ebe cefd 1e3e 5fd1 603d 5a2d 353e
00000020: 85cd 1dbe 7231 84be 342b 8bbe 86a7 3abe
00000030: 7d82 a93d 78d8 9bbc 72c9 5fbc b2b5 03be
00000040: fb88 913e 6233 fdbd e50d 57be cf07 a53e
00000050: 80a8 9f3d 3535 6bbd ad39 81be dbf3 96bd
00000060: f9f9 3d3d c341 793d 9acf 953c 4ba0 293e
00000070: 15e2 b6bb fc70 c9be ba43 a2be d1ca c03e
00000080: e67d 723e b4f8 c23c 9e0f b23d 26ca 8abe
00000090: 404a 11bf b9db 93be 23d9 76bd fad3 da3e
000000a0: 6a20 91be 3b73 bfbd c879 d3bd 9624 f5bd
000000b0: 4a70 943d 81f7 343d f5a2 c73d 2645 563d
000000c0: c384 9c3e 5b5d d6be 08d1 cebd ce02 60be
000000d0: e147 af3e df84 053e c46d b8bd bf81 1840
000000e0: 7662 763e 933c 5bbe 3799 583e 6eb8 a1bc
000000f0: be61 1bbe d296 aebc 7f85 8d3d e762 963e
00000100: 648d 873e 6b64 223e 3d95 cd3e d4cd 1a40
00000110: 5a1d cc3d 9040 783c 03e6 03be 2016 6d3e
00000120: 9247 6dbe c430 4240 2ddc d23c 61cc 193f
00000130: c484 5dbd 9a95 ef3c f0e8 fcbe 6f64 603e
00000140: c2dd bebd 1a3d aebe 8b03 1d3f 443f 20bd
00000150: 9587 0b3e 26a0 0d3f b6c7 46bf b0af 2c3e
00000160: f1bd a03e 4c07 babd df8d 8a3e f45d ba3f
00000170: 43ae a53e d922 22be 1fc7 d53e 6773 e83e
00000180: ba5b a0bd a0b9 1fbd c7b2 b3bd 23f5 83be
00000190: 6653 e13c e2e8 e63d 12b7 303f 07b6 793d
000001a0: a7be 14bf be46 183f 46db e23d bab1 4abf
000001b0: db7f 3f3f b677 c13d d3ff d4be 4cad e9bd
000001c0: 7c96 02be 9457 b53e 4b69 173e 1087 9dbd
000001d0: e11e a8be bc9c 623e c54c 33be 29d6 843b
000001e0: 9e2a d4be eaf1 eabe 5370 003f d6fb c03f
000001f0: e7cd cdbc 2793 6fbd 0229 74bd a565 98be
00000200: 453f 0dbf 9d30 0ebe 56a3 96be 79f2 513f
00000210: 5217 1f3e 1582 ba3e e45a 92bb 3960 af3e
00000220: fa0c d53e 94dd f43c 7460 893c a037 2abe
00000230: 4643 e93c 405b 263f 87b2 a4bd 5946 afbd
00000240: 9af0 eabe fb49 a53d 718c 1bbe de3f afbe
00000250: 5115 b8be 3806 a6be 9f54 5ebf 06b1 44be
00000260: 935a b93e bfb8 063e e807 b73c e63b c43e
00000270: 72c9 b13e a4b7 b13e 7018 af3f 916c 9fbe
00000280: c2a7 7f3e 186a 483e 86cb 12bd 3cba 64be
00000290: b04f 7cbe 197e 25bd 48eb 4d3e d049 8cbe
000002a0: 1b7d 0bbe 3353 453f 2b3d 483e 37cb 403d
000002b0: 3e13 773e d5e5 1840 d80b 6abd 0ea9 4a3f
000002c0: 4696 7dbd 35bf 143e 0c30 123e 1de7 bbbe
000002d0: 3b7d cf3d 6f33 48be 19f1 2abe e4b0 1d3f
000002e0: f4e7 2e3e 0bec 6a3e e47d cabe d6b3 98be
000002f0: 756f 8d3f 0171 833e c588 7ebe a4f2 8c3e
00000300: b85b c4be f00f 6d3b 4a28 b03e ef89 9a3e
00000310: 642a 953e fc62 6c3d 6268 a83e 26d0 573e
00000320: 542c 093c 6da0 42be 0b85 c6bf 1fef ea3a
00000330: 6940 583d 847d 08bf d469 a0bd 43cf c4be
00000340: 2b02 e9bf 285f cebd 3bf5 a53e 2d22 933d
00000350: b34c 673e 9af2 603e 2a8c 81bd da53 2dbd
00000360: 2d93 863e 39b4 2f3d 2b42 f93d bbeb fe3e
00000370: c2eb 083c 9cdb 7ebe 60a9 1c3e 6b81 67bf
00000380: d08c 15be 25a5 e0bd 4144 063e 2ed5 0abe
00000390: e708 2fbb e6df 6b3e ff6f 25be 3725 e93d
000003a0: cef1 70bd afbb c4be 59ed 15be 74d5 1d3e
000003b0: 679d 10bf 6240 6bbc 8847 0dbe 7d79 473e
000003c0: fc44 153f 4c79 f1be 7a50 9abe 7e12 94be
000003d0: 9d49 d0bd 705f 333e 5b68 28bd a318 babe
000003e0: 9e39 63be eca6 12bf 720f 873e 4464 d43a
000003f0: 8277 92bf af41 d73d 75e6 77bf 3656 42bf

linear2.bias f4 [250]
-0.07549853 0.22814652 -0.03897294 0.06856104 0.5082257 0.25077474 0.16948588 -0.5205742
-0.39451426 -0.33026198 -0.12528491 0.02358554 0.012099145 0.10056919 0.11118106 -0.17213985
-0.060976546 -0.08244271 0.33223972 0.039478015 -0.520234 0.07158363 0.12793589 -0.18736857
-0.021203991 -0.053995743 -0.57340294 -0.39971048 -0.1845892 -0.32831815 -0.53936404 0.21612774
-0.12999868 0.2878754 -0.03090536 -0.17820142 -0.10837977 0.25701755 0.28504524 0.21452516
-0.14461425 -0.10991913 0.5870197 -0.13271827 0.42059007 0.18946417 -0.28968135 0.18799974
0.051550422 0.089580074 0.015839681 0.0398333 0.074334614 -0.0037507599 0.1104151 0.23727573
-0.19458118 0.07488325 0.061353326 0.09180709 -0.12914458 0.021740478 0.13360143 0.06628117
0.39355737 0.0104115335 0.27951863 0.39824834 0.1300461 0.044323254 0.41974732 -0.18155521
0.3061713 -0.24132961 -0.21378087 -0.112154365 0.13947856 0.26771286 -0.07725625 0.0072154645
-0.22768989 0.05389039 0.18732381 -0.08011113 -0.043313954 0.0919922 -0.08160231 0.25386626
0.25423288 -0.06885731 -0.41008657 0.22910345 0.1625792 -0.3697178 -0.30463526 -0.10600431
0.21690054 0.055488065 0.02562834 -0.31717733 0.20239137 -0.43594486 -0.056393944 -0.071826324
0.17340846 -0.09147585 0.036607113 -0.2501308 -0.12732553 -0.19115074 -0.21786034 -0.23100136
-0.43222913 -0.06902788 -0.45752707 0.29433295 0.13629071 0.028896123 -0.029823966 -0.10012566
-0.06721362 -0.1509332 0.2255721 -0.22037902 -0.035250712 0.19255555 0.013998239 -0.1462262
0.11948819 -0.22248451 -0.4394977 0.08097652 -0.1924882 0.47792938 -0.32978037 0.41964948
0.14232379 -0.18518545 0.062073205 -0.027641958 -0.40615517 0.00547651 -0.100499555 -0.18142402
0.41294137 0.028677206 0.055710148 0.16185084 -0.056671757 0.122386016 0.12510532 -0.26150838
-0.08597587 0.010331855 -0.093336396 -0.20202947 0.12519085 -0.0773234 -0.27349836 0.13967338
0.03897995 -0.05930708 -0.13162056 0.4411753 -0.0331103 0.25925618 0.4426463 0.13667423
-0.5044104 -0.013003192 -0.028447244 0.049804788 0.27798328 -0.04815833 -0.09744754 0.112710565
-0.03509094 -0.054504488 -0.112525895 0.05886835 0.12095847 -0.23463939 0.017673794 0.08819926
0.02124972 -0.019922322 -0.1477833 0.008001792 -0.10512029 -0.44478244 -0.012203642 0.045527846
-0.30925754 -0.031975627 -0.020396236 -0.40919253 -0.1364492 -0.08014769 0.050149817 -0.13442142
-0.06046449 0.33317557 0.37574753 0.26103958 -0.20045125 -0.18533856 -0.0061272955 0.05138997
0.47312355 -0.019387301 0.0042020795 0.049387287 0.48013628 -0.20610511 -0.14115548 0.10707088
-0.3775518 0.27320218 0.12895815 -0.13675986 0.083643265 -0.06674035 -0.08276966 -0.16465487
-0.2079928 0.21511367 -0.124142304 -0.26643795 -0.05809822 0.24190374 -0.0021379562 -0.009736835
0.25432995 0.14552021 -0.22482996 -0.17550616 -0.31276718 0.02119847 -0.43293056 0.07891836
0.07305281 -0.39802936 0.018827604 -0.113354154 -0.18259524 0.05271029 0.21114883 -0.13151745
-0.21050227 0.028340524
00000000: f99e 9abd 3e9f 693e 17a2 1fbd bb69 8c3d
00000010: 141b 023f 8c65 803e b58d 2d3e 5a44 05bf
00000020: c6fd c9be 1918 a9be b04a 00be 7636 c13c
00000030: 7e3b 463c 38f7 cd3d e5b2 e33d 6e45 30be
00000040: 8bc2 79bd b9d7 a8bd 531b aa3e b3b3 213d
00000050: 0e2e 05bf 709a 923d a001 033e 8cdd 3fbe
00000060: feb3 adbc a42a 5dbd 89ca 12bf daa6 ccbe
00000070: f404 3dbe 5119 a8be c313 0abf 9750 5d3e
00000080: 601e 05be 6864 933e 3d2d fdbc 6f7a 36be
00000090: 36f6 ddbd ce97 833e 73f1 913e 7cac 5b3e
000000a0: c215 14be 481d e1bd ec46 163f 4ce7 07be
000000b0: 9557 d73e e502 423e 1d51 94be 0183 403e
000000c0: 8926 533d c275 b73d 38c2 813c 3e28 233d
000000d0: bf3c 983d 4fcf 75bb 5021 e23d 69f8 723e
000000e0: 4a40 47be 645c 993d a04d 7b3d 5b05 bc3d
000000f0: 7a3e 04be 1619 b23c d0ce 083e 6cbe 873d
00000100: 5a80 c93e 2395 2a3c 111d 8f3e 35e7 cb3e
00000110: ce2a 053e 4d8c 353d 1fe9 d63e 9ce9 39be
00000120: 7cc2 9c3e 1c1f 77be 5fe9 5abe 30b1 e5bd
00000130: 78d3 0e3e a911 893e 8638 9ebd b46f ec3b
00000140: 8a27 69be 2bbc 5c3d d0d1 3f3e 4e11 a4bd
00000150: f969 31bd 6866 bc3d 1d1f a7bd c2fa 813e
00000160: d02a 823e 1005 8dbd def6 d1be 189a 6a3e
00000170: 297b 263e a74b bdbe 27f9 9bbe ca18 d9bd
00000180: 2d1b 5e3e 7447 633d 86f2 d13c 1165 a2be
00000190: af3f 4f3e 2a34 dfbe 56fd 66bd ae19 93bd
000001a0: fd91 313e b157 bbbd 57f1 153d 2511 80be
000001b0: a061 02be 05bd 43be c816 5fbe 9f8b 6cbe
000001c0: 234d ddbe 7d5e 8dbd fd40 eabe cfb2 963e
000001d0: cb8f 0b3e 90b7 ec3c 6451 f4bc af0e cdbd
000001e0: 4ba7 89bd 3c8e 1abe 5ffc 663e 0aab 61be
000001f0: 0d63 10bd 482d 453e df58 653c 52bc 15be
00000200: 39b6 f43d fbd2 63be d805 e1be 05d7 a53d
00000210: a01b 45be 29b3 f43e f9d8 a8be 4cdc d63e
00000220: 54bd 113e 41a1 3dbe 7940 7e3d 6371 e2bc
00000230: 92f3 cfbe 4c74 b33b b6d2 cdbd 38c7 39be
00000240: 0d6d d33e 76ec ea3c 5330 643d 3abc 253e
00000250: a520 68bd 85a5 fa3d 9c1b 003e 6de4 85be
00000260: 1e14 b0bd f146 293c 2727 bfbd d0e0 4ebe
00000270: 0832 003e bb5b 9ebd fa07 8cbe 8a06 0f3e
00000280: 71a9 1f3d fbeb 72bd 8ac7 06be bbe1 e13e
00000290: aa9e 07bd 3abd 843e 89a2 e23e 54f4 0b3e
000002a0: 0a21 01bf 570b 55bc 320a e9bc 1b00 4c3d
000002b0: d353 8e3e ab41 45bd 9392 c7bd ccd4 e63d
000002c0: 84bb 0fbd 1940 5fbd fa73 e6bd f01f 713d
000002d0: 13b9 f73d 4f45 70be a2c8 903c d0a1 b43d
000002e0: e513 ae3c 2334 a3bc 8154 17be f319 033c
000002f0: 4e49 d7bd 86ba e3be c9f1 47bc 687b 3a3d
00000300: 0157 9ebe e0f8 02bd 0216 a7bc af81 d1be
00000310: 57b9 0bbe 7924 a4bd e569 4d3d c5a5 09be
00000320: 9da9 77bd fd95 aa3e fb61 c03e fba6 853e
00000330: 1843 4dbe 64c9 3dbe 7bc7 c8bb 4a7e 523d
00000340: 403d f23e 1ed2 9ebc 99b1 893b 534a 4a3d
00000350: 6cd4 f53e 380d 53be 108b 10be fa47 db3d
00000360: 784e c1be 28e1 8b3e 9b0d 043e c70a 0cbe
00000370: 294d ab3d 2aaf 88bd 2483 a9bd 499b 28be
00000380: 11fc 54be c246 5c3e 523e febd 8e6a 88be
00000390: 66f8 6dbd 9db5 773e f41c 0cbb 3f87 1fbc
000003a0: 8937 823e 4003 153e d339 66be e3b7 33be
000003b0: 0523 a0be 6aa8 ad3c 13a9 ddbe f39f a13d
000003c0: b69c 953d 81ca cbbe 593c 9a3c 3926 e8bd
000003d0: 3ffa 3abe bfe6 573d 6637 583e 83ac 06be
000003e0: e88d 57be 632a e83c

output.weight f4 [4, 250]
-0.025092458 -0.06308606 -0.23009348 -0.13063192 0.018417852 -0.49643967 -0.20180152 0.71703887
0.12751786 -0.044668436 0.010335934 0.013626282 0.13084368 -0.0168846 0.057075784 0.18547821
-0.039864715 0.002161332 -0.059529223 -0.3830523 0.05950777 1.1740007 -0.1590043 -0.01655011
-0.3398504 0.17372417 -0.15205778 -0.29675794 0.03968323 -0.24387793 -0.082836024 0.23168352
0.002385308 -0.51093405 -0.2506228 -1.3445855 -0.17988645 -0.48053408 0.057465777 -0.08124801
0.10256176 -0.286746 -0.023453778 -0.018229315 0.02036451 -0.06739221 0.15593068 0.059700824
0.41884258 -0.13092633 -0.7267329 0.028685836 -0.1505011 0.5759774 -0.098033674 0.03014077
-0.004016882 -0.07480977 0.0007045858 0.6687663 0.057204224 -0.3380265 -0.017741961 -0.024161918
-0.02606713 0.008794895 -0.10951531 -0.18888168 0.13792671 -0.057616185 0.0071440116 0.079754114
0.05450213 0.05358767 0.07958509 0.30449292 0.03518422 0.008677374 -0.090422295 -0.113133885
0.28621212 0.024578584 -0.004642752 -0.1962919 0.13056862 -0.892416 -0.36835667 0.00945771
0.122178905 -0.137648 -0.020044416 0.080646686 0.061149467 -0.010802487 0.07341174 -0.07615889
-0.6298911 1.4792819 -0.0005715188 -0.05515571 -0.12801653 0.56214136 -0.055882577 0.023544135
0.5101963 -0.06943484 -0.29178852 -0.36941546 0.7037351 0.7621687 -1.2304649 -1.0680221
-0.18601416 -0.012312914 -0.05047179 0.040129535 0.08249537 -0.06077884 0.054551836 0.24015869
-0.028818892 -0.049248125 -0.016318621 -0.092024505 -0.095027104 -0.32478696 -0.1702191 -0.44574583
-0.20656349 0.8094746 0.06686715 -0.08957135 0.14886019 0.10848468 -0.07740067 -0.12787445
-0.17988895 -0.09149122 -0.29660654 -0.11714624 -0.06118302 0.10230588 -0.07067967 -0.13481902
0.054637752 0.0047191167 -0.020503478 0.6061716 0.64829504 -0.39772424 -0.14787173 -0.01578025
0.591638 0.028950956 -0.012885013 0.045305654 0.25573283 -0.30921575 0.40084967 -0.083594985
0.077820815 0.097530596 -0.1449129 -0.21088621 0.19241704 -1.3381064 0.18959628 -0.0064973063
0.1603223 0.0008026288 -0.05192522 -0.23992346 -0.0009606015 -0.5527003 -0.074072815 -0.031721793
-0.28149164 0.47329906 0.14245504 -1.0508052 -0.079457134 -0.7539145 -0.0066716173 0.02378948
-0.19753903 0.23117208 0.038917664 -0.07884152 0.00022591496 0.057033557 -0.17337161 -0.006328797
-0.17547113 -0.029369015 -0.6115171 -0.15764886 -0.037860014 0.16907334 0.14637412 -0.030457083
0.0027709329 0.1438416 -0.36938503 -0.73865044 0.4893702 -0.044807155 -0.5044044 0.14489035
-0.014439805 -0.5918438 -0.0085285595 0.029640406 0.020113405 0.023031678 -0.566944 -0.01812314
0.04848369 -0.31872866 -0.10398396 0.08312994 -0.24604139 -0.11541454 0.6155121 0.07042915
-0.46100524 -0.27407086 0.13651723 0.06877526 0.029992983 -0.27909318 -0.07982343 0.10698761
0.06856024 -0.09375424 -0.2753576 -0.19949608 0.3160397 0.059953034 -0.73606044 -0.06943906
-0.44575226 -0.8932329 -0.26564437 -0.047934882 0.061102375 0.012790861 0.066573635 -0.058953054
0.05232493 -0.058247756 0.019571504 0.43592736 -0.20156306 0.07445735 0.05748054 0.7832386
00000000: b38e cdbc 4433 81bd a09d 6bbe 60c4 05be
00000010: 09e1 963c 572d febe 0fa5 4ebe dc8f 373f
00000020: 0b94 023e 40f6 36bd 0d58 293c c540 5f3c
00000030: e3fb 053e 9351 8abc 4cc8 693d 00ee 3d3e
00000040: 2f49 23bd 22a5 0d3b ead4 73bd 6e1f c4be
00000050: 6bbe 733d a845 963f 06d2 22be 1994 87bc
00000060: df00 aebe c0e4 313e 09b5 1bbe a8f0 97be
00000070: e28a 223d 23bb 79be efa5 a9bd 723e 6d3e
00000080: d452 1c3b 93cc 02bf a251 80be 611b acbf
00000090: 2734 38be 9008 f6be 3c61 6b3d 5b65 a6bd
000000a0: e60b d23d 5fd0 92be 2322 c0bc a555 95bc
000000b0: 79d3 a63c ed04 8abd 4bac 1f3e da88 743d
000000c0: 8972 d63e 8d11 06be 2b0b 3abf 8ffe ea3c
000000d0: f61c 1abe 4173 133f e1c5 c8bd c7e9 f63c
000000e0: 0ca0 83bb dd35 99bd f4b3 383a 4534 2b3f
000000f0: fa4e 6a3d cf11 adbe 9757 91bc 37ef c5bc
00000100: bc8a d5bc 7718 103c 9049 e0bd 336a 41be
00000110: a93c 0d3e f3fe 6bbd 5018 ea3b 2056 a33d
00000120: a03d 5f3d bf7e 5b3d 82fd a23d 7fe6 9b3e
00000130: 541d 103d 8b2b 0e3c 532f b9bd bdb2 e7bd
00000140: 658a 923e 0759 c93c 3a22 98bb be00 49be
00000150: c8b3 053e 6075 64bf 3f99 bcbe 83f4 1a3c
00000160: ef38 fa3d 99f3 0cbe 3034 a4bc 172a a53d
00000170: dd77 7a3d eafc 30bc e558 963d 31f9 9bbd
00000180: 8b40 21bf 1c59 bd3f fad1 15ba f4ea 61bd
00000190: c416 03be 7fe8 0f3f 21e5 64bd a1df c03c
000001a0: 3a9c 023f da33 8ebd 4e65 95be 0624 bdbe
000001b0: fc27 343f 7d1d 433f e07f 9dbf f3b4 88bf
000001c0: 7f7a 3ebe 1bbc 49bc 82bb 4ebd de5e 243d
000001d0: 55f3 a83d 3cf3 78bd bf71 5f3d 29ec 753e
000001e0: 9915 ecbc 67b8 49bd a1ae 85bc 5877 bcbd
000001f0: 929d c2bd 7a4a a6be ea4d 2ebe cc38 e4be
00000200: 6185 53be ba39 4f3f a5f1 883d 2f71 b7bd
00000210: ce6e 183e 372d de3d 3e84 9ebd 85f1 02be
00000220: cf34 38be c05f bbbd d0dc 97be 5eea efbd
00000230: 0c9b 7abd bf85 d13d 81c0 90bd ff0d 0abe
00000240: d6cb 5f3d d2a2 9a3b e9f6 a7bc 102e 1b3f
00000250: aaf6 253f 83a2 cbbe b06b 17be 9545 81bc
00000260: 9775 173f 8e2a ed3c a91b 53bc 6c92 393d
00000270: 6aef 823e 8751 9ebe 2b3c cd3e d933 abbd
00000280: 8560 9f3d 1fbe c73d 0c64 14be 8ef2 57be
00000290: f908 453e 1247 abbf 8725 423e 5be7 d4bb
000002a0: 872b 243e 8267 523a 8aaf 54bd 7fae 75be
000002b0: e0d0 7bba c47d 0dbf 7db3 97bd b6ee 01bd
000002c0: ac1f 90be 4154 f23e bcdf 113e c980 86bf
000002d0: 6cba a2bd 8a00 41bf 959d dabb 28e2 c23c
000002e0: ac47 4abe 60b8 6c3e 2168 1f3d aa77 a1bd
000002f0: 96e3 6c39 059c 693d 5488 31be cc61 cfbb
00000300: b4ae 33be 4a97 f0bc 628c 1cbf b46e 21be
00000310: 1a13 1bbd 9021 2d3e 19e3 153e 2281 f9bc
00000320: 8a98 353b 364b 133e 0920 bdbe 3218 3dbf
00000330: bb8e fa3e b587 37bd a620 01bf 235e 143e
00000340: ef94 6cbc 1383 17bf 5fbb 0bbc 70d0 f23c
00000350: dec4 a43c eeac bc3c 3e23 11bf fb76 94bc
00000360: d596 463d 6730 a3be 8bf5 d4bd 0840 aa3d
00000370: 46f2 7bbe 755e ecbd 3392 1d3f 283d 903d
00000380: e108 ecbe 0453 8cbe 2ccb 0b3e 0bda 8c3d
00000390: d8b3 f53c 4de5 8ebe 777a a3bd 521c db3d
000003a0: 5069 8c3d 3902 c0bd acfb 8cbe b348 4cbe
000003b0: f5cf a13e 5091 753d 756e 3cbf 1136 8ebd
000003c0: a439 e4be e9aa 64bf 8a02 88be 5e57 44bd
000003d0: 7c46 7a3d c290 513c c257 883d c278 71bd
000003e0: aa52 563d 3395 6ebd 6b54 a03c df31 df3e
000003f0: 8c66 4ebe 187d 983d b770 6b3d 5382 483f

output.bias f4 [4]
0.01913239 0.056694873 -0.039914273 -0.029748188
00000000: 88bb 9c3c e238 683d 267d 23bd 79b2 f3bc
