models/weights/model_6.pth (torch, 60011 bytes, 6 tensors)

linear1.weight f4 [50, 13]
0.52898276 -0.58376455 -0.8543945 -0.39200428 -0.25774384 -0.18651354 -0.32819253 -0.5364274
-0.17332329 0.028084354 0.114756875 -0.10856002 0.07189761 -0.13204128 2.0700147 -0.86359197
-0.024061676 0.63662183 -0.5684456 0.5718193 0.575081 2.1170292 -0.019684594 0.20541899
-0.029460499 -0.88559556 -0.2050914 0.21985047 -0.23236303 -0.4718544 -0.36497113 -0.4243986
-0.19399552 0.03060959 -0.13769446 -0.14513516 -0.12848559 -0.0694982 -0.20801117 0.066114634
0.121495746 -0.4133606 -0.2131256 0.015677698 -0.42867547 -0.13370523 0.06610408 -0.11851012
-0.3075183 -0.16864227 -0.016438877 -0.8517846 -0.22812167 0.27448684 -0.2944255 0.022944415
-0.37818348 0.31053886 -0.1337524 -0.3317596 0.26601934 -0.34302896 -0.07939504 -0.19461565
0.017907625 -0.16061583 -0.03282155 0.026878268 -0.0004553795 0.134767 0.028841585 -0.03682375
0.17623323 0.12502909 -0.21645081 -0.021251947 -0.031651124 0.1292316 -0.22721331 -1.4799783
-0.49732447 -0.23426425 0.05487078 -0.14955266 0.14431058 0.12926422 0.05981655 -0.27896422
1.616409 -0.13676521 -1.4438759 -0.23694125 0.21353683 -0.67172235 -0.34277794 -0.25574076
-0.48136693 -0.34280422 -0.06371869 0.16008049 -0.00026029686 -0.08472161 -0.12225859 0.6610357
0.0417594 -0.5939458 -1.292313 0.09718935 0.31838125 -0.90096635 0.16678946 0.25046852
1.3459672 0.28323606 3.1853592 -0.23058064 -0.8177878 -0.2842427 -1.3542696 -0.8078367
0.17721432 0.19632798 -0.13833176 0.49456298 0.6428263 0.23802106 -0.4002837 -0.53703564
-0.12194625 -1.7995946 -0.4372618 -0.28799984 0.09354024 0.20586506 0.10110958 -0.1364303
0.038891863 0.15912257 -0.7267868 -0.006592965 -0.12886675 -0.06272264 0.38099384 1.3598452
-0.21327029 0.52106917 0.1449596 0.48834345 0.027595216 -0.26226342 -0.13900755 0.87542164
-0.6399752 0.5427792 -0.0026526747 -5.1554756 -0.0086889025 -0.12139019 -0.7385951 -0.01035505
-0.41368574 -0.35749224 -0.255249 -0.5464102 -0.4202159 -0.4779398 0.044327017 -0.09428984
-0.23163122 -0.21064106 -0.26075503 -0.0064578764 -0.012475187 0.100929365 -0.13546036 -0.07884651
-0.37172654 -0.25244045 -0.25914407 -0.22112238 0.02821804 -0.24543071 0.041250702 0.04142355
-0.03846066 -0.08566871 0.06701984 -0.16672778 0.01905559 0.020318044 -0.22416493 -0.103524484
-0.09275575 -0.20200776 -0.3335425 0.13604973 -0.11631685 -0.19117476 -0.13291477 0.1056151
0.085761204 -0.23118126 -0.1866726 0.14289397 -0.19393294 -0.03968088 -0.08425761 0.11071528
-0.03190682 1.8840336 -0.1274523 0.9076959 0.5911105 0.83688414 1.2833467 1.3707124
0.10112057 -0.41679096 0.81245023 0.04890948 -1.1492321 -0.041314527 0.08816238 0.02623227
-0.04703205 -0.124280326 -0.10302509 0.20559636 0.20859951 -0.10250909 -0.19289754 -0.106121376
-0.0791799 0.004018566 -0.15846574 -0.30492675 0.08373373 -0.07580605 0.086808346 0.17510603
-0.3265448 -0.2646475 -0.3340455 -0.25101778 0.07233068 0.012221946 -0.59157664 -0.85041
-0.042026006 0.8076634 0.16955593 0.5523083 0.3955629 0.35990292 -0.1692382 -0.3574069
00000000: 6a6b 073f 9871 15bf 99b9 5abf c9b4 c8be
00000010: 00f7 83be 68fd 3ebe da08 a8be 4e53 09bf
00000020: a97b 31be 2911 e63c a705 eb3d b754 debd
00000030: 0e3f 933d d435 07be 1f7b 0440 5d14 5dbf
00000040: fe1c c5bc a6f9 223f a785 11bf c062 123f
00000050: 8238 133f 687d 0740 9641 a1bc 5b59 523e
00000060: 2557 f1bc 64b6 62bf 7b03 52be 7b20 613e
00000070: 93f0 6dbe e696 f1be 7fdd babe c64a d9be
00000080: c3a6 46be f6c0 fa3c c7ff 0cbe 509e 14be
00000090: ba91 03be 1355 8ebd e100 55be 1c67 873d
000000a0: c3d2 f83d 00a4 d3be 993d 5abe 846e 803c
000000b0: 5a7b dbbe 06ea 08be 9361 873d 6fb5 f2bd
000000c0: 0a73 9dbe 8fb0 2cbe d3aa 86bc 8e0e 5abf
000000d0: ba98 69be 8a89 8c3e f0be 96be edf5 bb3c
000000e0: 44a1 c1be f3fe 9e3e 64f6 08be 65dc a9be
000000f0: b033 883e 7ea1 afbe de99 a2bd 5349 47be
00000100: 03b3 923c 7a78 24be e46f 06bd d02f dc3c
00000110: 00c0 eeb9 5c00 0a3e 3045 ec3c 80d4 16bd
00000120: 7c76 343e a007 003e 48a5 5dbe 9018 aebc
00000130: 9ca4 01bd 4a55 043e 9baa 68be ee6f bdbf
00000140: 50a1 febe f8e2 6fbe 2fc0 603d 5524 19be
00000150: 27c6 133e d75d 043e 3302 753d 66d4 8ebe
00000160: 7de6 ce3f 2e0c 0cbe edd0 b8bf baa0 72be
00000170: 66a9 5a3e fff5 2bbf 9780 afbe 74f0 82be
00000180: ba75 f6be 0984 afbe f27e 82bd 24ec 233e
00000190: 7478 88b9 8682 adbd b662 fabd a339 293f
000001a0: e80b 2b3d d50c 18bf 836a a5bf 360b c73d
000001b0: de02 a33e bba5 66bf dbca 2a3e 693d 803e
000001c0: a748 ac3f 5104 913e eddc 4b40 551d 6cbe
000001d0: 8b5a 51bf 4288 91be b558 adbf 63ce 4ebf
000001e0: ac77 353e 340a 493e d7a6 0dbe 5c37 fd3e
000001f0: 4490 243f cbbb 733e fcf1 ccbe 2b7b 09bf
00000200: f5be f9bd 1e59 e6bf c7e0 dfbe b774 93be
00000210: 0692 bf3d 4ace 523e 8a12 cf3d 62b4 0bbe
00000220: 134d 1f3d 07f1 223e b30e 3abf cd09 d8bb
00000230: a5f5 03be ba74 80bd a011 c33e 680f ae3f
00000240: 8763 5abe ca64 053f 4a70 143e 2708 fa3e
00000250: 5d0f e23c 6447 86be ff57 0ebe a21b 603f
00000260: 6ad5 23bf 94f3 0a3f 7fd8 2dbb a8f9 a4c0
00000270: e65b 0ebc 6c9b f8bd 9214 3dbf 3aa8 29bc
00000280: 9ece d3be 3909 b7be ffaf 82be 8ae1 0bbf
00000290: 8a26 d7be 87b4 f4be 3f90 353d 081b c1bd
000002a0: bc30 6dbe 4ab2 57be af81 85be 989c d3bb
000002b0: ba64 4cbc 0eb4 ce3d 1fb6 0abe 477a a1bd
000002c0: f152 bebe e03f 81be 88ae 84be e86d 62be
000002d0: 8529 e73c 3052 7bbe 7ff6 283d beab 293d
000002e0: ed88 1dbd 1473 afbd b341 893d b0ba 2abe
000002f0: 781a 9c3c 0772 a63c 7e8b 65be a504 d4bd
00000300: baf6 bdbd 1fdb 4ebe 15c6 aabe 9f50 0b3e
00000310: 8737 eebd 51c3 43be cf1a 08be bb4c d83d
00000320: 92a3 af3d c8ba 6cbe 1a27 3fbe cc52 123e
00000330: 5b96 46be 6b88 22bd 418f acbd b1be e23d
00000340: bab0 02bd 0328 f13f db82 02be c25e 683f
00000350: 0553 173f 0a3e 563f b444 a43f 8173 af3f
00000360: 4d18 cf3d a065 d5be bdfc 4f3f 4f55 483d
00000370: 0a1a 93bf 6c39 29bd 7a8e b43d 0fe5 d63c
00000380: aea4 40bd af86 febd d2fe d2bd da87 523e
00000390: 1c9b 553e 49f0 d1bd ef86 45be 2a56 d9bd
000003a0: 1229 a2bd 2dae 833b d844 22be 5c1f 9cbe
000003b0: 977c ab3d 3440 9bbd 93c8 b13d ff4e 333e
000003c0: e130 a7be e17f 87be 0308 abbe 6785 80be
000003d0: 1c22 943d 8f3e 483c 9171 17bf 78b4 59bf
000003e0: 7623 2cbd 07c3 4e3f 12a0 2d3e 1464 0d3f
000003f0: 3887 ca3e 3245 b83e c74c 2dbe 0afe b6be

linear1.bias f4 [50]
0.075313784 -0.09078056 -0.0036804539 -0.2843539 -0.38458702 -0.11861676 -0.4073915 -0.43263948
-0.05648414 -0.5124743 -0.10334416 -0.3358945 -0.49759784 -0.025292108 -0.1330681 0.075447954
0.9094783 0.21576217 0.03247112 0.06377773 -0.063210644 0.2727893 0.8709404 0.24971882
-0.07556177 -0.48730373 -0.3585182 -0.061828673 0.40197286 0.68443 0.022412416 0.07592568
0.035445895 -0.14511722 -0.30028895 -0.8906258 -0.29354498 -0.25568724 -0.18678306 -0.24057637
-0.124314226 -0.685488 -0.21687391 0.7380294 -0.3454741 -0.19242743 -0.07367473 -0.42158332
-0.5138051 -0.38977823
00000000: 1d3e 9a3d 29eb b9bd c533 71bb d696 91be
00000010: 97e8 c4be 58ed f2bd 9e95 d0be ec82 ddbe
00000020: ea5b 67bd 8431 03bf 1aa6 d3bd 5dfa abbe
00000030: 25c5 febe 6531 cfbc 0143 08be 7584 9a3d
00000040: 92d3 683f c2f0 5c3e 7000 053d e69d 823d
00000050: 9574 81bd 0aab 8b3e f3f5 5e3f 4ab6 7f3e
00000060: 21c0 9abd e07f f9be b38f b7be 1040 7dbd
00000070: 63cf cd3e ce36 2f3f 3e9a b73c ec7e 9b3d
00000080: b72f 113d 9c99 14be 79bf 99be 0d00 64bf
00000090: 874b 96be 70e9 82be 0f44 3fbe a759 76be
000000a0: 7598 febd 247c 2fbf 3214 5ebe 7fef 3c3f
000000b0: fbe1 b0be b20b 45be c7e2 96bd c5d9 d7be
000000c0: bb88 03bf 0391 c7be

linear2.weight f4 [250, 50]
0.0522994 -1.1108335 0.06404884 0.026481554 -0.35220605 0.032958135 0.18998678 0.09664395
-1.3517715 0.45895806 0.14936042 -0.14161363 0.18892707 0.059059378 -0.2013251 -0.02678113
-0.7083948 0.07441371 0.06147548 0.59040755 0.18550356 -0.273895 0.10900062 0.012045055
0.05367666 0.05163468 0.06708011 0.4113867 0.10391325 0.41238576 0.12342597 0.067424774
0.258131 0.5752732 0.15122846 1.2396828 0.4942606 -0.06495266 0.11874798 0.67471683
0.091538705 0.11704559 0.4786479 0.4380995 0.18522798 -0.08291675 -0.6721634 -0.1462746
0.19802253 0.17222871 -0.20281193 -0.9000648 0.077298686 -0.18405876 -0.47339952 0.053765252
-0.5990608 -0.072654985 0.065421484 -0.5423615 -0.016124919 0.69962424 -0.13769878 0.17439413
0.031882383 -0.04325165 0.38421798 -0.05731604 -0.07276104 1.5990754 -0.12481296 -0.49767053
0.02325492 0.13434297 -0.12876771 0.1492834 0.036357716 0.1519107 -0.776767 -0.26337895
-0.11442857 0.025734872 -0.1099906 0.23094761 -0.06365132 0.31046668 0.28600606 0.033495218
0.0777997 0.40010053 0.026192138 -1.2436132 0.26901692 -0.7615346 -0.33942032 -0.11064007
-0.6672045 -0.18622175 0.15717156 0.16443363 0.5894642 2.137755 -0.046691045 0.27781773
0.08338017 -0.0137373805 0.89747477 1.1438403 0.5011363 0.3049145 -0.45577753 -0.071581855
0.86488795 -0.23477276 -0.026305204 0.04941982 -0.119753845 0.13002184 -0.4233821 -1.4301233
0.98090523 -0.042887263 0.7733272 0.058271386 0.02090131 0.047195375 -0.13229032 -0.37901556
1.587431 -0.5668228 -0.024993416 0.08535427 1.1053423 0.29379487 0.16014674 -0.53896326
0.52832055 -0.15330586 -0.5486055 -0.19937176 0.3359772 0.7290007 0.43347654 -1.7362676
0.38084877 -0.15786256 0.004294553 0.079461075 -0.09148544 -0.5586078 -0.073045604 -0.09742083
0.041227035 0.062259488 -0.0076001217 0.012036577 -0.11757588 -0.24251422 -0.29421175 -0.25301546
-0.21942326 -0.2268893 0.09142187 -0.11966628 0.05736295 0.115624204 -0.540366 -0.017499302
-0.12191621 -0.22962259 -0.14861205 0.13072063 -0.1488255 0.004457222 -0.0144118965 -0.14920302
-0.16835321 -0.104796246 -0.09453534 -0.21643542 0.15733181 0.062372968 -0.22694169 -0.40722555
-0.03435779 -0.2092051 -0.45127606 -0.054975815 -0.07966397 -0.3881386 0.016179593 -0.035646986
0.029163847 -0.15243919 -0.024827061 0.18921416 0.05538317 1.5031469 -0.2081512 -0.18345541
-0.23380543 -0.398574 -0.027158083 -0.18065421 0.13974811 0.094222754 0.06999262 -0.09468239
-0.1364136 -0.10224752 0.026692655 0.4902281 -0.0003500386 0.031738352 -0.14573085 -0.087464705
0.063488364 0.041077428 -0.014920405 0.81787044 -0.023751346 0.24568258 -0.80380225 -0.077773385
-0.020764155 -0.002539746 0.0061053014 -0.380654 -0.07493618 0.0016460805 -0.23300898 0.14100702
-0.027066056 -0.65961516 -0.21925062 0.308675 -0.118093856 0.05354028 -0.018066125 -0.26333994
-0.0760424 -0.024526553 -0.37077883 0.88800114 0.040625487 -0.15436642 -0.09171646 -0.25691497
-0.42148083 -0.19523726 0.12017114 0.13924049 0.14020935 0.08009799 -0.021700595 0.031879783
00000000: e537 563d cb2f 8ebf 0a2c 833d d8ef d83c
00000010: 5a54 b4be 1cff 063d e58b 423e 43ed c53d
00000020: d906 adbf 8dfc ea3e f0f1 183e 2a03 11be
00000030: 1976 413e 3fe8 713d 2b28 4ebe 1a64 dbbc
00000040: 5d59 35bf 3766 983d b7cd 7b3d f324 173f
00000050: a5f4 3d3e f73b 8cbe b83b df3d 9f58 453c
00000060: 0fdc 5b3d e37e 533d 4c61 893d 47a1 d23e
00000070: 78d0 d43d 3a24 d33e c1c6 fc3d 0016 8a3d
00000080: bf29 843e 1b45 133f a2db 1a3e edad 9e3f
00000090: ba0f fd3e e605 85bd 2432 f33d 3eba 2c3f
000000a0: a578 bb3d 99b5 ef3d 5611 f53e 944e e03e
000000b0: 67ac 3d3e 42d0 a9bd e712 2cbf 02c9 15be
000000c0: 6bc6 4a3e b95c 303e eead 4fbe a66a 66bf
000000d0: c64e 9e3d e679 3cbe 6c61 f2be f438 5c3d
000000e0: 0c5c 19bf 23cc 94bd b3fb 853d 34d8 0abf
000000f0: 6818 84bc 931a 333f e900 0dbe 6094 323e
00000100: 1a97 023d a428 31bd 38b8 c43e 39c4 6abd
00000110: bd03 95bd 81ae cc3f f09d ffbd acce febe
00000120: 1a81 be3c 3491 093e afdb 03be bfdd 183e
00000130: d4eb 143d 7b8e 1b3e 34da 46bf 9bd9 86be
00000140: 8759 eabd f0d1 d23c c042 e1bd 887d 6c3e
00000150: a05b 82bd 7df5 9e3e 636f 923e 4832 093d
00000160: 7355 9f3d fad9 cc3e e590 d63c b82e 9fbf
00000170: 96bc 893e eef3 42bf 80c8 adbe 4397 e2bd
00000180: eacd 2abf eab0 3ebe 95f1 203e 4a61 283e
00000190: 20e7 163f fad0 0840 1c3f 3fbd 203e 8e3e
000001a0: 39c3 aa3d c012 61bc e8c0 653f 5c69 923f
000001b0: 784a 003f c11d 9c3e ac5b e9be 8299 92bd
000001c0: 4c69 5d3f 4568 70be 037e d7bc 706c 4a3d
000001d0: 8141 f5bd 7224 053e 8ac5 d8be 480e b7bf
000001e0: 9b1c 7b3f 8eaa 2fbd c5f8 453f faad 6e3d
000001f0: 3939 ab3c f04f 413d 1d77 07be 540e c2be
00000200: f030 cb3f 4d1b 11bf febe ccbc 38ce ae3d
00000210: db7b 8d3f 486c 963e 82fd 233e 7ff9 09bf
00000220: 0440 073f 36fc 1cbe 6971 0cbf 1c28 4cbe
00000230: 3405 ac3e ca9f 3a3f a3f0 dd3e 043e debf
00000240: 9cfe c23e b9a6 21be 52b9 8c3b 7dbc a23d
00000250: b85c bbbd ec00 0fbf ef98 95bd 9284 c7bd
00000260: aedd 283d ce03 7f3d 710a f9bb 1035 453c
00000270: 9fcb f0bd a655 78be eca2 96be 3e8b 81be
00000280: 7eb0 60be ab55 68be 643b bb3d 9813 f5bd
00000290: 6af5 6a3d 62cc ec3d 6d55 0abf b25a 8fbc
000002a0: 35af f9bd 2f22 6bbe c22d 18be a1db 053e
000002b0: b665 18be e30d 923b e01f 6cbc adc8 18be
000002c0: c964 2cbe 6a9f d6bd bf9b c1bd 3fa1 5dbe
000002d0: 971b 213e cc7a 7f3d 6763 68be de7f d0be
000002e0: c1ba 0cbd dd39 56be a80d e7be 522e 61bd
000002f0: dd26 a3bd 1aba c6be 118b 843c 9302 12bd
00000300: 05e9 ee3c 0519 1cbe 1f62 cbbc 5bc1 413e
00000310: 76d9 623d 1e67 c03f 9725 55be bcdb 3bbe
00000320: b16a 6fbe e411 ccbe a17a debc 6bfd 38be
00000330: 211a 0f3e dcf7 c03d 4a58 8f3d d7e8 c1bd
00000340: 02b0 0bbe 2667 d1bd 8eaa da3c 2dff fa3e
00000350: 6385 b7b9 1300 023d 783a 15be b220 b3bd
00000360: 3006 823d ce40 283d b774 74bc f55f 513f
00000370: 2f92 c2bc 3794 7b3e fcc5 4dbf a747 9fbd
00000380: 9719 aabc de71 26bb fb0e c83b 15e5 c2be
00000390: 2478 99bd 4cc1 d73a e899 6ebe 2564 103e
000003a0: a2b9 ddbc 8adc 28bf 3c83 60be a60a 9e3e
000003b0: 31db f1bd 0d4d 5b3d 69ff 93bc 7ed4 86be
000003c0: 1ebc 9bbd e9eb c8bc b9d6 bdbe 0b54 633f
000003d0: e966 263d 3b12 1ebe d7d5 bbbd 5c8a 83be
000003e0: 56cc d7be 47ec 47be 491c f63d 0f95 0e3e
000003f0: 0a93 0f3e 6a0a a43d 72c5 b1bc 6094 023d

linear2.bias f4 [250]
0.23137382 0.24146856 -0.29740974 -0.39414197 -0.13916026 0.070804775 -0.6204717 0.11393897
-0.20102818 0.26257154 0.34126872 0.08667097 -0.2876795 -0.67437655 0.47650707 -0.4242014
-0.054515574 0.058587745 -0.5938131 -0.7558164 -0.17107177 -0.14211522 -0.016098114 -0.6730008
-0.354153 -0.3761826 -0.9794296 0.16683747 -0.54107237 0.24235012 -0.11538997 0.026859062
-0.056947116 -0.27175173 0.12828213 0.19889218 -0.101566985 -0.742488 0.3397997 -0.41769844
0.041467868 0.42416272 0.04529547 -0.12539457 -0.51212204 -0.84091836 0.30224782 -0.30350196
0.34164774 -0.14727338 0.34441683 -0.09331848 -0.92081624 -0.28305906 -1.1314521 0.18003242
0.63085085 -0.33601934 0.066700175 -0.47865343 -0.35460463 -0.90331346 1.0553994 0.70555043
0.3525366 0.5073773 0.4782363 -0.55617255 0.37369424 0.4794961 -0.16156854 0.49191824
0.13031834 -0.4573282 -0.31635126 0.27805018 0.060286406 -0.79989076 -0.09454607 0.2579626
0.68026775 0.29400653 0.4211522 0.23776728 -0.17418347 -0.88716334 -0.62221956 -0.17085184
0.13558914 0.24561071 -0.11067282 -0.20079236 -0.22553107 0.4728597 -0.238894 0.27325818
-0.28822044 -0.23689933 0.011160546 0.9593817 -0.13340303 -0.34110567 0.6887364 0.2694055
0.13854878 0.32454747 -0.19981973 0.2663613 -0.4125644 0.5086116 -0.079364255 -0.01004365
0.5243227 -0.54251 -0.2266905 -0.18567058 -0.1846383 -0.021725707 -0.11353397 1.0607609
-0.45778495 0.3082175 -1.2241895 -0.1264547 0.0049870564 -0.122848086 0.060024362 -0.39057088
-0.93306416 -0.08655963 -0.40303928 0.7706496 -0.23642601 -0.6062434 0.48240298 0.035218492
-0.018903084 -0.53713244 0.17452386 -0.6096111 -0.00015172368 -0.808894 0.17639105 -1.1230248
-0.49523205 0.3493356 -0.055106115 -0.18500823 -0.7494722 -0.31468818 1.0787445 -0.15964483
0.48282346 -0.10153108 -0.105633415 0.2959435 -0.28228694 0.09821463 -0.43381894 -0.5862098
-0.25766596 -0.25243047 -0.5567567 -0.42352274 -0.3387143 -0.32114038 -0.8167768 -0.63850296
0.18865025 0.3536269 -0.18839136 -0.12942016 -0.1986038 -1.8941847 -0.50008816 -1.4343308
0.33009756 0.6516864 -0.039302137 -0.83146995 -0.30889866 0.36041105 -0.27687502 0.7763733
-0.13240232 -0.11473131 0.48961318 -0.11362989 0.090542965 -0.11587279 0.2402249 0.48818058
-0.48400125 -0.8222544 0.4460112 0.028330721 -0.07044062 -0.7768926 -0.4844538 0.16664591
-0.48915252 -0.7008957 -0.29816806 -0.35848078 -0.18631217 -0.6128487 -0.33787766 0.28121546
0.5856281 0.059830245 0.020055259 -0.44937393 -0.35746795 -0.3329747 -0.21735808 -0.35670167
-0.3107715 -0.3281728 0.108136795 -0.1327803 0.360429 0.533061 0.412974 0.31408998
-1.5382577 -1.5823048 -0.21158597 -0.753526 -0.34798574 -0.23448406 -0.15692109 0.84984654
0.3721396 -1.1775721 -0.20963274 -0.14768758 0.48423588 -0.26888213 0.47928452 -0.014554117
0.35107923 -0.6551625 0.5034088 -0.7402651 0.15252312 0.822867 -0.55745566 -0.42815626
0.21559092 -0.020748455
00000000: 42ed 6c3e 8943 773e 1746 98be facc c9be
00000010: 0780 0ebe 1802 913d 3cd7 1ebf d658 e93d
00000020: 55da 4dbe c76f 863e c6ba ae3e 8d80 b13d
00000030: ba4a 93be f1a3 2cbf bcf8 f33e ed30 d9be
00000040: b94b 5fbd b4f9 6f3d 2304 18bf 2f7d 41bf
00000050: 702d 2fbe a786 11be 31e0 83bc c849 2cbf
00000060: 8b53 b5be 019b c0be e6bb 7abf 71d7 2a3e
00000070: b883 0abf a12a 783e 9451 ecbd 8907 dc3c
00000080: 6141 69bd 0b23 8bbe 645c 033e 64aa 4b3e
00000090: 5a02 d0bd b213 3ebf 3afa ad3e 92dc d5be
000000a0: 36da 293d db2b d93e be87 393d 6f67 00be
000000b0: 6e1a 03bf 6d46 57bf 3ac0 9a3e 9c64 9bbe
000000c0: 74ec ae3e d5ce 16be 6757 b03e c21d bfbd
000000d0: 9dba 6bbf 1eed 90be 6cd3 90bf 6b5a 383e
000000e0: 717f 213f ba0a acbe 1a9a 883d 1012 f5be
000000f0: bd8e b5be 8d3f 67bf 5417 873f f49e 343f
00000100: ad7f b43e 7be3 013f 63db f43e 5361 0ebf
00000110: da54 bf3e 8380 f53e 3972 25be b5dc fb3e
00000120: 2c72 053e ec26 eabe cbf8 a1be 985c 8e3e
00000130: e1ee 763d a4c5 4cbf 5fa1 c1bd ad13 843e
00000140: 0726 2e3f 0688 963e 43a1 d73e 4479 733e
00000150: 275d 32be 231d 63bf c849 1fbf c9f3 2ebe
00000160: e1d7 0a3e 6081 7b3e 6ea8 e2bd 839c 4dbe
00000170: 9ef1 66be ab1a f23e a1a0 74be 7fe8 8b3e
00000180: a191 93be bd95 72be b9da 363c 0a9a 753f
00000190: ce9a 08be 67a5 aebe 0751 303f 85ef 893e
000001a0: bbdf 0d3e 162b a63e 8b9d 4cbe 8260 883e
000001b0: a43b d3be 5f34 023f ba89 a2bd 1f8e 24bc
000001c0: 033a 063f efe1 0abf 8e21 68be 6e20 3ebe
000001d0: d311 3dbe 1cfa b1bc 8084 e8bd 03c7 873f
000001e0: ca62 eabe afce 9d3e 3eb2 9cbf 577d 01be
000001f0: 766a a33b c797 fbbd 1bdc 753d e8f8 c7be
00000200: 4bdd 6ebf 2d46 b1bd 2a5b cebe 4b49 453f
00000210: a919 72be c432 1bbf 86fd f63e 4441 103d
00000220: a4da 9abc 8381 09bf 62b6 323e 790f 1cbf
00000230: 0418 1fb9 ad13 4fbf db9f 343e 47bf 8fbf
00000240: 0e8f fdbe 1edc b23e f3b6 61bd cc72 3dbe
00000250: 69dd 3fbf cf1e a1be 4d14 8a3f ef79 23be
00000260: a334 f73e 87ef cfbd 5556 d8bd e885 973e
00000270: ea87 90be c024 c93d 841d debe d811 16bf
00000280: cbec 83be 913e 81be 9b87 0ebf f9d7 d8be
00000290: f66b adbe 836c a4be 4918 51bf ee74 23bf
000002a0: 882d 413e 960e b53e aae9 40be b886 04be
000002b0: cb5e 4bbe a574 f2bf c705 00bf 2798 b7bf
000002c0: 8c02 a93e ebd4 263f 47fb 20bd 37db 54bf
000002d0: f727 9ebe cc87 b83e 90c2 8dbe 67c0 463f
000002e0: 7994 07be 40f8 eabd 94ae fa3e cab6 e8bd
000002f0: 976e b93d b74e edbd 84fd 753e cef2 f93e
00000300: 03cf f7be 447f 52bf 945b e43e d415 e83c
00000310: 2c43 90bd 6fe2 46bf 540a f8be 3aa5 2a3e
00000320: 3372 fabe e76d 33bf 7ca9 98be cb8a b7be
00000330: 9ec8 3ebe a7e3 1cbf 4dfe acbe 79fb 8f3e
00000340: b9eb 153f 8f10 753d ed4a a43c 5714 e6be
00000350: 0a06 b7be a97b aabe 1e93 5ebe 9aa1 b6be
00000360: 711d 9fbe 4406 a8be d376 dd3d 8ff7 07be
00000370: 268a b83e b076 083f 5471 d33e 67d0 a03e
00000380: a1e5 c4bf f788 cabf fea9 58be 14e7 40bf
00000390: 302b b2be 971c 70be ecaf 20be 8b8f 593f
000003a0: 1589 be3e afba 96bf f7a9 56be 6a3b 17be
000003b0: c4ed f73e ebaa 89be c864 f53e 6474 6ebc
000003c0: a8c0 b33e bbb8 27bf 66df 003f 0382 3dbf
000003d0: 052f 1c3e 69a7 523f 6ab5 0ebf 4c37 dbbe
000003e0: dec3 5c3e aaf8 a9bc

output.weight f4 [4, 250]
0.14811713 -0.09800316 -0.22953793 -0.01806506 0.06263298 -0.11433889 -0.09071623 -0.025026508
-0.12194885 -0.0069248145 -0.20906524 -0.008995151 0.06942323 -0.95229757 0.00011808751 -0.037333533
0.06585537 -0.014102866 0.18256874 0.015176527 -0.053291112 0.017607685 -0.3190891 -0.051416837
0.6330216 -0.092528895 -0.22209682 0.1029881 -0.21703467 -0.10766973 -0.02441233 -0.38521802
-0.037124053 0.020331027 -0.16800115 -0.108259305 -0.21519291 -0.22483179 -0.11875824 -0.13943817
-0.003410225 0.28984365 -0.097972415 0.11512018 0.06656576 0.73671126 -0.17886098 -0.08092327
-0.06714838 0.061627604 0.09187948 -0.07206761 0.461765 -0.03213776 0.13808057 -0.04699217
-0.10041584 0.21361212 -0.014859617 -0.270348 0.39748192 0.03642374 0.05219658 -0.09289857
-0.027957426 0.07296813 0.3598905 -0.027651472 -0.10174565 -0.028785173 -0.03802732 -0.019752901
-0.8889471 -0.056698818 -0.060885563 -0.083361134 -0.078098916 -0.1123769 -0.05860043 -0.07072067
0.03738321 -0.080951385 0.16562618 -0.12509465 -0.0024113015 -0.071704105 -0.2841016 -0.02918074
0.04722298 0.12665348 -0.53148896 -0.08190032 -0.11465746 -0.06572792 -0.008885985 0.053140152
-0.030490752 0.059185833 -0.13178416 -0.06800809 -0.001118337 -0.87751144 0.36474392 -0.12554233
-0.015835552 0.0034056352 0.02390859 -0.07888359 0.024406431 0.042948086 -0.20301598 -0.0047223573
0.2930046 0.44470844 -0.029788315 -0.0042944187 -0.06127844 -0.100691825 -0.020909118 -0.009584702
0.05279715 -0.12636317 0.1401057 0.061829604 0.0029640824 -0.096318305 -0.089241594 0.01935293
-0.2884684 -0.02325488 0.3597506 0.14981891 -0.03217683 0.06090283 -0.10226556 -0.047955617
-0.11601413 -0.24447158 -0.098754816 0.32526138 -0.06343386 -0.10288338 0.0958989 0.038850117
0.007960796 -0.09208991 -0.06838269 -0.01992076 -0.32286462 0.24689138 -0.1804311 -0.045580275
-0.10841601 -0.042673696 -0.043627527 -0.1741616 -0.047093682 -0.07821838 -0.24522941 0.10206884
-0.23503928 0.0025662917 0.08112714 0.014604204 0.081304416 -1.037269 -0.18513006 -0.19043928
-0.01621544 0.002758046 0.082311995 -0.08750195 0.19489643 0.17208543 -0.33722365 0.12757811
0.012754456 -0.16827318 -0.04893458 0.062127613 0.06777614 -0.021991644 -0.041476645 -0.22299601
-0.03292933 -0.07008206 -0.018896006 0.026416222 -0.31433138 0.0060464656 -0.031433806 0.016240526
0.13157739 0.38436687 0.37358388 -0.05299835 -0.10146591 0.8393756 -0.16674492 -0.13034712
-0.08690307 -0.3462737 -0.010609049 -0.37750623 0.057700235 0.15343152 -0.0723349 -0.06731834
-0.11678858 0.028493254 -0.004242113 0.71575177 -0.48599634 -0.04640473 -0.081449516 0.060321923
-0.06835727 0.30375013 0.03987224 -0.39881817 -0.039780036 -0.099232264 -0.036188934 0.44956562
0.2965185 0.1766656 -0.16963753 -0.2431696 -0.008271681 -0.08219231 -0.047153622 -0.109749556
-0.3594069 -0.95164883 -0.026608722 -0.0820155 -0.07993191 0.0322712 -0.0038478482 0.03898515
-0.044364978 -0.4810449 0.184298 0.017770555 -0.17257214 -0.244046 0.3055741 -0.31769827
0.28432563 0.041941006 -0.062383536 0.1384628 -0.13245663 -0.12402487 -0.11718162 0.0333544
00000000: 04ac 173e e1b5 c8bd fe0b 6bbe 2dfd 93bc
00000010: b845 803d 822a eabd 6ec9 b9bd 6404 cdbc
00000020: 52c0 f9bd 8ee9 e2bb 3315 56be 6660 13bc
00000030: c42d 8e3d c6c9 73bf c0a5 f738 0ceb 18bd
00000040: 2edf 863d b50f 67bc 4df3 3a3e f8a6 783c
00000050: c847 5abd fe3d 903c a65f a3be 769a 52bd
00000060: b40d 223f ca7f bdbd 596d 63be 6deb d23d
00000070: 563e 5ebe f381 dcbd 5efc c7bc 4c3b c5be
00000080: 640f 18bd 418d a63c 7e08 2cbe 0eb7 ddbd
00000090: 885b 5cbe 4e3a 66be 8537 f3bd e1c8 0ebe
000000a0: 157e 5fbb 6366 943e c3a5 c8bd 21c4 eb3d
000000b0: a153 883d 1c99 3c3f 5527 37be 19bb a5bd
000000c0: 1785 89bd 3a6d 7c3d 4f2b bc3d 2f98 93bd
000000d0: 766c ec3e e2a2 03bd fe64 0d3e dd7a 40bd
000000e0: d2a6 cdbd 23bd 5a3e c075 73bc 0e6b 8abe
000000f0: c082 cb3e 0f31 153d 15cc 553d 9b41 bebd
00000100: f906 e5bc 5170 953d 9143 b83e 5785 e2bc
00000110: 0660 d0bd e2ce ebbc 89c2 1bbd d6d0 a1bc
00000120: 0a92 63bf 053d 68bd 2463 79bd 3eb9 aabd
00000130: 53f2 9fbd dc25 e6bd 0107 70bd 00d6 90bd
00000140: 231f 193d d7c9 a5bd e999 293e d018 00be
00000150: ed06 1ebb 9ad9 92bd c475 91be 720c efbc
00000160: e26c 413d 73b1 013e a90f 08bf 5bbb a7bd
00000170: 88d1 eabd 5c9c 86bd 8696 11bc 7da9 593d
00000180: bec7 f9bc d86c 723d 6df2 06be d347 8bbd
00000190: 2a95 92ba 97a4 60bf b7bf ba3e 2b8e 00be
000001a0: 8fb9 81bc 1431 5f3b f3db c33c b88d a1bd
000001b0: ffef c73c 55ea 2f3d 6ce3 4fbe 01be 9abb
000001c0: b304 963e d3b0 e33e a006 f4bc 32b8 8cbb
000001d0: 1aff 7abd 8437 cebd 9949 abbc 2709 1dbc
000001e0: d341 583d 5965 01be de77 0f3e 0a41 7d3d
000001f0: 0d41 423b 8842 c5bd 4cc4 b6bd 098a 9e3c
00000200: 21b2 93be 0581 bebc 3b31 b83e 216a 193e
00000210: dacb 03bd 3f75 793d 9b70 d1bd 1c6d 44bd
00000220: d198 edbd c256 7abe f73f cabd a988 a63e
00000230: 9de9 81bd 86b4 d2bd a466 c43d 4d21 1f3d
00000240: 006e 023c a299 bcbd 390c 8cbd dd30 a3bc
00000250: 834e a5be 18d1 7c3e eec2 38be 62b2 3abd
00000260: 3709 debd 9dca 2ebd c7b2 32bd 6b57 32be
00000270: 4ee5 40bd f530 a0bd 6b1d 7bbe 7809 d13d
00000280: 23ae 70be 3b2f 283b fc25 a63d 7946 6f3c
00000290: ee82 a63d 3bc5 84bf bc92 3dbe 8402 43be
000002a0: 3ed6 84bc 55c0 343b 3193 a83d 3934 b3bd
000002b0: ee92 473e 2a37 303e 94a8 acbe d6a3 023e
000002c0: 11f8 503c ce4f 2cbe a06f 48bd 8679 7e3d
000002d0: 38ce 8a3d d227 b4bc 6ae3 29bd 1159 64be
000002e0: e8e0 06bd 2f87 8fbd cccb 9abc d566 d83c
000002f0: 0bf0 a0be 6e21 c63b bcc0 00bd da0a 853c
00000300: 39bc 063e bccb c43e 6346 bf3e cc14 59bd
00000310: 5ccd cfbd 52e1 563f 2ebf 2abe b779 05be
00000320: 3dfa b1bd c94a b1be 94d1 2dbc 7f48 c1be
00000330: 1557 6c3d 271d 1d3e 5224 94bd 33de 89bd
00000340: da2e efbd af6a e93c 6c01 8bbb 823b 373f
00000350: 83d4 f8be e312 3ebd 01cf a6bd 1f14 773d
00000360: e5fe 8bbd 2385 9b3e 1351 233d e531 ccbe
00000370: 64f0 22bd 493a cbbd d93a 14bd 772d e63e
00000380: 46d1 973e d4e7 343e 76b5 2dbe 7401 79be
00000390: f285 07bc 7154 a8bd 2824 41bd 60c4 e0bd
000003a0: 2e04 b8be 429f 73bf 89fa d9bc bef7 a7bd
000003b0: 57b3 a3bd ce2e 043d 2e2c 7cbb e5ae 1f3d
000003c0: 0db8 35bd 844b f6be 9db8 3c3e 8e93 913c
000003d0: c0b6 30be 32e7 79be 3574 9c3e 59a9 a2be
000003e0: 2193 913e 55ca 2b3d e185 7fbd 31c9 0d3e
000003f0: b6a2 07be c000 febd ebfc efbd a09e 083d

output.bias f4 [4]
-0.124667 -0.016093656 -0.075886495 0.09140624
00000000: 6951 ffbd d8d6 83bc 616a 9bbd 3233 bb3d
