models/weights/model_3.pth (torch, 60011 bytes, 6 tensors)

linear1.weight f4 [50, 13]
000000 f8 19 e0 be d6 d5 e4 bf af c2 d6 bf 49 00 97 3d
       -0.43769813 -1.7877758 -1.6778163 0.07373101
000010 85 69 4e 3f 2e 9e d2 bf d7 98 8f bc 7b 41 08 3f
       0.8062976 -1.6454523 -0.017528934 0.53224915
000020 95 b1 f4 3f 5d 7f 44 3e ae ad aa 40 05 66 2f bf
       1.9116694 0.1918921 5.333701 -0.68515044
000030 a3 a4 15 c0 e6 89 d7 be ac 33 b0 3e 07 de 19 be
       -2.3381736 -0.42097396 0.34414423 -0.15026103
000040 3b df a1 bf 51 b4 1e bf dc df bc bf 77 26 67 bf
       -1.264625 -0.6199389 -1.4755816 -0.9029307
000050 56 00 4c bf a8 7d 85 3e f8 3d 4d bf 5d 08 24 bf
       -0.7968801 0.2607243 -0.8017268 -0.6407526
000060 ac c6 2b bf 07 27 8e bf 20 ba 04 bc be b0 1d be
       -0.67100024 -1.110566 -0.008101016 -0.15399453
000070 40 69 5c 3c 2a b9 3c be 80 2a 7d 3c 25 ab 87 be
       0.013452828 -0.1843001 0.015452027 -0.2649776
000080 60 ee 12 3c 1d b7 88 be 08 9a e2 3d 3e 40 3c be
       0.008967966 -0.26702204 0.110645354 -0.18383881
000090 ae 6f 31 be 9f b7 81 be c0 cd df 3c df 7b 34 be
       -0.17327759 -0.25335404 0.027319789 -0.17625378
0000a0 69 f9 55 be 22 0e ee bf 25 d9 00 bf ba 7f f0 bd
       -0.20895924 -1.8598063 -0.50331336 -0.11743112
0000b0 c4 d3 45 bf 67 01 df be 82 dd cf be 09 e8 13 3e
       -0.77276254 -0.43555757 -0.40598685 0.14443983
0000c0 19 20 c2 be 52 a6 92 3f c1 96 bb be 54 e5 df bf
       -0.37915114 1.1457007 -0.36638454 -1.749186
0000d0 a5 2c 34 bf f9 4a 13 3f 63 ad 36 3e 27 3b 04 bf
       -0.7038062 0.57536274 0.1783958 -0.5165276
0000e0 c0 49 79 bf b9 7f 08 bf 38 b5 c2 be 21 97 03 bf
       -0.9737816 -0.5331989 -0.38028884 -0.5140248
0000f0 3b 30 47 bf 5f 4e 1a bf 60 a3 a0 3e 12 c6 aa be
       -0.7780797 -0.60275835 0.31374645 -0.3335424
000100 f7 52 93 bf 09 ea 14 bf 9e 4e 08 be 62 72 9d bd
       -1.1509694 -0.5816961 -0.1331124 -0.076878324
000110 a4 50 24 bf 61 b8 98 be 83 09 cf be 22 74 1c bf
       -0.6418555 -0.2982817 -0.40436944 -0.61114705
000120 a8 79 04 be df b4 ae bd e0 cc 7c be 0d be 89 3c
       -0.12937033 -0.08530592 -0.24687529 0.016814256
000130 6d f9 fd be 3a d9 24 bf 2c d3 46 bf df b2 23 c0
       -0.4960436 -0.6439396 -0.7766597 -2.5577924
000140 d3 68 27 c0 03 a0 48 be 5c cc 00 3f 35 59 24 be
       -2.615773 -0.1959229 0.5031183 -0.16049655
000150 18 b0 e6 3c d3 6d e7 3e ec 24 7b be 76 c5 24 bf
       0.02816014 0.45200977 -0.24525803 -0.643638
000160 19 18 7c be 92 76 12 bf bd 54 7c bf 9c 08 77 be
       -0.24618568 -0.57212174 -0.985668 -0.24124378
000170 e0 9f c0 be 2f e7 f3 be ac 45 7b be 3a 4c 29 bf
       -0.37621975 -0.47637317 -0.24538296 -0.6613194
000180 1b d6 00 be 1f cd 00 bf 37 d3 f0 be 2f b1 29 bf
       -0.12581675 -0.5031299 -0.47036144 -0.66285986
000190 7d aa 38 be fa bf ae be 9f 47 77 be ca 5e 01 3f
       -0.18033786 -0.34130841 -0.24148415 0.5053526
0001a0 04 1a 21 be 87 20 7f bf 35 f8 1c 3e c9 06 17 bf
       -0.1573258 -0.9965901 0.15329058 -0.5899473
0001b0 34 de 82 bf cf b0 c8 bd 66 ae 09 bf 1a df a9 be
       -1.0224061 -0.097993486 -0.53781736 -0.33178025
0001c0 b1 a1 b4 bf 3c 11 80 be cb 96 51 3e 45 a3 18 bf
       -1.4111844 -0.2501315 0.20467679 -0.5962413
0001d0 21 c1 83 3f b9 02 1a c0 b5 6a 02 c0 4e 89 86 3f
       1.0293313 -2.4064162 -2.0377629 1.0510652
0001e0 e3 11 fe be fa 31 97 3d 71 37 dd be 7c 9c 81 be
       -0.4962302 0.07382579 -0.4320636 -0.253147
0001f0 33 65 c0 bf df b2 e5 bf ea 8a b8 3d c8 fd 4b 40
       -1.5030884 -1.7945212 0.09010871 3.1873646
000200 c1 4a 7e be e1 77 2b c1 fb 24 98 bf e3 94 6e 40
       -0.24833204 -10.716767 -1.1886286 3.7278373
000210 63 27 c2 bf 16 9d 1e 40 9e 3c 2a 3f 35 ea 3b 40
       -1.516827 2.4783378 0.66498744 2.9361699
000220 9d e7 3a 40 a3 d8 98 40 a8 8b b7 c0 fb 2d 62 3f
       2.9203866 4.776445 -5.735798 0.8835141
000230 92 1a f9 3f bf 02 23 3e 6a b4 b5 3d b9 45 35 3e
       1.9461234 0.15919016 0.08872302 0.17702378
000240 2b 6b 92 bf 36 b3 96 3e 11 ea ae bf a3 30 85 bf
       -1.1438955 0.29433602 -1.3665181 -1.0405468
000250 f4 04 8f bf 83 4f 9f bf ee 23 cf bf bc b0 9b be
       -1.1173387 -1.244614 -1.618284 -0.30408275
000260 15 dd 72 bf 1f d9 26 3d a6 9b 9b be 2e 7b 4d c0
       -0.94868594 0.040734407 -0.30392188 -3.2106433
000270 21 cf 8b bf e4 50 5b 40 7c ef e2 3f 78 56 d5 be
       -1.0922586 3.4268122 1.7729335 -0.41667533
000280 9d 68 46 bf fb ba 0b be f2 7d d3 bf a8 a5 c8 bf
       -0.7750338 -0.13645546 -1.652281 -1.5675554
000290 b5 c7 03 40 d1 9f 10 c0 73 26 00 c0 e6 99 6b be
       2.0590641 -2.2597544 -2.0023468 -0.23007926
0002a0 a7 88 ca 3e 88 c7 63 be e6 6e c8 bd f0 3a c4 3d
       0.39557382 -0.22244084 -0.09786777 0.09581554
0002b0 00 41 33 3b 80 11 2a bb d4 96 87 be ac ec a2 3d
       0.0027351975 -0.0025950372 -0.2648226 0.07955298
0002c0 36 d9 0e 3e ba 92 7e 3e 1a a9 f5 bd 50 86 32 3d
       0.13950047 0.24860659 -0.11995144 0.04358512
0002d0 24 35 cd bd 20 c3 b5 3d 0c 2f db bd 82 d5 2a bf
       -0.100199014 0.08875108 -0.10702333 -0.6673204
0002e0 12 f0 81 c0 99 2e c6 3e 00 c3 0f 3f fd a8 db bf
       -4.0605555 0.38707426 0.5615692 -1.7160946
0002f0 0e aa ed 3e d3 c7 29 3f e4 56 2e 40 5c 3d 45 3e
       0.46418804 0.6632053 2.7240534 0.19261688
000300 85 06 34 40 b4 f8 63 be 12 ea 39 c0 d1 98 64 be
       2.812898 -0.22262841 -2.9049115 -0.2232392
000310 84 88 ed 3e 7e 18 b7 bd 02 fc 6c be 77 09 df be
       0.46393216 -0.089402184 -0.23143008 -0.4356191
000320 64 77 39 bd 35 c0 1d bf f4 dd be be 74 ea e2 3d
       -0.045279875 -0.6162141 -0.37278712 0.11079875
000330 35 4b 88 be 67 62 4d 3f 49 5f 1b be e3 09 f4 be
       -0.26619878 0.80228275 -0.15173067 -0.47663793
000340 13 81 55 40 80 7e 4d 40 ed 25 21 bf aa fc f9 3f
       3.336003 3.210846 -0.62948495 1.9530232
000350 c7 83 29 40 a2 5e e8 3f b2 94 0c 40 4c ab 48 40
       2.648668 1.815388 2.1965756 3.1354551
000360 a2 e5 81 40 48 44 02 c0 06 19 98 3f 28 48 e0 bc
       4.0592813 -2.0354176 1.1882637 -0.027378157
000370 6d 75 c7 c0 93 40 8a be 21 ff 28 3e 77 93 b1 3c
       -6.233084 -0.2700239 0.16503574 0.021676762
000380 ee ff 69 3d 78 b7 31 3d a0 bd 8d be 1d 90 5d bc
       0.05712884 0.04338786 -0.27683735 -0.013523129
000390 59 fc dc bb a8 65 98 be 6e b3 00 be 54 06 9b 3e
       -0.0067439494 -0.29765058 -0.12568447 0.30278265
0003a0 54 5d 98 bc 8c 89 a3 bc 0d 7a 10 be 31 44 ab bf
       -0.01859919 -0.019963048 -0.14109059 -1.3380185
0003b0 7f b8 76 bc 48 4d c9 be 03 7d 4e bf 87 8f 12 bf
       -0.015058636 -0.39316773 -0.806595 -0.57250255
0003c0 70 33 f6 be 04 3e db be 31 32 57 bf e7 83 32 bf
       -0.4808612 -0.42820752 -0.8406096 -0.69732517
0003d0 af 08 43 be e3 36 b9 bd e9 3d 4c bf 3f 36 3c 3c
       -0.19046281 -0.09043672 -0.7978197 0.011487543
0003e0 cc 64 c1 bf 6b 7d 6e c0 74 c4 ad be 1e 63 f2 be
       -1.5108886 -3.726405 -0.33938944 -0.47341245
0003f0 e6 c5 b0 ba b1 e3 34 3d e7 10 2d be 10 17 8b bd
       -0.0013486713 0.044162456 -0.16900979 -0.06791508

linear1.bias f4 [50]
000000 a2 41 5b bf ef c0 65 bf 18 f9 3a 3e 17 11 09 bf
       -0.8564702 -0.8974752 0.18259084 -0.535417
000010 65 78 0e bf 4c e6 b7 be 35 8e bd be cb d6 d4 bd
       -0.5565246 -0.3591789 -0.37022558 -0.10392531
000020 e8 54 d9 bd 7e 65 e1 bf 08 39 48 40 85 1d 46 bf
       -0.10611898 -1.7609098 3.128481 -0.77388793
000030 4a 93 19 3f a8 05 8a bd b6 4f 32 be c5 28 28 be
       0.5999037 -0.0673936 -0.1741322 -0.16421802
000040 af ff d8 3f 54 44 33 3e b3 8d c2 be 7a 2e 8e be
       1.6953028 0.17506534 -0.37998733 -0.27769834
000050 50 42 cd bf e8 1a 46 bf 01 c6 1d be 07 ea 49 3f
       -1.6035862 -0.77384806 -0.15407564 0.7887272
000060 01 43 15 bf 08 7c f2 3c ae 6e 0c bf a5 f7 0c c0
       -0.58305365 0.029600158 -0.54856384 -2.202615
000070 24 38 e9 bd 74 57 84 be a1 31 25 bf 6f f2 ac bf
       -0.11387661 -0.2584797 -0.6452885 -1.3511485
000080 28 da 78 3f 99 b5 31 be c0 02 09 bf 16 b4 12 bf
       0.9720788 -0.1735443 -0.5351982 -0.5730604
000090 3d 28 58 bc fb de a1 bc 3d f3 06 40 52 83 e7 be
       -0.013193187 -0.019759646 2.108596 -0.45217377
0000a0 c5 69 ba be 45 83 03 bf 86 a2 bc bd 5d 80 2e bf
       -0.3640882 -0.51372176 -0.092106864 -0.68164617
0000b0 c5 82 54 3c dd ef 4f bf 98 f5 1f be e7 b3 0a c0
       0.012970631 -0.8122538 -0.1562103 -2.1672304
0000c0 c4 45 28 bf a7 e9 72 bf
       -0.65731454 -0.94887775

linear2.weight f4 [250, 50]
000000 3d ea ee 3d 25 95 b3 3e c6 e3 48 bd 8a bf 39 bd
       0.11665771 0.35074726 -0.049045347 -0.04534868
000010 b6 30 0a 3e 48 e5 15 3e 81 f8 68 be 5d a9 fb 3d
       0.13495144 0.14638245 -0.22751047 0.12288163
000020 ab 95 a8 3e c9 f5 04 3e 5f 0f 53 3f 9b 93 b8 3d
       0.32926688 0.12984385 0.8244533 0.090125285
000030 2b 8e d0 3d 00 86 0f be 73 62 58 bd 66 c8 ee 3d
       0.101833664 -0.1401596 -0.052828263 0.11659317
000040 76 7b 18 3f 47 ac a3 3d c3 c6 9e bd 9b c3 96 3d
       0.59563386 0.07991844 -0.077527545 0.073615275
000050 32 b0 8b bc a9 2c a7 3e de 05 bc 3e d8 1b a8 bc
       -0.01705179 0.3265126 0.36723226 -0.02052109
000060 19 07 d3 3e 31 37 33 3c 0f 20 da 3a f0 de c6 3e
       0.41216353 0.010938452 0.0016641634 0.38841963
000070 03 5d ed bc fb 9a 03 bd 10 37 40 3e 4d f4 17 3e
       -0.028975016 -0.032130223 0.18771005 0.14839287
000080 f1 2e 42 3f 64 5b 79 bd 92 78 8b bd 43 29 d2 3e
       0.75852877 -0.060878173 -0.06810106 0.41047105
000090 18 6f b2 bd 9b bb 10 bf dd 15 75 3f ac cd 55 3e
       -0.08712596 -0.56536263 0.95736486 0.20879239
0000a0 dd 59 12 3d 48 96 f4 3e 97 e8 d9 3d 6c eb 31 3e
       0.03573023 0.47770905 0.10640066 0.17374963
0000b0 ca 56 92 bd 15 e9 df 3d 4c 83 38 3e 3f 11 ec 3d
       -0.0714546 0.10933129 0.18018836 0.11526727
0000c0 31 8c d7 3e c6 41 a4 bc c7 09 37 bf 5f 22 35 bc
       0.42099145 -0.020050894 -0.71499294 -0.011055558
0000d0 08 15 8b 3d 37 80 8b bd 7a 68 16 3e 3f 9f aa bd
       0.06791121 -0.068115644 0.14688292 -0.08331155
0000e0 d5 34 ef bd a9 e8 8d bc 0d c7 83 3d 73 c2 b5 be
       -0.11679999 -0.017322855 0.0643445 -0.35499915
0000f0 55 e8 0c bf 2e 81 95 bd f2 9f bf 3d c0 20 51 bb
       -0.5504201 -0.0730003 0.09356679 -0.003191039
000100 dc 63 2b bf 6c 63 37 3e ef 53 23 be 15 f6 9d bd
       -0.6694925 0.1790902 -0.15949987 -0.07712952
000110 44 23 49 bc 39 77 1d be a1 01 9e bf 6c c7 9f 3d
       -0.012276474 -0.15377511 -1.2344247 0.078017086
000120 4f 7f 43 be 7c d2 71 bd 65 20 1b be 51 94 88 3b
       -0.19091533 -0.059038624 -0.15149076 0.0041680713
000130 15 7d 5c 3d 2f 78 28 bf 6f 84 20 3e 4e 1c 8b bd
       0.053830225 -0.65808386 0.1567552 -0.06792508
000140 92 0d dd be 3f 36 89 bf ca d9 b4 be 5a 02 de 3d
       -0.43174416 -1.071968 -0.3532241 0.10840292
000150 c3 f6 50 3e 85 5f 99 bf af b2 9b 3e bf c7 92 3d
       0.20406632 -1.1982275 0.30409762 0.07167005
000160 9c 40 04 bf 85 ff cd be af 33 27 3e e8 26 2f bd
       -0.51661086 -0.40234008 0.1632831 -0.042761713
000170 01 ea ca 3d d8 6a 49 3d b7 91 92 be 68 41 63 3d
       0.09907914 0.04917416 -0.28626797 0.055482298
000180 61 25 07 bf ed 3d b6 be 1f 75 16 3c 43 cc d3 3d
       -0.5279141 -0.3559412 0.009183197 0.10341694
000190 27 e3 66 3e 76 d7 7e 3d 7c 1e 60 3d 7d 5a 36 3f
       0.22547589 0.0622172 0.054716572 0.71231824
0001a0 fe 39 28 3d 30 5d 8f 3d 72 df 50 3c e8 67 cd bc
       0.04107093 0.07000196 0.012748586 -0.02507396
0001b0 6f 27 e2 bd 47 d6 f9 3e 68 28 1b c0 71 6a f8 3d
       -0.110426776 0.48796293 -2.4243412 0.12129677
0001c0 04 c9 bc 3f 00 8a fa ba 2b e2 15 3f 04 96 a1 3d
       1.4748845 -0.0019114614 0.5854823 0.07889941
0001d0 b4 82 09 bf 66 de 06 3e f1 b6 dc 3c 7e 29 19 be
       -0.5371506 0.13170776 0.026942702 -0.14957234
0001e0 9b 56 35 bf 1c 94 dc be c1 4a 3c bf a3 56 c7 bf
       -0.70835274 -0.43081748 -0.73551565 -1.5573314
0001f0 48 40 62 bf be 2b 81 3d 25 58 12 bf c5 e9 5a 3f
       -0.88379335 0.06307171 -0.5716575 0.85512954
000200 a8 d8 d8 bd 4b d2 aa bb 77 2d 25 3e 6f 2a c5 3e
       -0.10588199 -0.005213057 0.16130625 0.38508937
000210 65 a7 31 c0 89 a9 0b 3e 78 db ac bd 58 2b c2 3f
       -2.775842 0.13638891 -0.08440298 1.5169477
000220 fe f7 b4 be 58 58 11 be 1d dd db bc ae ab 40 3f
       -0.35345453 -0.14193857 -0.026838833 0.7526196
000230 e8 f6 1c 3e d1 e6 43 be b2 b0 1d 3e bc 90 cf be
       0.15328562 -0.19131018 0.15399435 -0.4054011
000240 4a 0c 24 bd 71 7b ae be a2 d5 35 be 64 44 84 3f
       -0.040050782 -0.34078553 -0.17757276 1.0333371
000250 90 41 91 bf 01 54 eb 3d 6e 87 79 bf 30 98 8a 3d
       -1.1348133 0.11490632 -0.97472274 0.06767309
000260 a0 1d 5e bc b5 a0 aa be cb cc c1 bc bf ee 94 bc
       -0.013556868 -0.33325735 -0.023657223 -0.01818025
000270 82 99 0e bd fe 35 80 3e 3e 91 0e bf ed 4f 7c bf
       -0.034814365 0.25041193 -0.5569037 -0.9855946
000280 0c 29 bd be 33 11 87 be 2c 17 e0 be 10 62 04 3c
       -0.3694538 -0.2638031 -0.4376768 0.008080021
000290 5b 71 38 3d 01 2d aa bc b3 2d 21 bf 01 17 eb 3d
       0.04502998 -0.020773413 -0.62960356 0.11478997
0002a0 58 29 3b bd ce 6e 23 be ae e0 80 bf 4c ed b1 be
       -0.045693725 -0.15960237 -1.0068567 -0.34751356
0002b0 17 9c 86 3d 28 e3 b6 be 0e d9 04 c0 4e 77 98 bd
       0.065727405 -0.3572018 -2.075748 -0.074446306
0002c0 bf dc d0 bd 75 47 54 bf 79 0d 40 bf 1d ca ef bc
       -0.10198354 -0.82921535 -0.7502056 -0.02927118
0002d0 b4 cc 04 bf cf 52 c1 3d 2a c9 a6 be c0 1b 6e 3d
       -0.5187485 0.094396226 -0.3257535 0.058131933
0002e0 e5 99 f6 3d 5e e4 79 bf 58 59 88 be b9 1a 16 3e
       0.12041072 -0.97614086 -0.26630664 0.14658631
0002f0 62 69 57 bf 03 45 39 3e 02 a8 df bb 2b df 49 be
       -0.84145176 0.18092732 -0.006825448 -0.19714038
000300 93 6b 14 3c d3 24 9f bd 62 a1 44 be 03 f6 03 3e
       0.009058851 -0.077706955 -0.19202188 0.12886815
000310 84 14 c0 3e 72 e4 20 bf ff cb e5 3c 80 aa 83 be
       0.37515652 -0.6284858 0.028051374 -0.2571602
000320 2c fd 26 3d 5d 67 14 be fe 3c b7 3d cb 34 e0 be
       0.040768787 -0.14492555 0.0894718 -0.43790278
000330 d5 5a fd 3d 62 f8 2d be a4 4f 88 bd d6 d1 0c be
       0.123708405 -0.16989282 -0.06655815 -0.13751921
000340 73 9c 7b bf 2b c0 1d bf b6 7e 00 c0 53 18 ae 3e
       -0.982856 -0.6162135 -2.0077338 0.34002933
000350 25 ac 28 3f a4 5d 9e bd 75 c2 47 3d 54 f4 26 be
       0.6588767 -0.07732704 0.048769433 -0.16304141
000360 2b b6 1b bf ba 84 c9 3c 5d 32 34 be 85 9c 1b be
       -0.6082484 0.024599422 -0.17597337 -0.15196426
000370 26 74 df bd fe 9c b2 be 51 dc 37 bd f7 1f 56 bf
       -0.109108254 -0.348854 -0.044887844 -0.83642524
000380 be 7e dd bd 79 54 dd bd 1e 8f 29 bf 96 76 a7 bf
       -0.1081519 -0.108071275 -0.66234004 -1.3083065
000390 63 1f 4c be 25 16 85 3d 7c 77 ab bd f9 e7 be 3c
       -0.19933848 0.06498364 -0.08372399 0.023303973
0003a0 9c b4 09 bf 00 67 1d bb 21 a5 39 be 42 db 9d 3d
       -0.53791213 -0.0024017692 -0.18129398 0.07707836
0003b0 f9 7c 0a bf 00 a4 1c be c8 e8 12 be 0a fd 7c 3d
       -0.54096943 -0.15296936 -0.14346611 0.061764754
0003c0 2b de 64 3e aa bd 7c bd 0d d8 91 bc 0d 08 e2 bc
       0.22350375 -0.061704315 -0.017803216 -0.02759173
0003d0 93 de bb be b2 4e d1 bc 5c bb e8 bc aa ef 16 bf
       -0.36693248 -0.02555022 -0.028409652 -0.5895945
0003e0 3b 14 d9 be ec e5 64 be 91 61 13 3e 59 c8 ce 3c
       -0.42398247 -0.22353333 0.14392687 0.025242018
0003f0 1a c4 f2 3d e0 6f 3f 3e 9c 0a 8c 3d ce 2e 0d 3c
       0.1185381 0.1869502 0.06837961 0.008617116

linear2.bias f4 [250]
000000 97 d7 ee 3e 5a a7 99 be ca 99 17 c0 a6 fb fd be
       0.46648857 -0.30010492 -2.3687615 -0.49606055
000010 e7 c4 b5 bf 1b 81 ad 3d b7 56 a5 be 59 8a 69 3e
       -1.4200715 0.084718905 -0.3229272 0.22806682
000020 7e ae 51 3e 73 6c 86 bf e4 ad 1c bf f8 ad 2f bf
       0.2047672 -1.0501846 -0.61202836 -0.6862483
000030 54 a4 25 bf 0c 1c 66 3e 20 d1 f1 3f 39 bf 4e 3f
       -0.6470387 0.22471637 1.8891945 0.8076053
000040 57 37 2e 3f 77 38 91 bf 9f a1 19 3f ab 3e f2 bf
       0.6805319 -1.1345357 0.6001224 -1.8925375
000050 db e8 c9 3d a0 7b ce 3f a2 1d da be 18 1b 69 be
       0.09858867 1.6131477 -0.42600733 -0.22764242
000060 14 5b 0c 3e 25 3b 45 3d 1b 45 c2 3b 1e 79 50 c0
       0.13706619 0.048152108 0.005928648 -3.2573924
000070 79 65 1c 3e e1 38 11 3f 5f aa 8a 3f a3 ff fc 3b
       0.15273084 0.56727415 1.0833243 0.007720904
000080 88 ee a6 bf 5b 4a 8c bf d7 09 1c bf b0 af 29 3f
       -1.3041544 -1.0960191 -0.60952514 0.662837
000090 13 22 f7 3d d7 c3 31 bf ef dc ef be 75 53 c7 3f
       0.12067046 -0.6943945 -0.46848246 1.5572344
0000a0 1c 27 13 bf 12 b9 87 bc df 15 80 be ee 9a bb 3e
       -0.5748155 -0.01656774 -0.25016686 0.3664164
0000b0 6a 7d 97 be 94 f0 91 3d ba 3d a0 39 50 d4 b9 bf
       -0.2958787 0.07125965 0.00030563568 -1.4517918
0000c0 0c f5 4b 3e 91 58 36 3f 3f 97 52 bd d9 5d a6 bf
       0.19917697 0.7122889 -0.05141377 -1.299739
0000d0 fe 52 b1 be 3f bb e1 be 3c 39 ce 3e c0 2b f4 be
       -0.3463363 -0.4408817 0.4027804 -0.4768963
0000e0 c7 a6 b6 be 47 bc 46 3d c1 56 00 3f cb 58 28 bf
       -0.35674116 0.0485194 0.50132376 -0.6576049
0000f0 79 6f 6f bf 98 6c 16 bf 6c d7 0b 3f 3b ad e8 be
       -0.9352947 -0.5875945 0.5462558 -0.45444664
000100 f0 59 a2 bf 90 f7 f2 be 86 85 89 bf 9f 86 21 40
       -1.2683697 -0.474545 -1.0743873 2.5238416
000110 57 c2 1e 3c b1 f8 4c c0 b6 4a 85 be 40 39 51 3e
       0.009689889 -3.202679 -0.26033562 0.20431995
000120 3f b5 80 3e 5a d5 90 3d f0 b6 c8 bd ee 51 41 bf
       0.2513828 0.070719436 -0.098005176 -0.7551564
000130 b0 f1 ef be de de 89 bd 29 88 8c 3f 6f 04 24 be
       -0.4686408 -0.06731962 1.0979053 -0.16017316
000140 25 1f 1e c0 f7 b6 14 bf d6 ee 81 be e8 e4 a7 be
       -2.470651 -0.5809168 -0.2537753 -0.3279183
000150 ce b3 9e 3d ca dc ae bf 01 47 00 be f6 83 8e 3e
       0.07749139 -1.366113 -0.12527086 0.27835053
000160 a0 07 0a c0 72 90 22 c0 8e 1e 43 be bb 58 99 bf
       -2.1567154 -2.5400662 -0.19054624 -1.1980203
000170 80 d3 d3 bd ac bd 0e 3f 7d 78 fe bc 7e c1 5e bf
       -0.10343075 0.55758166 -0.031063313 -0.87013996
000180 5f 26 20 3f 47 10 92 bc db 99 2c c0 62 44 e3 3e
       0.6255855 -0.017830027 -2.6968906 0.4438811
000190 cf 74 04 3f 75 c2 31 bf b6 66 19 be 8b 8e 76 be
       0.51740736 -0.6943734 -0.14980587 -0.24077813
0001a0 27 94 90 3f 6a 91 08 3f f6 30 f6 3d e2 d5 b8 bf
       1.1295213 0.53346884 0.12021057 -1.4440272
0001b0 23 87 2d 3d 9b ed b7 3e 24 bc 8a bf 2a 91 e1 be
       0.042365205 0.35923466 -1.0838666 -0.44056064
0001c0 1a 86 03 3f f8 17 0b 3f 18 08 0a bf f2 e5 84 bf
       0.513765 0.5433345 -0.539186 -1.0382674
0001d0 32 d9 aa bc b7 76 05 bf 6f 4d a1 be 6a f0 c4 be
       -0.02085552 -0.5213427 -0.3150439 -0.3846467
0001e0 f5 46 96 be 3e bc 89 be fc c3 84 bf e5 bb 4c be
       -0.2935101 -0.2690143 -1.037231 -0.19993551
0001f0 63 af bb 3f bc e8 18 c0 4c 87 85 bf dd 32 02 3d
       1.4662899 -2.389205 -1.0431914 0.03178679
000200 5e 35 27 bd 7b ed 65 be 14 00 b5 3e 21 60 1c be
       -0.04082238 -0.22453873 0.35351622 -0.15271045
000210 60 67 ee 3b 40 92 e4 3d 71 c7 98 bf 07 b1 a0 bf
       0.007275507 0.111607075 -1.1935865 -1.2554024
000220 f3 63 34 bf 70 ef f5 be 61 1e 1e be 61 e4 66 3e
       -0.7046501 -0.4803424 -0.15441276 0.22548057
000230 f3 27 56 bf 0b df f6 bd 5d 96 e3 be af d3 fb bc
       -0.8365471 -0.12054261 -0.44450656 -0.030740587
000240 97 c9 58 3d 82 c8 85 bf 40 2b 45 3e f9 c9 85 bd
       0.052926626 -1.0451815 0.1925478 -0.06532664
000250 6b 5f ca 3d 00 12 50 3d 9a be 1d bd 6f 9e 29 3e
       0.09881481 0.050798416 -0.03851185 0.16564344
000260 e6 81 b0 bd e9 7a 97 be f7 9f 0d 3e a5 5b 04 bf
       -0.08618526 -0.2958596 0.13830553 -0.5170234
000270 d6 2b 9a be 44 90 21 bf 69 79 9c be 28 cc 90 3f
       -0.3011157 -0.63110757 -0.3056138 1.1312304
000280 65 0f d0 bf 4c 7e 6a 3e 85 d6 41 3d 21 dd e6 be
       -1.6254698 0.22899741 0.047323722 -0.45090583
000290 51 47 37 be 87 44 cb 3c b8 80 1e 3f ba 58 de 3d
       -0.17898299 0.02481295 0.6191516 0.10856767
0002a0 c1 7b e5 bf 41 e4 cb be 71 7a 38 be c6 27 56 be
       -1.7928392 -0.3982258 -0.18015458 -0.2091361
0002b0 f6 c8 eb bf 42 6e 27 be 51 49 22 bf f3 61 ac bf
       -1.8420703 -0.16350654 -0.6339312 -1.3467392
0002c0 f2 7a 9c be bb cd c8 be 53 dc 80 3e 2a 6a 8f be
       -0.3056255 -0.3921946 0.25168094 -0.28010684
0002d0 b1 34 99 3f 7e 00 9f 3e 3d 13 8c bf 4d 51 05 3f
       1.1969205 0.31055063 -1.0943371 0.5207718
0002e0 8b 3e d5 be bc 90 b3 bf 2a 10 0c 3e 52 d6 d2 bf
       -0.4164928 -1.4028544 0.13678041 -1.6471655
0002f0 6d 68 9d bf fc b1 4a bf fc 98 0f bf 7a 76 cb 3c
       -1.2297493 -0.7917783 -0.5609281 0.024836767
000300 13 f5 37 bf 89 cc 42 bf 1a 5a d7 bd 03 4b 24 c0
       -0.7185833 -0.76093346 -0.105152324 -2.5670784
000310 5b 4d 64 bf d0 0c 2a bf 0e 42 91 be 19 e7 85 be
       -0.89180535 -0.664258 -0.28370708 -0.26152876
000320 60 52 51 be 18 39 68 bd 42 d3 5b bf 3b 5f c6 be
       -0.2044158 -0.056695074 -0.8586923 -0.3874453
000330 a7 79 de be 75 2a a2 be ef e3 57 bd e3 de ad 3d
       -0.43452188 -0.31673017 -0.05270761 0.08489778
000340 7d 21 d0 be 78 42 96 3d ca 8a ba 3e 4f 60 e6 3e
       -0.4065055 0.07336897 0.36434013 0.44995353
000350 8e 71 28 bf 10 81 82 3e 3d 80 13 c0 04 47 42 bd
       -0.6579827 0.25489092 -2.304702 -0.047431007
000360 ef 06 2e be 8e 94 91 be 8d cc 69 be 5e 38 49 be
       -0.16994832 -0.2843365 -0.22831936 -0.19650409
000370 f5 68 d1 be eb ab 2b bf 21 e7 34 3c 61 d2 96 be
       -0.40900388 -0.670592 0.011041434 -0.2945738
000380 7f e8 03 bd a9 0c d7 be 02 4b dc 3f 7e 3e 4e bf
       -0.032204147 -0.42001846 1.721039 -0.80564106
000390 6a 29 2d 3e 5f 87 d6 3e 23 92 cc bf e5 9f 07 3e
       0.1691033 0.41900155 -1.5982097 0.13244589
0003a0 a7 39 d7 be c6 75 96 bf e6 f0 81 bf 83 d4 d1 bb
       -0.42036173 -1.1754692 -1.0151641 -0.006403507
0003b0 3f 32 eb be 57 16 46 bf 88 35 23 bf bb 38 68 be
       -0.45936772 -0.7737784 -0.6375356 -0.22677891
0003c0 93 86 86 3f 6f 96 45 3f b7 b0 54 be 41 73 38 3e
       1.0509819 0.7718267 -0.20770536 0.18012716
0003d0 32 d4 0a 3f f1 09 e1 bf 52 16 23 c0 3d 5b 9c bf
       0.54230034 -1.7581159 -2.5482373 -1.2215344
0003e0 12 a5 98 bf 29 93 cc bf
       -1.1925375 -1.598241

output.weight f4 [4, 250]
000000 02 3f e0 bc 95 31 89 bb 8e 1f bb 3f b6 dc 8e bd
       -0.027373794 -0.004186819 1.4619005 -0.06975691
000010 b3 21 10 bf b8 59 b7 bd b6 3c 6f 3d 54 26 c5 3b
       -0.5630142 -0.08952659 0.058407508 0.006016532
000020 2b 0d 8f 3d 61 fd 96 3e 07 52 e8 bc 7e 7b 87 3d
       0.069849335 0.29490188 -0.028359426 0.06615351
000030 9c dd 95 bc 54 93 c3 bd 2c 85 9c be 64 1a 73 be
       -0.018294148 -0.09549585 -0.30570352 -0.23740536
000040 0c 5f 0b ba 5a 19 3a 3d 89 eb 48 be 5b 0d b4 be
       -0.0005316592 0.045434333 -0.196211 -0.3516644
000050 92 70 d3 3c b4 9e db bc 08 0c 5d 3e 29 1a 88 bc
       0.025810514 -0.026809074 0.21586621 -0.016614037
000060 b3 85 85 bc 76 51 9c bd 3f d4 2c be 3e 1c 8a be
       -0.016299104 -0.07632725 -0.1687784 -0.26974672
000070 53 d8 92 be 93 e7 82 3e 2c 30 21 bf 93 26 31 bc
       -0.28680667 0.25567302 -0.6296413 -0.0108124195
000080 a8 76 36 3f e8 99 2a 3e 07 fb 2b be b6 12 46 be
       0.71274805 0.16660273 -0.16794978 -0.19343075
000090 a2 b8 67 bd b2 79 9c be 02 4b f3 be 3b 91 8c be
       -0.056572564 -0.30561596 -0.47518164 -0.27454552
0000a0 8d 5d 0f bf 2e c6 c7 bd 4f 6f fb 3c 9f ca 94 be
       -0.5600212 -0.09754597 0.030692725 -0.29060838
0000b0 f6 f5 f1 3d e3 06 59 bc 4e 6b 6a bb 36 bf fe be
       0.118144915 -0.013246271 -0.0035769525 -0.49755257
0000c0 8b c1 91 be c3 da da be 04 b2 0b bd 31 85 1a c0
       -0.28467974 -0.42745027 -0.034105316 -2.4143794
0000d0 d0 71 90 bc 5d 5e 0a be 34 e4 4b be 79 31 ae be
       -0.017632395 -0.13512559 -0.19911271 -0.3402212
0000e0 de f5 77 3c 59 db ab be 6a 6f c6 3d 97 b2 fd 3e
       0.015134303 -0.33565786 0.09689219 0.49550316
0000f0 12 f4 c9 bf 65 ee 68 3f 8b 2d 8b bd fd 9d ad 3e
       -1.5777609 0.9098876 -0.06795796 0.33909598
000100 b5 fd d8 be cb d0 06 3e c3 5c cb 3e 2d 8b 87 3d
       -0.42381063 0.13165586 0.3971921 0.066183425
000110 a0 d4 c3 be 67 60 35 3f 52 d6 92 be 59 c1 92 bb
       -0.38248158 0.70850223 -0.28679138 -0.0044786152
000120 6b e9 41 3f ec 03 8e bf 34 47 06 3d 34 fc d3 3d
       0.7574679 -1.1094947 0.03278275 0.10350838
000130 8d e3 ac bd dd a7 69 bd fa 7d 61 bd 84 b3 8b be
       -0.08441839 -0.057044853 -0.05505178 -0.27285397
000140 7d 08 8e 3e 0f cf 88 3f d1 34 7f bd c8 0b a8 bd
       0.2774085 1.0688189 -0.06230623 -0.08205372
000150 54 ed af bd 9e d1 7a bd 12 c1 a4 bd cb 0d 86 be
       -0.085901886 -0.061235063 -0.08044638 -0.26182398
000160 84 24 fc 3c e8 98 36 3f a9 6e ed 3d 08 2c 0c be
       0.03077913 0.71327066 0.115933724 -0.13688672
000170 0f 82 0b bd c1 d2 9b bf 05 79 12 3e a9 dc f4 3d
       -0.03405958 -1.2173692 0.14303978 0.1195615
000180 e6 b6 07 be 7d 8c 7d bd 2c a4 99 bf 7d cb 1b bd
       -0.13253364 -0.06190156 -1.2003226 -0.03803586
000190 57 23 6b 3d 09 bb 4b be 41 fb 99 bd bf a8 bb 3c
       0.05740675 -0.19895567 -0.07518626 0.022907613
0001a0 7f ef b3 bd 87 56 80 bd 22 0d 9a bc d4 39 0c bf
       -0.08785915 -0.06266504 -0.01880509 -0.5477574
0001b0 50 5a 8e bd 87 77 66 be d5 40 e2 be 76 f9 0e 3e
       -0.069508195 -0.22506534 -0.44190088 0.1396235
0001c0 dd b7 02 c0 76 e2 11 3f 1d fe 11 3e f6 28 2d 3e
       -2.0424721 0.56986177 0.14257093 0.16910157
0001d0 78 5f b0 bd 7f fc 73 be 16 16 47 3e 79 f9 b5 be
       -0.08611959 -0.23826788 0.19442019 -0.35541895
0001e0 07 fe a5 bd ed 22 d3 be 1b 90 f2 be 01 b5 9b 3c
       -0.081050925 -0.41237584 -0.4737557 0.019007208
0001f0 5b e0 39 3d c3 9a c2 3d 1a fe bd 3e 48 ed 22 3d
       0.045379978 0.09502175 0.37107927 0.03977707
000200 d4 a6 b6 bd 66 b3 89 bb 9e d5 26 bc 73 a9 66 3d
       -0.08918539 -0.004202294 -0.010182766 0.056313943
000210 97 73 3d be 66 a4 b0 bd a8 48 c3 bf e8 aa 40 3f
       -0.18501125 -0.086251065 -1.5256548 0.7526078
000220 3a c8 36 c0 63 1c 7f be 13 ad 9c bf e9 e3 8b bd
       -2.8559709 -0.24913172 -1.2240318 -0.0683058
000230 89 f0 be bc 17 ca 09 3d 5d ea 80 3b 69 49 f0 bd
       -0.023308055 0.033639994 0.0039341883 -0.11732752
000240 38 5d 53 3c e8 52 69 bf 3c 27 19 bc 38 13 21 38
       0.012900643 -0.9114213 -0.009347733 3.840329e-05
000250 d6 17 b3 bd 56 d6 25 bc b1 4d 67 3e 7e ee ce ba
       -0.08744781 -0.010121902 0.2258823 -0.0015787629
000260 d9 f6 33 bf f8 55 2b be be 01 9f bd 7e 4a 17 3d
       -0.70298535 -0.16732013 -0.07764004 0.036936276
000270 65 e1 37 bf 0c c4 92 bf 6a 17 00 bf 09 e1 59 bf
       -0.718283 -1.1466079 -0.5003573 -0.85109
000280 42 93 82 3f 21 25 0e be eb 0a 06 bc 39 6c 8a bf
       1.020119 -0.13881351 -0.008181314 -1.0814277
000290 29 66 d5 be 73 69 6d bc 87 75 fa bc 96 10 80 bd
       -0.41679505 -0.014490473 -0.03057362 -0.062531635
0002a0 6d 69 cb bf f9 a5 95 be 4d 22 06 3d ef d2 49 bd
       -1.5891548 -0.2922819 0.032747556 -0.049273428
0002b0 12 94 af 3f 7e 15 0b be 30 4e ab be 67 45 f0 3d
       1.3717062 -0.13582417 -0.3345809 0.117319874
0002c0 49 e4 9a 3e 83 65 ed bd 9c 78 f0 bd e1 1d ad 3c
       0.30252293 -0.115916274 -0.117417544 0.021132411
0002d0 6f e4 80 be 52 5e 76 bc 57 fe 6a 3e 34 0a 8d be
       -0.2517428 -0.015037136 0.22948585 -0.27546847
0002e0 ec 45 97 3d dd db 8d be cb e4 3d bf b8 1a a9 bf
       0.073863834 -0.27706805 -0.74177235 -1.3211279
0002f0 f1 55 44 3e 1a 3a fc 3e d7 bd 24 bf 14 62 87 bc
       0.19173409 0.49263078 -0.6435217 -0.01652626
000300 26 23 bd bc 60 e0 1f be 87 46 88 bf 80 68 04 40
       -0.02308805 -0.15612936 -1.0646523 2.0688782
000310 27 2f 8d 3e ad a4 36 be 7d 98 0b bc e1 f7 f1 3c
       0.27575037 -0.17836256 -0.008520243 0.029537143
000320 bd 73 6a bd 86 a5 ce bd 9e 32 f8 be 76 6c 0a 3f
       -0.057239283 -0.10090165 -0.48476118 0.5407175
000330 e5 97 d1 be 33 86 4c 3d 55 c1 cb bd 5d 8f 8c bd
       -0.409362 0.04993267 -0.099489845 -0.06863282
000340 b6 11 bb 3d 4a 80 47 3b c8 e0 27 be 95 cc 51 bf
       0.091342375 0.0030441456 -0.16394341 -0.8195279
000350 dd 72 7d bf 86 ac b9 3c 78 9c 5d bd 8f 0a b7 be
       -0.9900339 0.022665273 -0.0541043 -0.35750243
000360 66 d3 5e 3d 2a 9b 9c bb d4 64 da bd c3 00 98 bd
       0.054400824 -0.004779239 -0.10663763 -0.0742202
000370 09 30 8e be 0a 11 2a 3d 7f e0 10 c0 e9 9b 29 bd
       -0.27771023 0.041520156 -2.2637022 -0.041408453
000380 13 15 98 bd 1a 83 b8 bd 2a 3e bf bc 42 10 c6 be
       -0.074258946 -0.09009381 -0.023345072 -0.3868428
000390 dc fc 2f 3e 8c 99 24 bf 6e 54 ae 3f 74 27 71 bd
       0.17186302 -0.64296794 1.3619516 -0.058875516
0003a0 57 78 0a bd 4c 33 2d bf cc 3c ad bc 4c f7 c1 bd
       -0.03380617 -0.676564 -0.021147154 -0.09470996
0003b0 4e bd 3f 3e c0 17 c8 be 4a 8b 14 bf 23 3f 1b 3c
       0.18724558 -0.3908062 -0.5802504 0.009475502
0003c0 8b 4f bc 3e 1d d8 02 be df d3 66 bd 18 3c 2b 3e
       0.36779436 -0.12777753 -0.0563544 0.16722143
0003d0 d1 9b 20 bf 39 ef 0d bf 7e 7e ba 3f 84 81 d7 be
       -0.62737757 -0.5544315 1.4569852 -0.42091
0003e0 3b 7d ae 3d 43 c9 8d 3f bf 7a bb be b9 d9 22 bd
       0.085199796 1.1077045 -0.36617085 -0.039758418
0003f0 ea 8c 91 c0 9e eb 01 3d 53 ba 4b bf 01 f9 3f bd
       -4.5484514 0.031718843 -0.79581183 -0.046868328

output.bias f4 [4]
000000 67 34 07 bd fe 0c 9f bb bc 30 a4 be 1f 77 11 3e
       -0.03300896 -0.0048538437 -0.3206843 0.14205597
