models/weights/model_9.pth (torch, 59981 bytes, 6 tensors)

linear1.weight f4 [50, 13]
-0.1685495 0.49329388 0.31794846 -0.00847196 0.13470803 0.29350293 -0.01347674 -0.28836066
0.20039117 -0.18997335 0.27256688 -0.086044356 -0.26798636 -0.42817625 0.44376883 0.21719329
0.28836438 0.3646199 0.19401684 0.15923934 0.33526447 -0.11194538 0.17707886 0.17685083
-0.2168744 -0.6441845 -0.011144639 -1.169971 -0.31153718 -0.017352073 -0.06927519 -0.07747094
-0.2754981 0.42451993 0.23839153 -0.3114131 0.19540425 0.16996118 -0.9640815 -0.12237843
-0.120345935 0.29721522 0.06526466 -0.34393546 -0.19430304 -0.019445056 0.22943845 0.23228104
-0.07217455 0.6513575 -0.39756173 0.065128855 -0.26657283 -0.55015916 0.014984668 0.035484776
0.34656155 0.11103462 -0.099208586 0.20850448 -0.80357057 0.114585176 -0.26659492 0.017866153
1.0014558 0.50546205 -0.5297643 0.26065305 -0.32295206 -0.03525349 -0.3562167 -0.6791039
-0.6461951 0.6094879 -0.0731777 0.2613983 0.024798367 0.78388995 -0.46298644 -0.041958638
0.22269227 -0.09003375 0.14029835 -0.12818582 0.053303495 -0.04479355 -0.78317094 0.27591333
-1.2867361 -0.1728084 0.21307541 -0.09390984 -0.3269754 -0.21149808 0.037018854 0.018948872
-0.32517985 0.21500921 0.34137478 0.07721993 -0.008492678 0.51601493 -0.23673563 0.5460852
-0.3701544 -0.3179997 0.03903729 -0.5228429 -0.07661085 -0.52919483 -0.41082454 -0.5192864
-0.37226188 0.348569 -1.0841492 0.06657406 -0.4178237 0.26973933 0.53022766 0.07782516
-0.45279846 -0.5520888 -0.0710622 -0.016667662 -0.19785132 -0.3575612 0.15659216 -1.6486293
-0.3750133 -0.12845448 -0.8685537 0.044548985 -0.2856912 -0.28816938 0.024058148 0.1495393
-0.26362267 -0.1227477 -0.20472245 -0.047081303 -0.013302656 0.19479 -1.3536713 0.07249288
-0.22615542 -0.063832 -0.06685541 -0.5132005 -0.13056087 0.1457307 -0.3444692 -0.7118352
0.17773983 0.13113882 0.021324005 1.7218853 0.13347852 -0.4598824 -0.13821833 0.015965698
0.21115382 -0.21192853 0.26064602 0.040094804 -0.14160413 -0.0049385433 1.0152861 -0.0806246
-0.23345652 -0.054533213 -0.5284923 -0.09193483 0.23337722 0.15952343 0.07329183 0.09082566
0.005833869 -0.0756908 0.17441918 -0.40769345 0.00051201024 2.2756069 -0.10099003 -0.67558277
-0.49580842 -0.2419666 0.11436802 -0.44689274 -0.028362788 0.08797011 0.8997492 0.12549527
0.6145775 -0.03192866 -0.9966914 0.11549978 0.56753236 0.04614802 0.41680756 0.30028278
0.30391875 0.417774 0.2452005 0.4602478 -0.27815202 0.93195903 -0.013061745 0.03094177
-0.27114564 -0.17231652 -0.0075858748 -0.1990664 -0.23381713 0.19357802 -0.16867903 -0.18081053
0.061041694 -0.23465179 0.05759699 -0.21570994 0.06947619 0.2540607 -0.13575065 0.5196247
-0.22054131 0.1010051 -0.26713738 -0.09527643 -0.4806734 0.34132284 -0.18990728 -0.06337233
-0.028752813 -0.95567113 0.66097414 -1.2629426 -0.10503782 0.2545998 0.26419663 0.20363542
0.32327315 0.15323958 0.32461095 -0.28726867 0.97641474 0.09005719 0.80493623 -0.21246368
0.4987674 -0.19934069 0.2271083 0.065785155 -0.22285283 -0.18300052 -0.014313966 -0.6491144
00000000: 3d98 2cbe 0491 fc3e 24ca a23e facd 0abc
00000010: e7f0 093e 0446 963e 8bcd 5cbc 02a4 93be
00000020: 5833 4d3e 6088 42be e38d 8b3e 0638 b0bd
00000030: 8235 89be eb39 dbbe ab35 e33e eb67 5e3e
00000040: 7fa4 933e 76af ba3e 5aac 463e a30f 233e
00000050: c9a7 ab3e 9f43 e5bd 2954 353e 6218 353e
00000060: 5314 5ebe 47e9 24bf 0198 36bc 9cc1 95bf
00000070: cd81 9fbe ef25 8ebc 27e0 8dbd 16a9 9ebd
00000080: 160e 8dbe ad5a d93e e91c 743e 8a71 9fbe
00000090: 0d18 483e 4e0a 2e3e 0cce 76bf 8ba1 fabd
000000a0: ee77 f6bd 982c 983e 7aa9 853d 4f18 b0be
000000b0: 60f7 46be 3d4b 9fbc eaf1 6a3e 15db 6d3e
000000c0: 40d0 93bd 5dbf 263f 368d cbbe 4762 853d
000000d0: 3c7c 88be 3bd7 0cbf 4182 753c 7c58 113d
000000e0: 8470 b13e 1e66 e33d df2d cbbd 3382 553e
000000f0: cdb6 4dbf a2ab ea3d 217f 88be 0a5c 923c
00000100: b42f 803f f665 013f a29e 07bf 5174 853e
00000110: f959 a5be f765 10bd 0962 b6be c1d9 2dbf
00000120: 0b6d 25bf 6607 1c3f 31de 95bd ffd5 853e
00000130: f225 cb3c 03ad 483f 8f0c edbe d2dc 2bbd
00000140: 7109 643e 9d63 b8bd 5faa 0f3e 2543 03be
00000150: c454 5a3d 7179 37bd e47d 48bf 8344 8d3e
00000160: c5b3 a4bf aff4 30be 7130 5a3e cd53 c0bd
00000170: 5269 a7be f492 58be 15a1 173d aa3a 9b3c
00000180: f97d a6be 602b 5c3e adc8 ae3e 7c25 9e3d
00000190: e024 0bbc 8e19 043f d36a 72be 3dcc 0b3f
000001a0: e184 bdbe dbd0 a2be 91e5 1f3d 08d9 05bf
000001b0: 26e6 9cbd 5079 07bf 9857 d2be f4ef 04bf
000001c0: 1c99 bebe a377 b23e 67c5 8abf fb57 883d
000001d0: fdec d5be 461b 8a3e 00bd 073f cc62 9f3d
000001e0: 33d5 e7be b155 0dbf 0f89 91bd 9f8a 88bc
000001f0: 8999 4abe 4312 b7be b259 203e 4906 d3bf
00000200: be01 c0be 9289 03be 8959 5ebf ff78 363d
00000210: 1e46 92be f08a 93be 9815 c53c d520 193e
00000220: 8df9 86be 2563 fbbd c3a2 51be 53d8 40bd
00000230: 62f3 59bc 0877 473e 1a45 adbf 2677 943d
00000240: 4995 67be 5aba 82bd 7deb 88bd 1c61 03bf
00000250: c0b1 05be 6e3a 153e 445e b0be d53a 36bf
00000260: 6e01 363e 4149 063e aeaf ae3c bd66 dc3f
00000270: 98ae 083e b575 ebbe 1b89 0dbe 7fca 823c
00000280: b538 583e cb03 59be 6573 853e 733a 243d
00000290: ac00 11be 81d3 a1bb e5f4 813f 831e a5bd
000002a0: 3a0f 6fbe 385e 5fbd 454b 07bf 5448 bcbd
000002b0: 70fa 6e3e 1c5a 233e 071a 963d ce02 ba3d
000002c0: 0a2a bf3b c703 9bbd f19a 323e 32bd d0be
000002d0: 6d38 063a 8ba3 1140 dcd3 cebd fef2 2cbf
000002e0: 9ada fdbe 18c6 77be c839 ea3d 20cf e4be
000002f0: 1459 e8bc ac29 b43d f755 663f d581 003e
00000300: f354 1d3f a0c7 02bd 2b27 7fbf 268b ec3d
00000310: cd49 113f b505 3d3d cd67 d53e aabe 993e
00000320: 3d9b 9b3e 79e6 d53e d715 7b3e 9aa5 eb3e
00000330: f169 8ebe de94 6e3f ee00 56bc 9879 fd3c
00000340: 9ad3 8abe be73 30be ee92 f8bb 10d8 4bbe
00000350: c26d 6fbe 5139 463e 32ba 2cbe 6526 39be
00000360: db06 7a3d 8f48 70be d2ea 6b3d 11e3 5cbe
00000370: 8849 8e3d 3e14 823e 3802 0bbe 2006 053f
00000380: 95d5 61be c3db ce3d 3bc6 88be 4a20 c3bd
00000390: d31a f6be dec1 ae3e 0e77 42be 5ac9 81bd
000003a0: 058b ebbc dda6 74bf 9a35 293f 1aa8 a1bf
000003b0: 121e d7bd e85a 823e c844 873e ce85 503e
000003c0: 0f84 a53e d6ea 1c3e 6833 a63e e114 93be
000003d0: 51f6 793f e76f b83d 4d10 4e3f 1490 59be
000003e0: 715e ff3e f71f 4cbe 148f 683e 5eba 863d
000003f0: 8833 64be 7d64 3bbe 2085 6abc 5c2c 26bf

linear1.bias f4 [50]
0.38408256 0.11999082 0.03422288 -0.16229212 -0.2981023 -0.38257784 0.12739757 -0.102601826
-0.51945263 0.23971614 -0.12523389 -0.04983051 0.0007113923 -0.13127682 -0.5340882 -0.034415077
-0.14507774 -0.056546964 0.3785092 0.02952053 0.16618057 0.14926203 0.04757827 -0.12328614
-0.2971922 -0.026832111 0.046300165 -0.13092339 0.00052416814 0.12332915 -0.25573224 -0.025711682
0.05673021 -0.12977676 -0.12077117 -0.008603754 -0.015255335 0.07494028 0.21744344 -0.09368486
-0.0047209654 0.14882909 -0.041079395 0.13306963 0.03159603 0.06592642 0.37941936 -0.04442619
-0.016357888 0.12679319
00000000: 78a6 c43e bfbd f53d 4a2d 0c3d e82f 26be
00000010: dda0 98be 3ee1 c3be 8274 023e e820 d2bd
00000020: d9fa 04bf 2678 753e 503d 00be 141b 4cbd
00000030: bb7c 3a3a 6e6d 06be 01ba 08bf d3f6 0cbd
00000040: 428f 14be ca9d 67bd f5cb c13e 0ad5 f13c
00000050: 3d2b 2a3e 25d8 183e 6fe1 423d 727d fcbd
00000060: 9329 98be 04cf dbbc 3ea5 3d3d c810 06be
00000070: 5468 093a fe93 fc3d 56ef 82be 4ea1 d2bc
00000080: f05d 683d 33e4 04be e056 f7bd c3f6 0cbc
00000090: 83f1 79bc 4a7a 993d 7ea9 5e3e d9dd bfbd
000000a0: 54b2 9abb a766 183e de42 28bd 6843 083e
000000b0: d76a 013d 6e04 873d 4143 c23e 3df8 35bd
000000c0: fa00 86bc 13d6 013e

linear2.weight f4 [250, 50]
-0.059299845 -0.09466431 0.3037617 0.04114174 -0.013508207 0.38374773 0.06495779 0.024448866
0.27884132 0.061909985 0.059977233 -0.1489066 0.349351 -0.112771146 -0.07742172 -0.18613775
-0.10340542 0.67160946 -0.111070655 -0.22108592 -0.3331608 -0.20870022 -0.012373219 0.21431598
0.13554566 -0.13346133 0.35941628 0.070278615 -0.047830187 0.041893423 0.0012465302 0.021764494
-0.11688048 0.12346004 0.07924789 0.0031767176 -0.4864064 0.09190627 -0.08909853 -0.34411097
-0.11012761 0.35006222 -0.08011399 -0.18476236 -0.09449914 0.092939414 -0.15089194 -0.2160854
0.046408802 0.104402445 -0.17434217 0.34250623 0.2790857 -0.48384452 0.12094775 -0.07530672
0.17272657 0.07608592 -0.015268612 -0.20361328 0.15925054 0.04380667 0.011876615 0.030319719
-0.63033664 -0.1105872 -0.040832896 0.16070002 -0.28591472 0.370684 -0.47564384 -0.1908037
0.15926646 -0.34220746 0.32863152 -0.0900709 -0.28219634 0.15137868 -0.040954612 0.434859
0.047494367 -0.12972072 -0.029324027 0.14554663 0.07368235 -0.25648862 -0.31453222 0.17112917
-0.56434065 -0.05797915 -0.01647351 0.013608131 0.010437985 -0.31076056 -0.14251389 -0.07660075
-0.07248658 0.08599073 0.28766778 0.40392944 -0.044910535 0.043016534 -0.035920475 -0.06937462
0.015133984 -0.15350878 0.08620945 -0.19006641 -0.013120214 -0.13037477 0.032615792 -0.06136627
0.005802815 -0.097645655 -0.116344176 -0.06473331 0.11466059 -0.25128913 0.042270415 -0.021686478
-0.11233867 -0.03826389 -0.08826716 0.085310884 -0.2509281 -0.048910365 -0.057172045 -0.09061307
-0.011976741 0.08809522 -0.01054058 0.0017415587 -0.03258874 0.1606349 0.044218436 -0.1376851
-0.08284278 -0.14152063 0.099070914 -0.060223896 -0.19179577 -0.25840184 -0.06304133 0.08778913
-0.11818028 0.08124114 -0.09103301 -0.24169151 -0.09458879 -0.18665852 0.088324755 0.054174054
-0.28035396 0.033765815 -0.03555445 0.15528984 -0.11098965 -0.41842937 -0.10223093 -0.10500471
0.01954265 0.13486059 -0.140986 0.094047666 -0.80209655 -0.33948302 -0.037740566 0.038994957
0.45308676 -0.4479199 -0.13317761 -0.24350773 -0.043232374 0.12555918 0.31464615 -0.27715185
0.066444226 0.06910511 0.15367624 -0.30705348 0.052564416 0.18601601 -0.05291848 -0.13586478
0.09532208 -0.11482071 0.092019364 -0.47103384 -0.062261667 -0.022296565 0.19000469 0.022706147
-0.024178173 -0.017157394 -0.17885481 -0.49358442 0.047581363 -0.09417466 -0.14608505 -0.13639864
0.07353022 -0.07155932 0.75215226 0.016025085 -0.28086865 -0.13840047 0.0047238567 -0.11373087
-0.26024234 0.5469622 0.062374175 -0.28342828 0.5097331 -0.08371793 0.52771217 0.004938447
-0.003035804 0.115118265 0.24317537 -0.12916563 0.062124167 0.50924605 -0.035194777 0.012211031
-0.32864296 0.4925457 0.12859012 0.17150159 -0.44780543 0.32176164 -0.12425658 0.005091975
-0.1492172 -0.4578828 0.034140717 0.011497746 -0.2988986 0.15459277 -0.12523608 -0.01944045
-0.0031966108 -0.18568745 -0.10878393 0.0242814 0.6447813 0.3180162 0.2696266 -0.01759436
0.07114177 0.00087477686 0.21238248 -0.052587878 -0.4918489 0.09868851 -0.049924884 0.13030697
00000000: 65e4 72bd 5ddf c1bd a786 9b3e 3e84 283d
00000010: 8751 5dbc 957a c43e 9708 853d fd48 c83c
00000020: 4ac4 8e3e 5395 7d3d b0aa 753d f97a 18be
00000030: 22de b23e 8ff4 e6bd 478f 9ebd e59a 3ebe
00000040: 39c6 d3bd 99ee 2b3f 0379 e3bd 5964 62be
00000050: 0d94 aabe 83b5 55be 0bb9 4abc a675 5b3e
00000060: 7bcc 0a3e 16aa 08be 6905 b83e 3cee 8f3d
00000070: 96e9 43bd 7098 2b3d 9d62 a33a 744b b23c
00000080: 085f efbd 9ed8 fc3d b84c a23d 7a30 503b
00000090: 420a f9be 5b39 bc3d 4a79 b6bd 502f b0be
000000a0: 968a e1bd 5b3b b33e ce12 a4bd 5832 3dbe
000000b0: c488 c1bd 0557 be3d 6b83 1abe 7e45 5dbe
000000c0: 2817 3e3d f3d0 d53d c186 32be fa5c af3e
000000d0: 52e4 8e3e 78ba f7be 74b3 f73d 693a 9abd
000000e0: 3cdf 303e efd2 9b3d 3329 7abc 0080 50be
000000f0: 9312 233e 9f6e 333d 2296 423c 0f61 f83c
00000100: be5d 21bf 8b7b e2bd 6540 27bd 8c8e 243e
00000110: 6a63 92be 4bca bd3e 9787 f3be 0c62 43be
00000120: bf16 233e d135 afbe 6442 a83e 1877 b8bd
00000130: 0a7c 90be 0303 1b3e 06c0 27bd d7a5 de3e
00000140: 7489 423d 82d5 04be f138 f0bc 2d0a 153e
00000150: c6e6 963d 7a52 83be 5e0a a1be 7c3c 2f3e
00000160: a178 10bf 8c7b 6dbd 74f3 86bc a3f4 5e3c
00000170: 1504 2b3c 021c 9fbe 29ef 11be dbe0 9cbd
00000180: d873 94bd e81b b03d 3149 933e d7cf ce3e
00000190: 1cf4 37bd 1b32 303d 5921 13bd 4814 8ebd
000001a0: 88f4 773c 6831 1dbe 958e b03d c5a0 42be
000001b0: 2bf6 56bc f780 05be 2398 053d 335b 7bbd
000001c0: 8a25 be3b 72fa c7bd db45 eebd e692 84bd
000001d0: 2cd3 ea3d f8a8 80be be23 2d3d d7a7 b1bc
000001e0: d111 e6bd 99ba 1cbd 6ac5 b4bd 79b7 ae3d
000001f0: a679 80be 3c56 48bd 3c2d 6abd 5893 b9bd
00000200: 183a 44bc 446b b43d 66b2 2cbc 0345 e43a
00000210: c57b 05bd 7a7d 243e 641e 353d 53fd 0cbe
00000220: 7aa9 a9bd c9ea 10be b1e5 ca3d 55ad 76bd
00000230: 1c66 44be 3f4d 84be d01b 81bd caca b33d
00000240: 8108 f2bd c161 a63d 846f babd fb7d 77be
00000250: c4b7 c1bd 6923 3fbe 9ce3 b43d 9de5 5d3d
00000260: 8e8a 8fbe 064e 0a3d 8ba1 11bd 4d04 1f3e
00000270: 8b4e e3bd 603c d6be 735e d1bd b60c d7bd
00000280: e817 a03c e518 0a3e a25e 10be 109c c03d
00000290: 3356 4dbf b8d0 adbe da95 1abd 2db9 1f3d
000002a0: fdfa e73e c255 e5be b65f 08be 175a 79be
000002b0: 6e14 31bd 9692 003e 4d19 a13e d9e6 8dbe
000002c0: e913 883d fb86 8d3d 4e5d 1d3e 1d36 9dbe
000002d0: c94d 573d fb7a 3e3e 0cc1 58bd 2320 0bbe
000002e0: 3938 c33d 1f27 ebbd a674 bc3d 592b f1be
000002f0: 1706 7fbd 49a7 b6bc 9790 423e 3e02 ba3c
00000300: 4e11 c6bc aa8d 8cbc b725 37be 19b7 fcbe
00000310: ade4 423d a5de c0bd 5297 15be 16ac 0bbe
00000320: 0397 963d b18d 92bd 0d8d 403f 0a47 833c
00000330: 04ce 8fbe dab8 0dbe 95ca 9a3b bbeb e8bd
00000340: 7c3e 85be b705 0c3f 107c 7f3d 831d 91be
00000350: de7d 023f 4e74 abbd 2518 073f b2d2 a13b
00000360: 57f4 46bb 20c3 eb3d f702 793e ff43 04be
00000370: e975 7e3d f35d 023f 6628 10bd c710 483c
00000380: e443 a8be f32e fc3e 21ad 033e 1d9e 2f3e
00000390: c146 e5be f1bd a43e 3c7a febd 95da a63b
000003a0: 65cc 18be 9d6f eabe 23d7 0b3d 0b61 3c3c
000003b0: 3d09 99be 914d 1e3e e33d 00be 9441 9fbc
000003c0: 3b7e 51bb da24 3ebe 1cca debd c9e9 c63c
000003d0: 6310 253f 05d3 a23e 7f0c 8a3e 0c22 90bc
000003e0: c7b2 913d 4851 653a cb7a 593e 6366 57bd
000003f0: 9ed3 fbbe 341d ca3d 097e 4cbd 316f 053e

linear2.bias f4 [250]
-0.30412465 0.27805316 -0.13987067 0.009080457 0.013360327 -0.2524693 0.2826456 0.047403093
0.05241779 -0.099941544 -0.09996572 0.060459815 -0.49346235 -0.21513218 -0.2561402 -0.009580315
-0.42486343 -0.11643364 0.04246957 -0.24283564 -0.17908937 -0.0070784246 -0.031994723 -0.035587944
0.034230895 0.15628394 -0.030538652 -0.104035184 -0.053551327 -0.15501502 0.0903798 -0.14152151
0.16113983 -0.22341101 -0.023775462 -0.15913594 0.051639453 0.07014264 -0.1919124 -0.1787938
-0.12998824 -0.019783773 -0.3566678 0.3357279 0.14790896 0.049036577 0.062496156 -0.13653204
-0.10982127 0.01929711 -0.17696229 0.2500632 -0.09836747 -0.20092021 0.1374708 0.00428868
-0.0053289374 -0.4887147 0.17067578 -0.009539369 -0.13917099 0.14328301 -0.01936164 0.11284306
0.0013116517 -0.18004012 -0.061245486 -0.5492907 -0.05335607 0.044795807 -0.16548614 -0.34794912
0.015845837 -0.21023938 -0.08904048 -0.28146818 -0.08629092 -0.1782734 0.3753582 -0.120649
-0.09653423 0.2802802 -0.12726213 0.08737824 0.1213577 0.004076909 -0.030720871 -0.026540734
0.11953008 0.17096832 0.33204785 -0.029318858 -0.08733414 -0.116775945 0.11989477 -0.09543025
0.18536788 0.20843464 -0.1745936 0.22785547 -0.024244081 -0.026958257 -0.061192296 -0.1039239
-0.25842717 -0.2242603 -0.03093551 -0.030356964 0.045921516 -0.11458083 0.34155622 -0.14309062
0.28035292 0.14584993 -0.021428822 -0.12069496 -0.051974002 -0.1267494 0.24810065 -0.041308135
0.06266584 -0.24333115 -0.16710123 -0.2528583 -0.22175486 -0.042491514 -0.35363 0.12971568
0.116798595 0.3647818 0.3050682 -0.16866657 -0.02554962 0.06314333 0.10557003 0.008625381
-0.021207811 0.05467465 0.3014438 -0.12948595 -0.16554336 -0.08970893 0.19369279 0.16054277
-0.017838368 0.2531452 -0.17325985 0.10795621 -0.11710265 -0.0975652 0.13053575 0.054128002
0.30454266 -0.026369864 0.050166953 0.03199389 -0.202707 0.0059054205 0.0045960913 -0.07970935
0.12556884 -0.18880448 -0.0818948 -0.31172243 -0.059168633 -0.16719446 0.047218937 -0.17965347
-0.15340477 -0.22215094 0.12344851 -0.008931124 8.308476e-05 0.05283886 0.18250386 0.010195565
-0.045521624 0.3648804 -0.07411398 0.22623318 0.0066352193 -0.079027876 -0.1021114 -0.060041323
-0.17631555 -0.0074638817 -0.09507219 -0.0759698 0.07459721 0.11412728 0.12388285 0.12180145
0.12813002 -0.11847558 -0.45999798 0.116611704 0.18224712 0.04090511 0.0059729316 -0.08255447
0.030546723 -0.115993425 0.0925048 -0.07247901 -0.2510666 -0.031220585 -0.07774117 -0.096314505
-0.23611453 0.0063938024 -0.26395166 -0.05737477 -0.032422192 0.049356915 0.11284326 -0.16963236
0.038490843 0.08308699 -0.21259011 -0.17023332 0.066232316 -0.042948965 0.5269909 -0.067167185
-0.09712493 0.019358085 -0.2968752 0.041714516 -0.2114892 -0.03893466 0.18457852 0.052635718
0.09988133 0.21126755 -0.16426264 0.16991016 -0.16642626 -0.03179011 0.07354206 -0.08812974
-0.07958111 0.008340739 -0.05552677 0.14714083 0.005978129 -0.3082566 0.20573035 0.56630456
0.19451609 -0.10192919
00000000: 3ab6 9bbe fc5c 8e3e 423a 0fbe 32c6 143c
00000010: 46e5 5a3c a843 81be edb6 903e bf29 423d
00000020: 09b4 563d 27ae ccbd d4ba ccbd b6a4 773d
00000030: 19a7 fcbe 9c4b 5cbe cf24 83be c1f6 1cbc
00000040: b387 d9be c374 eebd 92f4 2d3d e8a9 78be
00000050: 3463 37be 21f2 e7bb e60c 03bd aac4 11bd
00000060: b235 0c3d e608 203e 322c fabc 6610 d5bd
00000070: a358 5bbd 42bc 1ebe 0b19 b93d 04eb 10be
00000080: d701 253e dbc5 64be c2c4 c2bc 88f4 22be
00000090: e483 533d f2a6 8f3d af84 44be b915 37be
000000a0: a31b 05be 9411 a2bc 299d b6be 87e4 ab3e
000000b0: 7275 173e 94da 483d f8fb 7f3d 0ecf 0bbe
000000c0: f9e9 e0bd f914 9e3c 9a35 35be 4908 803e
000000d0: e274 c9bd 07be 4dbe 25c5 0c3e 0e88 8c3b
000000e0: 5e9e aebb d038 fabe a2c5 2e3e 034b 1cbc
000000f0: d782 0ebe c8b8 123e 4d9c 9ebc 431a e73d
00000100: baeb ab3a 705c 38be 8cdc 7abd 519e 0cbf
00000110: e58b 5abd cf7b 373d 3375 29be 6326 b2be
00000120: 21cf 813c fe48 57be db5a b6bd 991c 90be
00000130: 4bb9 b0bd 4d8d 36be f32e c03e d316 f7bd
00000140: bdb3 c5bd e380 8f3e 0151 02be 5df3 b23d
00000150: 638a f83d 9797 853b 56aa fbbc f46b d9bc
00000160: 30cc f43d 5212 2f3e 2d02 aa3e 1a2e f0bc
00000170: 3edc b2bd 3a28 efbd 648b f53d ef70 c3bd
00000180: 14d1 3d3e e46f 553e aac8 32be f252 693e
00000190: 869b c6bc 90d7 dcbc c6a4 7abd 0ed6 d4bd
000001a0: 9150 84be 7ea4 65be 776c fdbc 2baf f8bc
000001b0: 3318 3c3d 5ba9 eabd 75e0 ae3e 5986 12be
000001c0: 6b8a 8f3e af59 153e 7f8b afbc eb2e f7bd
000001d0: b1e2 54bd 98ca 01be 190e 7e3e b832 29bd
000001e0: f356 803d cd2b 79be 961c 2bbe a576 81be
000001f0: b513 63be 950b 2ebd fe0e b5be 30d4 043e
00000200: 1a34 ef3d aec4 ba3e e631 9c3e eeb6 2cbe
00000210: 704d d1bc 4a51 813d 1a35 d83d 7851 0d3c
00000220: 01bc adbc 87f2 5f3d d756 9a3e f797 04be
00000230: 3384 29be 51b9 b7bd 6757 463e 5365 243e
00000240: c521 92bc 3f9c 813e 086b 31be 2518 dd3d
00000250: 84d3 efbd 43d0 c7bd 2aab 053e 53b5 5d3d
00000260: 04ed 9b3e 9d05 d8bc dd7b 4d3d 060c 033d
00000270: 6c92 4fbe 4282 c13b cf9a 963b a83e a3bd
00000280: 1e95 003e f655 41be 76b8 a7bd 159a 9fbe
00000290: cf5a 72bd 0635 2bbe a568 413d 14f7 37be
000002a0: 2416 1dbe 897b 63be 93d2 fc3d d953 12bc
000002b0: ca3d ae38 8f6d 583d 4be2 3a3e 4d0b 273c
000002c0: e274 3abd 9bd1 ba3e 12c9 97bd aca9 673e
000002d0: 416c d93b 5ed9 a1bd c81f d1bd e4ed 75bd
000002e0: 108c 34be 9493 f4bb 35b5 c2bd 0e96 9bbd
000002f0: 6cc6 983d 90bb e93d 4bb6 fd3d 0a73 f93d
00000300: 8434 033e 53a3 f2bd db84 ebbe 1ed2 ee3d
00000310: fd9e 3a3e 1e8c 273d 95b8 c33b 5112 a9bd
00000320: 1f3d fa3c f68d edbd 2873 bd3d e06f 94bd
00000330: cd8b 80be 50c2 ffbc c336 9fbd 8a40 c5bd
00000340: 02c8 71be 1a83 d13b ac24 87be cf01 6bbd
00000350: 22cd 04bd 7a2a 4a3d 5e1a e73d 1bb4 2dbe
00000360: 93a8 1d3d 8329 aa3d 39b1 59be a551 2ebe
00000370: cfa4 873d 41eb 2fbd e0e8 063f f38e 89bd
00000380: 6fe9 c6bd d994 9e3c 0700 98be d7dc 2a3d
00000390: a090 58be f379 1fbd 2702 3d3e 8d98 573d
000003a0: 958e cc3d 8556 583e 7734 28be eefc 2d3e
000003b0: a56b 2abe 5936 02bd 389d 963d 5d7d b4bd
000003c0: 6cfb a2bd 98a7 083c 0a70 63bd 16ac 163e
000003d0: 2ee4 c33b cfd3 9dbe faaa 523e 56f9 103f
000003e0: 3a2f 473e 40c0 d0bd

output.weight f4 [4, 250]
0.09853382 -0.10143198 0.012143699 0.06541249 -0.35750103 -0.041661043 -0.019742701 -0.14093368
-0.21942411 -0.035650644 0.24477969 -0.04962554 -0.027584597 -0.056083366 -0.023899812 -0.06254497
0.02231252 -0.012137602 -0.15842962 0.5093682 -0.017652202 -0.09696328 -0.55404216 -0.092348546
0.040616803 -0.13292053 0.33807763 0.44406888 0.15221153 0.054400705 -0.064114295 0.20062032
-0.12604327 -0.19122605 -0.024571335 -0.15770926 -0.18255682 -0.009873544 0.3283678 -0.04483051
-0.5649575 0.12970793 0.76775134 -0.043355092 -0.09868656 0.04267979 0.0740684 0.26972196
0.14389059 -0.10632559 -0.18574072 0.04681756 0.03828127 0.032520548 0.07544984 -0.2594678
0.08140664 0.052923404 -0.5884741 0.002252128 -0.33360368 0.0063751796 0.013087423 -0.03561701
0.26949143 -0.355231 -0.04338702 -0.008638769 -0.17342524 -0.0009002645 0.26128107 -0.026756912
0.2465957 0.013315453 0.019925207 -0.47057408 -0.04229848 -0.0027872985 0.052764304 -0.67781824
0.6710074 -0.62665987 -0.2357683 -0.037442476 -0.04581613 -0.100519195 -0.029289624 0.009465794
-0.042294987 -0.16179141 0.04979025 -0.18150812 0.22604312 -0.01943072 0.3040047 -0.14804666
1.1192486 -0.28919578 0.042935412 0.0065240166 0.1532957 0.004446573 -0.121452674 -0.0010829081
0.27542603 0.12962064 -0.15271312 -0.117843956 0.43148917 0.0022869369 -0.113363594 -0.22754079
-0.15106386 0.029356096 -0.09463612 -0.322822 -0.042927027 0.2998132 -0.1788652 0.017934464
0.099317074 0.06049759 -0.08223955 -0.32910535 -0.17488019 -0.18813418 -0.03837673 -0.013394891
-0.19047557 -0.009960862 -0.071371466 -0.4325415 -0.020966753 -0.059417065 -0.18551375 -0.34567055
-0.38773942 -0.25660312 -0.5133034 0.45363647 -0.12507851 0.46419984 -0.31558916 0.056866724
0.26622108 0.0021590828 0.0039584795 -0.17399228 -0.3618028 -0.1270847 -0.059990134 0.22014368
-0.03805381 -0.015757333 0.17501059 0.1913971 0.03206081 -0.2561063 -0.05974646 -0.19646482
-0.04690696 -0.03387481 -0.29950792 -0.052705135 -0.04411537 -0.22456047 -0.13966872 0.31209978
-0.6294673 0.21921647 -0.019956011 -0.027531672 -0.015244159 -0.14641574 -0.045148972 0.08862626
0.09885498 0.052772652 0.27006897 0.22142641 -0.029672882 0.36731297 0.027178371 -0.14896432
-0.02481851 -0.0015483719 -0.35808742 -0.2616121 0.22098786 0.2601042 0.010754667 0.15910922
-0.03426517 -0.26966316 0.5410822 0.092918254 0.12548155 -0.28236204 -0.29179412 -0.46792907
-0.33086115 -0.2194602 -0.040192343 0.0031996279 -0.007946781 -0.06622892 0.025003428 -0.10936782
0.077764384 0.12139099 0.35806468 -0.060117412 -0.27857256 -0.22131062 0.0071301344 0.020993624
-0.19570738 -0.46875015 0.011118953 -0.159326 0.072836876 -0.017544486 -0.7393368 -0.052056085
0.052493006 -0.07112253 -0.1384433 0.052766725 0.27221864 0.025669863 -0.07346194 -0.3407135
0.09207473 -0.39816573 0.25142586 -0.08747104 0.08587386 0.036435597 0.025939586 0.06878578
-0.14581747 -0.05710262 0.0736682 -0.35678908 -0.08401948 0.14981098 0.006558519 -0.3712573
0.2745525 0.02483545 0.09806219 -0.009046855 0.047146477 0.026125453 -0.26808167 0.28767022
00000000: 19cc c93d 92bb cfbd 5ef6 463c fcf6 853d
00000010: 600a b7be c5a4 2abd 72bb a1bc eb50 10be
00000020: b7b0 60be 6906 12bd 87a7 7a3e 2644 4bbd
00000030: 18f9 e1bc acb7 65bd 8ac9 c3bc 9417 80bd
00000040: bfc8 b63c cbdc 46bc 603b 22be f465 023f
00000050: 5a9b 90bc af94 c6bd b5d5 0dbf 3c21 bdbd
00000060: ce5d 263d 521c 08be 8318 ad3e ff5c e33e
00000070: 57dd 1b3e 46d3 5e3d 5b4e 83bd 6a6f 4d3e
00000080: 7d11 01be c3d0 43be d349 c9bc 897e 21be
00000090: 2df0 3abe a5c4 21bc d31f a83e 32a0 37bd
000000a0: 0ea1 10bf 28d2 043e 5a8b 443f 1c95 31bd
000000b0: 2e1c cabd 01d1 2e3d 2cb1 973d ff18 8a3e
000000c0: 0e58 133e 3bc1 d9bd d132 3ebe c5c3 3f3d
000000d0: d2cc 1c3d 4434 053d 7285 9a3d f7d8 84be
000000e0: 86b8 a63d 36c6 583d 3da6 16bf 7098 133b
000000f0: 1ace aabe e2e6 d03b a16c 563c 24e3 11bd
00000100: c8fa 893e d6e0 b5be 96b6 31bd a089 0dbc
00000110: 6396 31be baff 6bba a2c6 853e 5031 dbbc
00000120: 9583 7c3e 0f29 5a3c 303a a33c 16ef f0be
00000130: 2c41 2dbd 1cab 36bb 621f 583d 7f85 2dbf
00000140: 24c7 2b3f c86c 20bf 3f6d 71be 485d 19bd
00000150: b2a9 3bbd 02dd cdbd cbf0 efbc 6b16 1b3c
00000160: 823d 2dbd a6ac 25be dcf0 4b3d 44dd 39be
00000170: d977 673e 2c2d 9fbc 81a6 9b3e 8b99 17be
00000180: 8a43 8f3f 7811 94be 0bdd 2f3d 6bc7 d53b
00000190: 8cf9 1c3e 8fb4 913b 2ebc f8bd 5ef0 8dba
000001a0: a404 8d3e 46bb 043e d460 1cbe 2c58 f1bd
000001b0: 26ec dc3e 6fe0 153b 2c2b e8bd 7400 69be
000001c0: 7cb0 1abe 327c f03c 95d0 c1bd ed48 a5be
000001d0: 40d4 2fbd 1e81 993e 7028 37be 4ceb 923c
000001e0: c066 cb3d 52cc 773d 366d a8bd 7f80 a8be
000001f0: cb13 33be 3fa6 40be eb30 1dbd 3f76 5bbc
00000200: 070c 43be e232 23bc 342b 92bd 1476 ddbe
00000210: 78c2 abbc 4f5f 73bd 51f7 3dbe bbfb b0be
00000220: c885 c6be 7c61 83be da67 03bf 0a43 e83e
00000230: 9514 00be 9aab ed3e e794 a1be 15ed 683d
00000240: 214e 883e 667f 0d3b 22b6 813b 082b 32be
00000250: 373e b9be 7e22 02be 37b8 75bd 586d 613e
00000260: 50de 1bbd 8615 81bc fa35 333e 9afd 433e
00000270: 3252 033d 5d20 83be b4b8 74bd 132e 49be
00000280: 8321 40bd 50c0 0abd 1a59 99be 57e1 57bd
00000290: 51b2 34bd 2ef3 65be 5105 0fbe 8bcb 9f3e
000002a0: c524 21bf 487a 603e ca7a a3bc 1a8a e1bc
000002b0: a3c2 79bc 02ee 15be 21ee 38bd af81 b53d
000002c0: 7b74 ca3d 2328 583d 7b46 8a3e 9bbd 623e
000002d0: 8b14 f3bc 7210 bc3e 2da5 de3c 1a8a 18be
000002e0: 3050 cbbc bdf2 caba 3c57 b7be 05f2 85be
000002f0: a44a 623e 612c 853e 5834 303c 87ed 223e
00000300: a359 0cbd 4a11 8abe 5d84 0a3f ed4b be3d
00000310: 3c7e 003e c291 90be 0a66 95be 6694 efbe
00000320: a266 a9be 2dba 60be baa0 24bd d9b0 513b
00000330: 3733 02bc 07a3 87bd fdd3 cc3c 3cfc dfbd
00000340: ef42 9f3d d79b f83d 4154 b73e ad3d 76bd
00000350: 10a1 8ebe 409f 62be e7a3 e93b d2fa ab3c
00000360: 8467 48be 0500 f0be 452c 363c 5b26 23be
00000370: 802b 953d 74b9 8fbc 2d45 3dbf c338 55bd
00000380: e802 573d b0a8 91bd 15c4 0dbe ec21 583d
00000390: 3e60 8b3e 9b49 d23c 3773 96bd 0072 aebe
000003a0: ad91 bc3d 61dc cbbe e4ba 803e 0424 b3bd
000003b0: a2de af3d 7e3d 153d 417f d43c 8fdf 8c3d
000003c0: 2d51 15be 70e4 69bd 5adf 963d 0fad b6be
000003d0: 6812 acbd 0d68 193e d8e8 d63b 7015 bebe
000003e0: 2592 8c3e b773 cb3c d4d4 c83d 4339 14bc
000003f0: aa1c 413d 0c05 d63c 0042 89be 8349 933e

output.bias f4 [4]
-0.05289222 -0.05127412 -0.044794325 0.069017395
00000000: 83a5 58bd d004 52bd 417a 37bd fe58 8d3d
