models/weights/model_1.pth (torch, 60011 bytes, 6 tensors)

linear1.weight f4 [50, 13]
-0.47638765 -0.047287434 0.3926797 -0.13591641 -0.4178718 -0.33957046 -0.3728849 0.072940275
-0.79022866 0.006409356 0.35530216 0.027612997 -0.39873216 -0.3967592 0.065738685 -0.20243338
0.19993556 0.028136868 0.25054732 0.06549603 0.16077268 -0.67393994 0.1754139 0.2838217
0.013982891 -1.1832374 0.23369873 -0.50347364 -0.27355787 0.16462971 -0.12908083 -0.16656765
-0.07231083 -0.23877372 -0.21043564 -0.055060763 0.6345415 -0.08941065 -0.031623717 0.3324054
-0.21152356 -0.3294907 0.26673606 0.24995302 0.28944758 -0.024336845 0.08734715 0.35771602
-0.11549998 -0.18910201 0.12949277 1.0910219 -0.4005117 0.24070655 0.02431552 0.32657626
0.25382516 0.28476512 0.27071595 0.003533635 -0.6863076 0.018835448 0.763258 0.013333339
-0.36927608 -0.1914511 0.18989058 0.018032055 -0.07075818 0.15551019 0.192616 0.04727611
0.0675809 0.054328926 -0.21043065 -0.027512562 -0.05132242 0.039141178 -0.41961253 -0.09759627
-0.052393354 -0.20472772 -0.0997013 -0.11791833 -0.09512836 -0.07956121 -0.16096093 0.24718684
-0.090958014 0.035555553 1.1448644 0.028756043 0.17993884 0.28872755 0.14680117 0.27423364
-0.03979556 -0.15924305 -0.1013632 0.23633835 -0.25646463 -0.1856318 0.03065422 -1.5478241
-0.16417812 -0.21272588 -0.2636772 -0.011362482 -0.05632669 0.16641045 -0.23415634 -0.21309745
0.20806862 0.110141635 0.4644972 -0.07974064 0.14363384 0.2526796 0.25616884 0.01892706
-0.3258492 0.022009509 0.0048382734 0.18469979 0.061224546 0.4298097 -0.13024814 0.326611
0.052269693 0.014387396 -0.007135272 -0.03402093 -0.07432526 0.094715476 -0.1040661 -0.014182121
0.08352828 0.03325507 0.15653938 -0.14035124 0.06649515 -0.22238097 -0.108577505 0.06629536
0.15132654 -0.06256253 0.24562106 -0.120644726 -0.1162061 0.20773908 -0.26052725 0.29418543
0.19634973 -0.5661699 -0.14027232 -0.04374461 0.44252935 -0.4905339 0.26017892 -0.18798073
0.26953 -0.0908149 -0.32846203 -0.16627105 1.0850605 0.27485958 -0.68532455 -0.13843754
0.10353126 -0.32044032 0.44047108 -0.07066921 -0.06417934 -0.4239714 -0.0076161404 -0.26228824
0.1367368 -0.54840344 0.16507156 0.18832788 -0.0020406116 -1.1513889 0.0652049 -0.111759745
0.23199208 0.045982614 -0.21204405 0.19764724 0.0049000354 0.2804106 0.3513455 -0.18275055
0.048210364 0.049425185 0.68722415 -0.23085724 0.39055115 0.11493913 -0.44693646 0.07066415
-0.32517985 -0.09609245 0.056684155 0.06972136 -0.10133859 -0.38962662 0.09130386 0.33623362
0.3685596 0.30647036 -0.40693057 -0.18506852 0.037334874 -0.24903724 0.15108302 -0.25440738
0.4984806 0.14272949 -0.083332084 0.0014191709 -0.26414412 -0.08644368 -0.17271012 0.04953882
0.10814962 -0.19247437 0.2036682 0.17066094 -0.2710834 -0.046996623 -0.14734931 0.06763661
-0.23101142 0.03006503 0.052027002 0.24016215 0.292954 0.12641434 0.058261413 0.16918217
0.09770242 0.26808622 0.56864786 -0.30113563 0.38273653 -0.0068461434 0.19507477 -0.030250752
0.20320685 -0.16419089 -0.2794657 -0.2269864 -0.24976197 -0.08511782 0.20400068 0.15536685
00000000: 15e9 f3be 78b0 41bd 500d c93e ac2d 0bbe
00000010: 4bf3 d5be 2edc adbe c5ea bebe b661 953d
00000020: 6d4c 4abf 9305 d23b 2aea b53e a734 e23c
00000030: 9f26 ccbe 0624 cbbe 01a2 863d b24a 4fbe
00000040: e8bb 4c3e 4a7f e63c bd47 803e c822 863d
00000050: 98a1 243e 5487 2cbf b49f 333e 1451 913e
00000060: 7f18 653c 5374 97bf b84e 6f3e a6e3 00bf
00000070: c70f 8cbe b194 283e c42d 04be b690 2abe
00000080: b317 94bd 1981 74be 717c 57be 6587 61bd
00000090: 5071 223f ee1c b7bd df87 01bd 0a31 aa3e
000000a0: a299 58be 01b3 a8be a191 883e aff3 7f3e
000000b0: 7932 943e 105e c7bc 10e3 b23d 8e26 b73e
000000c0: 418b ecbd f5a3 41be c199 043e 9ba6 8b3f
000000d0: df0f cdbe c77b 763e 5731 c73c 0135 a73e
000000e0: 5ff5 813e bccc 913e 489b 8a3e 8f94 673b
000000f0: dbb1 2fbf cc4c 9a3c e064 433f 1474 5a3c
00000100: c111 bdbe c20b 44be ad72 423e f6b7 933c
00000110: aae9 90bd 103e 1f3e 213d 453e 98a4 413d
00000120: db67 8a3d 0288 5e3d 227b 57be 0662 e1bc
00000130: 7537 52bd 8052 203d 74d7 d6be 8ee0 c7bd
00000140: 6a9a 56bd 25a4 51be 3230 ccbd 2a7f f1bd
00000150: a8d2 c2bd fdf0 a2bd f1d2 24be 8c1e 7d3e
00000160: 3248 babd b3a2 113d eb8a 923f cb91 eb3c
00000170: e341 383e 19d4 933e 0c53 163e 5a68 8c3e
00000180: ab00 23bd 9c10 23be 8297 cfbd ae02 723e
00000190: 554f 83be 4316 3ebe 8f1e fb3c 1a1f c6bf
000001a0: 4f1e 28be d0d4 59be b300 87be b429 3abc
000001b0: d1b6 66bd 8067 2a3e aec6 6fbe 3836 5abe
000001c0: f10f 553e f091 e13d 94d2 ed3e 104f a3bd
000001d0: c014 133e 385f 813e 9028 833e ec0c 9b3c
000001e0: b5d5 a6be 494d b43c 618a 9e3b f121 3d3e
000001f0: 97c6 7a3d 0410 dc3e c55f 05be 8f39 a73e
00000200: bf18 563d 1db9 6b3c 00cf e9bb 8859 0bbd
00000210: d837 98bd 30fa c13d 9c20 d5bd 205c 68bc
00000220: e010 ab3d 7836 083d dc4b 203e 3cb8 0fbe
00000230: 9c2e 883d d6b7 63be e25d debd ddc5 873d
00000240: 58f5 1a3e c920 80bd 1684 7b3e 9514 f7bd
00000250: 77fd edbd 8eb9 543e d463 85be 799f 963e
00000260: e70f 493e 83f0 10bf 8ca3 0fbe 8c2d 33bd
00000270: 3593 e23e 4227 fbbe 2c36 853e 057e 40be
00000280: d6ff 893e 2afd b9bd 2d2c a8be f542 2abe
00000290: 43e3 8a3f 65ba 8c3e 6e71 2fbf 92c2 0dbe
000002a0: 3208 d43d c110 a4be 6d85 e13e 05bb 90bd
000002b0: 7570 83bd c812 d9be d190 f9bb a54a 86be
000002c0: bb04 0c3e 2b64 0cbf 8508 293e 06d9 403e
000002d0: c8bb 05bb b660 93bf 268a 853d 4be2 e4bd
000002e0: 558f 6d3e 4458 3c3d 1322 59be 0a64 4a3e
000002f0: 7a90 a03b fa91 8f3e 8fe3 b33e f622 3bbe
00000300: 3b78 453d 1072 4a3d eced 2f3f d765 6cbe
00000310: 52f6 c73e 3565 eb3d dbd4 e4be 5eb8 903d
00000320: f97d a6be 1ecc c4bd a52d 683d 13ca 8e3d
00000330: 9b8a cfbd 247d c7be 85fd ba3d d026 ac3e
00000340: d8b3 bc3e afe9 9c3e 3459 d0be 9a82 3dbe
00000350: 74ec 183d 9e03 7fbe 82b5 1a3e af41 82be
00000360: d938 ff3e ae27 123e 03aa aabd 7903 ba3a
00000370: e63d 87be 6209 b1bd ecda 30be 38e9 4a3d
00000380: 8c7d dd3d 0018 45be 668e 503e bec1 2e3e
00000390: 72cb 8abe 887f 40bd bde2 16be 1085 8a3d
000003a0: 428e 6cbe f04a f63c 441a 553d 11ed 753e
000003b0: 11fe 953e c372 013e 85a3 6e3d 173e 2d3e
000003c0: 3518 c83d 9942 893e e892 113f 732e 9abe
000003d0: 0bf6 c33e 9d55 e0bb aec1 473e 6dd0 f7bc
000003e0: 7515 503e a821 28be 2116 8fbe 1f6f 68be
000003f0: 9ac1 7fbe 4052 aebd 8ee5 503e 7d18 1f3e

linear1.bias f4 [50]
-0.27055687 0.015939543 0.16568312 0.1678804 0.11443545 -0.08362082 0.20229027 0.02951855
-0.24726652 0.13135673 0.1320507 -0.08832819 -0.016222319 0.20977812 -0.24288365 0.004502952
-0.25818154 -0.035706505 -0.079506755 -0.12070205 0.25969976 0.15670891 -0.14179845 0.12621182
0.29839227 -0.22619393 0.0970475 0.36881283 -0.036412027 -0.1553803 0.18756035 -0.055134103
0.2264967 -0.024610022 0.17004037 -0.2988322 -0.14516652 -0.122547455 -0.11210783 -0.037889745
0.2196871 -0.021056652 -0.06886913 0.22075707 0.25902468 -0.22160298 -0.2258851 -0.14915095
-0.15826206 -0.15458281
00000000: 6e86 8abe a593 823c d6a8 293e d7e8 2b3e
00000010: 225d ea3d 6441 abbd 2e25 4f3e e3d0 f13c
00000020: 6f33 7dbe 6182 063e 4c38 073e 69e5 b4bd
00000030: abe4 84bc 13d0 563e 7eb6 78be 808d 933b
00000040: 5f30 84be fc40 12bd 70d4 a2bd a332 f7bd
00000050: 5ef7 843e 4d78 203e 9d33 11be ac3d 013e
00000060: dfc6 983e 629f 67be d7c0 c63d 09d5 bc3e
00000070: c724 15bd 031c 1fbe d20f 403e 4cd4 61bd
00000080: c0ee 673e f59a c9bc 101f 2e3e 8900 99be
00000090: 88a6 14be 29fa fabd ca98 e5bd 4732 1bbd
000000a0: a8f5 603e 007f acbc 420b 8dbd 240e 623e
000000b0: e29e 843e e4eb 62be 6c4e 67be 07bb 18be
000000c0: 730f 22be f54a 1ebe

linear2.weight f4 [250, 50]
0.1994965 0.47016007 0.06551489 -0.18716514 0.08678272 -0.00946151 -0.14305188 0.43987548
0.12707207 -0.07955946 0.055018544 -0.07965808 -0.06657381 0.14040053 0.08792811 -0.08655159
-0.43208337 0.025942668 0.5687384 0.09553415 0.07341273 0.109502316 -0.03579366 -0.10626087
0.2973208 -0.05445061 -0.04548171 -0.25549197 -0.121384144 0.10936166 -0.012543246 0.55132663
-0.12355274 0.943348 -0.10051167 0.032026313 0.26142094 -0.031848416 -0.09142856 -0.13048491
-0.062163718 0.074573874 0.10949154 0.17035158 -0.11825982 -0.054756206 -0.07366741 0.48507524
0.40285596 0.40948424 0.36236995 0.58629364 0.39604574 -0.07749351 0.132735 0.033149756
0.11409233 -0.18578088 0.20954026 -0.114785515 0.03518033 0.044388723 -0.32114407 0.5151157
-0.1549722 -0.041111637 0.07808796 -0.027806684 -0.37233913 -0.031964015 0.24014862 0.061763626
-0.049071934 0.19104655 0.3086024 0.03044856 0.15720141 -0.19074528 0.15717909 0.064840555
-0.009004369 -0.06260939 0.07799859 0.104325436 0.044929687 0.03946753 -0.53292257 0.42250714
-0.013689611 -0.06222676 0.09068374 0.058300838 0.019343436 0.12787692 0.24097544 0.032600746
-0.11014986 0.4583521 -0.55234545 -0.33631685 0.066227674 0.0730093 0.07781533 -0.049002863
0.14138547 -0.04381902 -0.18733804 0.12505181 0.20865849 -0.04380708 0.08025521 0.11717362
-0.10588626 0.19267526 -0.1568657 0.039737172 0.23756737 0.074557036 0.29490846 -0.14064641
0.17725675 -0.26792312 -0.07648206 -0.20192607 0.25129962 -0.15704516 0.0393928 -0.07150585
0.24543554 0.1809315 -0.018068641 -0.04613712 0.06589073 0.16146724 -0.057244632 -0.10475658
-0.23077147 0.32657525 -0.11350547 0.029740235 -0.011268631 0.14831305 -0.09787746 0.1611716
0.037590895 0.17751986 -0.11171001 0.012487771 0.3568094 -0.18946804 0.30117306 -0.22362451
-0.9692412 -0.21104872 0.034848496 0.0060755396 -0.026517034 0.042968806 -0.65163004 -0.017753283
-0.12951045 -0.2059012 0.32182047 -0.3489742 -0.16721842 0.0322534 -0.020058157 -0.04765015
-0.0590573 -0.14041331 -0.19778001 0.08155683 0.20609866 -0.57443786 -0.48466703 0.018596653
-0.05870855 0.18782987 -0.62210184 0.06829471 -0.02432502 0.2010629 -0.1440879 -0.28405038
0.017674772 -0.1539977 0.22981395 0.13234974 -0.25557148 0.060662564 0.063740075 0.030706817
0.04211831 -0.18097821 -0.10012363 0.010705158 0.0683128 0.027637135 -0.28511658 0.32147023
0.04373163 0.11150047 0.15295668 -0.09577982 0.0040846537 -0.06584243 -0.11997756 0.46276328
0.10298247 -0.05418834 0.07425952 0.09271181 -0.109285474 -0.011789271 0.023610683 -0.09489946
-0.014115584 0.09678301 0.3713038 -0.11539684 -0.18717799 0.04637014 -0.05481242 -0.34301883
-0.29031414 -0.039970182 -0.3145804 -0.24181725 -0.03023026 0.06469087 0.03293629 0.5380855
-0.15835327 0.15108502 -0.15127552 0.040856376 0.45182312 0.20829885 -0.08920248 -0.06903165
0.068911925 0.10572196 0.0027261823 -0.25198266 0.11038279 0.13286464 -0.09728256 0.031754214
0.618062 0.34364656 0.038683645 0.15201108 -0.15581724 0.11523291 -0.00010883738 0.019882843
00000000: cf48 4c3e d2b8 f03e ac2c 863d 38a8 3fbe
00000010: 24bb b13d 7304 1bbc 317c 12be 5c37 e13e
00000020: 2e1f 023e 12f0 a2bd 205b 613d c723 a3bd
00000030: da57 88bd 28c5 0f3e a713 b43d f641 b1bd
00000040: 083a ddbe b885 d43c d798 113f 69a7 c33d
00000050: 6a59 963d c042 e03d 5f9c 12bd 4d9f d9bd
00000060: 6f3a 983e 9a07 5fbd 084b 3abd d8cf 82be
00000070: 4098 f8bd 02f9 df3d 3082 4dbc be23 0d3f
00000080: 3809 fdbd 417f 713f 10d9 cdbd 062e 033d
00000090: f7d8 853e 7c73 02bd e63e bbbd d69d 05be
000000a0: 629f 7ebd 30ba 983d 1a3d e03d a570 2e3e
000000b0: 3432 f2bd 0b48 60bd f0de 96bd c85b f83e
000000c0: 2343 ce3e eba7 d13e 8e88 b93e 5717 163f
000000d0: 82c6 ca3e ebb4 9ebd afeb 073e 0ac8 073d
000000e0: 3da9 e93d 583d 3ebe b991 563e ab14 ebbd
000000f0: 4019 103d f3d0 353d ff6c a4be 9fde 033f
00000100: 08b1 1ebe ad64 28bd 95ec 9f3d d8ca e3bc
00000110: 3ca3 bebe b3ec 02bd 85e9 753e dbfb 7c3d
00000120: a7ff 48bd b5a1 433e 2201 9e3e 426f f93c
00000130: 68f9 203e bb52 43be 8ef3 203e 20cb 843d
00000140: 1087 13bc 5a39 80bd babd 9f3d 93a8 d53d
00000150: 3108 383d b4a8 213d 9d6d 08bf db52 d83e
00000160: 644a 60bc 7de1 7ebd 66b8 b93d dccc 6e3d
00000170: 2076 9e3c 2bf2 023e 44c2 763e 5c88 053d
00000180: 4096 e1bd 20ad ea3e 8366 0dbf b931 acbe
00000190: 60a2 873d e685 953d a55d 9f3d 3ab7 48bd
000001a0: 5ac7 103e 937b 33bd 8bd5 3fbe 950d 003e
000001b0: 92aa 553e 0d6f 33bd d85c a43d b9f8 ef3d
000001c0: e5da d8bd aa4c 453e 67a1 20be 72c3 223d
000001d0: dc44 733e 5cb1 983d 3efe 963e 9d05 10be
000001e0: cb82 353e 382d 89be a0a2 9cbd b5c5 4ebe
000001f0: 58aa 803e 72d0 20be 585a 213d a971 92bd
00000200: 7453 7b3e 1b46 393e b004 94bc 47fa 3cbd
00000210: b8f1 863d ab57 253e 5979 6abd 9e8a d6bd
00000220: 5b4f 6cbe df34 a73e 8e75 e8bd cba1 f33c
00000230: 10a0 38bc 60df 173e fa73 c8bd 2b0a 253e
00000240: e9f8 193d c4c7 353e 38c8 e4bd 8299 4c3c
00000250: b9af b63e e903 42be 5b33 9a3e d3fd 64be
00000260: 3120 78bf 281d 58be 4cbd 0e3d 5215 c73b
00000270: 403a d9bc 0f00 303d 3ad1 26bf 556f 91bc
00000280: 639e 04be c4d7 52be a7c5 a43e bfac b2be
00000290: 4e3b 2bbe 241c 043d 0151 a4bc ce2c 43bd
000002a0: 11e6 71bd 82c8 0fbe d886 4abe 4407 a73d
000002b0: 870b 533e 5c0e 13bf 4726 f8be 0258 983c
000002c0: 6078 70bd 7956 403e 1142 1fbf 19de 8b3d
000002d0: 4445 c7bc 6fe3 4d3e c78b 13be 0d6f 91be
000002e0: afca 903c 93b1 1dbe 5954 6b3e b186 073e
000002f0: 44da 82be 4f79 783d 288a 823d dd8c fb3c
00000300: 4084 2c3d 5a52 39be 9e0d cdbd b064 2f3c
00000310: 95e7 8b3d 4667 e23c cdfa 91be bf97 a43e
00000320: f01f 333d 5c5a e43d ada0 1c3e 3628 c4bd
00000330: 8fd8 853b 65d8 86bd ccb6 f5bd 4fef ec3e
00000340: 79e8 d23d 98f4 5dbd 6015 983d b0df bd3d
00000350: 10d1 dfbd c927 41bc 316b c13c a65a c2bd
00000360: 0d45 67bc 2c36 c63d 881b be3e 2e55 ecbd
00000370: 96ab 3fbe 9eee 3d3d fd82 60bd 2aa0 afbe
00000380: 0ea4 94be c6b7 23bd af10 a1be f19e 77be
00000390: 73a5 f7bc a67c 843d 34e8 063d f9bf 093f
000003a0: 5c27 22be 08b6 1a3e f8e7 1abe 0459 273d
000003b0: 5c55 e73e 4b4c 553e caaf b6bd 7760 8dbd
000003c0: b221 8d3d c184 d83d c0a9 323b df03 81be
000003d0: 5f10 e23d ab0d 083e 143c c7bd b510 023d
000003e0: 5039 1e3f 71f2 af3e be72 1e3d cba8 1b3e
000003f0: 8e8e 1fbe 3bff eb3d a03f e4b8 58e1 a23c

linear2.bias f4 [250]
0.0062144394 0.07733033 -0.14656994 0.03544352 -0.097225 -0.09884138 -0.006176624 -0.06413964
-0.008249167 -0.08681771 0.24849024 -0.058790434 -0.14542416 0.017042719 0.15123942 0.21173303
0.10694918 -0.10922469 -0.107853554 0.046721235 0.10522713 0.0080312835 -0.08853268 -0.120476
-0.02109221 0.33330125 0.12737606 -0.054535422 -0.15338509 0.07411159 -0.10098639 0.007579687
0.056309473 -0.09771408 0.2333243 0.05043229 -0.0012773401 -0.023477161 -0.023987547 -0.16892968
0.04518407 0.06242861 -0.085615866 0.046407204 0.06588483 0.1352193 0.06635961 -0.24443042
-0.23642 -0.1124072 -0.1682449 0.12032057 -0.0224632 0.034111485 0.027613273 0.2992693
0.10611953 0.14466639 0.097114466 -0.0059897033 -0.04259899 0.055250596 -0.2019292 0.21754132
0.13435866 0.09378916 -0.09601119 -0.10543837 -0.11946344 0.10929886 -0.07722728 0.070627764
0.03514165 -0.15192689 -0.24722561 0.06290336 -0.16460331 0.077951096 -0.17735018 -0.021627257
0.104987174 0.3367218 0.065352686 -0.046094585 -0.12506221 0.022538098 -0.1976472 0.050915755
-0.007268931 0.04101123 -0.3543056 0.082267694 0.13816507 -0.11593847 -0.031267118 -0.017969908
-0.06374675 -0.17383708 -0.005877451 -0.12925294 0.036317803 0.014649651 -0.05279019 0.11004397
-0.039525334 0.24392729 0.024734814 -0.06460336 -0.15369369 0.046812218 0.08424481 0.14383739
0.07182688 0.02277788 -0.25579935 -0.1657709 0.037395235 -0.05725923 -0.05984272 0.09458999
-0.22545624 -0.025041386 0.038134374 0.08851533 0.021943087 -0.054406777 -0.13082232 0.06981857
0.12362585 0.015544539 -0.06668519 0.04140765 0.019626671 0.22456734 -0.16762994 0.034767468
0.07353602 0.2275922 0.19145323 -0.26017052 -0.14559625 0.11713369 -0.063557364 0.008676658
0.011329074 0.04523048 0.054793265 0.32608584 -0.21878643 0.16594957 0.14563523 0.2592906
0.027450161 -0.04974871 0.08192114 -0.044902325 0.1487314 0.04338663 0.024972746 0.11544896
0.0046825157 -0.10564003 0.1385418 0.1765337 0.038999267 -0.21624264 -0.06525525 0.015403097
-0.10216334 0.26795387 -0.09672889 -0.0041270386 0.03515384 -0.12871425 -0.06253857 -0.01393909
0.15369955 -0.13418736 -0.26690656 0.11697185 -0.13098148 0.03159457 -0.0014576337 0.0969674
0.072294764 0.025982264 0.10394944 -0.16314512 0.046597194 -0.011380404 -0.100279965 -0.046520844
0.05053822 -0.09973115 -0.009648905 -0.23990539 -0.14453101 0.1257928 0.14807412 -0.033066332
-0.03578812 -0.094768174 0.06683956 0.07514478 0.049468827 -0.06942369 -0.1992166 -0.042596105
0.17263192 0.014079572 -0.09694128 0.20117672 -0.16661698 -0.021712288 0.013676134 -0.24432182
-0.028827976 0.11657679 -0.0703632 -0.21834335 -0.19468676 -0.105937414 0.13987029 0.049627077
-0.14701861 -0.06500686 0.29844788 0.027380439 -0.049977444 0.2238994 0.09161214 -0.063544676
-0.010549377 -0.15801425 0.032928865 0.05318201 -0.18789533 0.062371433 0.049205497 -0.12537841
0.032006633 -0.19679493 0.09907483 -0.11118384 -0.088856496 -0.32669 -0.03814704 0.024869483
0.20523894 -0.026326422
00000000: 7fa2 cb3b 5d5f 9e3d 6e16 16be 392d 113d
00000010: e71d c7bd 596d cabd 4765 cabb a55b 83bd
00000020: 8427 07bc 7ccd b1bd 3a74 7e3e 3dce 70bd
00000030: 12ea 14be 2c9d 8b3c 82de 1a3e 8bd0 583e
00000040: 2c08 db3d 32b1 dfbd 53e2 dcbd c45e 3f3d
00000050: 5281 d73d a595 033c 9f50 b5bd 1fbc f6bd
00000060: 92c9 acbc 76a6 aa3e df6e 023e 8960 5fbd
00000070: fb10 1dbe d1c7 973d f4d1 cebd 065f f83b
00000080: c3a4 663d 521e c8bd 91ec 6e3e 1792 4e3d
00000090: 6c6c a7ba 2d53 c0bc 8881 c4bc e7fb 2cbe
000000a0: ee12 393d 24b5 7f3d 5f57 afbd 7b15 3e3d
000000b0: a0ee 863d ee76 0a3e 8ce7 873d f84b 7abe
000000c0: 1618 72be bf35 e6bd 6448 2cbe a26a f63d
000000d0: bf04 b8bc 7cb8 0b3d 3b35 e23c d339 993e
000000e0: 3255 d93d 6d23 143e f3e3 c63d 4645 c4bb
000000f0: 477c 2ebd 734e 623d 87c6 4ebe 27c3 5e3e
00000100: 5195 093e 8814 c03d 84a1 c4bd 12f0 d7bd
00000110: 3fa9 f4bd 15d8 df3d 5629 9ebd 4aa5 903d
00000120: b1f0 0f3d b992 1bbe b628 7dbe 7ad3 803d
00000130: c58d 28be d3a4 9f3d 499b 35be a52b b1bc
00000140: 8403 d73d cd66 ac3e a1d7 853d adcd 3cbd
00000150: 4f10 00be d1a1 b83c 0764 4abe 0a8d 503d
00000160: 3630 eebb 64fb 273d 8b67 b5be f77b a83d
00000170: 257b 0d3e 2671 edbd f311 00bd a135 93bc
00000180: a88d 82bd 5902 32be a297 c0bb e25a 04be
00000190: fac1 143d 1705 703c 873a 58bd bc5e e13d
000001a0: 51e5 21bd 13c8 793e aaa0 ca3c c44e 84bd
000001b0: e161 1dbe 2bbe 3f3d 8b88 ac3d 1c4a 133e
000001c0: f919 933d ad98 ba3c 22f8 82be d9bf 29be
000001d0: bf2b 193d a888 6abd a41d 75bd 66b8 c13d
000001e0: 00de 66be 9823 cdbc ca32 1c3d 8647 b53d
000001f0: fdc1 b33c a4d9 5ebd 49f6 05be 0afd 8e3d
00000200: 8d2f fd3d 86ae 7e3c 3f92 88bd 119b 293d
00000210: 1dc8 a03c fbf4 653e 2fa7 2bbe 5568 0e3d
00000220: 0e9a 963d ee0d 693e 510c 443e 1235 85be
00000230: 2f17 15be cae3 ef3d 5d2a 82bd 8b28 0e3c
00000240: 959d 393c 9943 393d e76e 603d b9f4 a63e
00000250: 8d09 60be afee 293e 6721 153e bdc1 843e
00000260: 29df e03c 4ec5 4bbd 45c6 a73d 80eb 37bd
00000270: 0b4d 183e 2eb6 313d a593 cc3c 8170 ec3d
00000280: ca6f 993b cd59 d8bd e7dd 0d3e 40c5 343e
00000290: b2bd 1f3d b66e 5dbe 8ba4 85bd 455d 7c3c
000002a0: 033b d1bd 4031 893e cc19 c6bd 1c3c 87bb
000002b0: 79fd 0f3d abcd 03be 3914 80bd c860 64bc
000002c0: 6a63 1d3e 6968 09be faa7 88be f08e ef3d
000002d0: 0220 06be 4f69 013d 120e bfba d896 c63d
000002e0: 470f 943d c2d8 d43c 72e3 d43d 840f 27be
000002f0: b3dc 3e3d e074 3abc 955f cdbd a48c 3ebd
00000300: 2a01 4f3d d83f ccbd 7116 1ebc c2a9 75be
00000310: f0ff 13be d4cf 003e bea0 173e 9070 07bd
00000320: 9096 12bd d115 c2bd 2ee3 883d 82e5 993d
00000330: d39f 4a3d 022e 8ebd 70ff 4bbe 4179 2ebd
00000340: 6cc6 303e 01ae 663c 2689 c6bd 4501 4e3e
00000350: a49d 2abe f8dd b1bc dd11 603c 802f 7abe
00000360: a628 ecbc d0bf ee3d 951a 90bd 6695 5fbe
00000370: f75b 47be b7f5 d8bd 283a 0f3e c345 4b3d
00000380: 0c8c 16be 5122 85bd 29ce 983e f14c e03c
00000390: 26b5 4cbd e245 653e 259f bb3d b623 82bd
000003a0: 4bd7 2cbc 7dce 21be 6be0 063d 61d5 593d
000003b0: a267 40be 3079 7f3d b48b 493d 3363 00be
000003c0: 6319 033d 9c84 49be bfe7 ca3d 5ab4 e3bd
000003d0: 65fa b5bd e943 a7be 1240 1cbd 16bb cb3c
000003e0: 282a 523e 82aa d7bc

output.weight f4 [4, 250]
-0.37918454 -0.017583176 -0.38979915 0.048883054 0.1187413 0.21499878 -0.032061346 0.12337742
0.026991818 -0.2839531 0.12017408 -0.011227899 -0.09814332 -0.06720066 -0.04038729 0.019588802
0.13728069 -0.14483917 0.0015172595 -0.029941775 -0.067937255 0.021592464 0.0056354078 -0.011129186
-0.16341843 -0.39355505 0.010534126 0.49721187 0.044954408 0.039621606 -0.12973408 -0.015475219
-0.018048061 -0.3744412 0.073708735 -0.009562469 -0.022688283 0.015406562 0.025190605 0.029580716
0.02288043 -0.19314681 -0.10269832 -0.06947647 -0.020723164 -0.03779893 0.43206328 0.071547456
0.016356478 -0.019257503 -0.04780371 -0.034299973 0.19769412 -0.06848422 0.021780044 0.00807004
0.07686785 0.0036665297 0.03323126 -0.09279909 0.050811168 0.003796665 -0.020051198 -0.15040791
-0.05268537 -0.14796607 0.007187973 -0.3155291 -0.01973536 -0.7273381 0.054480985 0.012522928
-0.075112104 0.46139675 0.03990038 0.1657004 -0.009018326 -0.02959342 0.094397746 -0.1437446
0.058387812 -0.018565975 -0.03431266 0.11438827 0.021096567 -0.10082486 0.00401028 0.56161964
0.003387428 0.07231028 0.059008207 -0.3233314 -0.2159486 -0.33134505 -0.033483084 -0.009709076
0.036850635 0.09588547 0.09475293 -0.018333618 -0.04354205 -0.39316747 -0.19983783 -0.59873796
0.24997048 -0.06681918 -0.06004289 -0.047590744 -0.12310854 -0.042399507 0.0362537 0.01776674
-0.073554195 -0.013211324 0.035080716 -0.25660425 -0.05822026 0.26108778 0.4719338 0.041407965
0.05315173 -0.12319541 0.011935068 0.0023034005 -0.09343133 -0.085212894 0.2345478 0.24177302
-0.028198617 -0.12716027 -0.032347657 0.12754172 -0.015808271 -0.09777444 0.03830804 -0.347603
-0.037780784 0.02304231 -0.48347574 -0.021600718 -0.015802013 0.0077814995 -0.0982154 0.03590221
-0.039746974 -0.0808012 0.2577881 -0.36198604 0.035935577 -0.07566977 -0.07151528 -0.028454244
-0.01678175 -0.11490252 0.038603593 0.044680025 0.05183858 -0.07015149 -0.11029254 -0.12494439
0.014779353 -0.12605381 -0.012390274 -0.025978055 -0.058185473 0.17946006 0.0043463116 0.052436914
0.044665944 -0.012002879 -0.039022647 -0.1951925 0.023435034 -0.22314489 0.017705383 -0.049940288
0.033073884 0.030396324 0.2419102 -0.10768737 -0.2812761 0.27840045 0.10771433 0.19541146
0.19237226 -0.20098034 0.009798786 0.009468549 -0.071398415 0.026121292 -0.15526316 -0.053623192
0.10671022 0.34839135 -0.084109895 -0.15775067 -0.0841611 0.17238855 -0.06200812 -0.0050279335
-0.032787524 -0.25911674 0.013605617 0.1281354 0.07548025 -0.022974506 -0.3972385 0.08410776
0.013303199 0.038393028 0.08606493 -0.043553922 -0.28175342 0.11037638 -0.2828888 0.0031931077
-0.13302355 0.16746682 -0.107309364 -0.17865267 -0.019564256 -0.06601467 -0.092836104 0.0180356
-0.08955479 -0.2817934 -0.32418656 -0.055037696 -0.13397019 -0.00062944356 0.07897689 0.045955487
0.07151207 0.18737839 -0.14242454 0.007064608 0.03619778 0.042742062 -0.16517845 -0.067909
-0.09046381 0.061623685 -0.04756103 0.04028762 -0.28341785 -0.014815403 -0.06880005 -0.022538511
0.08535059 -0.047248192 0.7427286 0.5110954 -0.6932446 0.09869571 -0.0084281685 -0.08033872
00000000: 7a24 c2be 980a 90bc c193 c7be 9939 483d
00000010: a42e f33d a428 5c3e c252 03bd 4dad fc3d
00000020: f21d dd3c 4d62 91be d41d f63d 39f5 37bc
00000030: 5dff c8bd 80a0 89bd 256d 25bd b278 a03c
00000040: 4f93 0c3e b850 14be c8de c63a 7448 f5bc
00000050: b022 8bbd aee2 b03c 3aa9 b83b 3057 36bc
00000060: 2957 27be 0c80 c9be 5497 2c3c 8e92 fe3e
00000070: 1d22 383d 444a 223d 03d9 04be c68b 7dbc
00000080: 87d9 93bc c2b6 bfbe 9bf4 963d e7ab 1cbc
00000090: c7dc b9bc ce6b 7c3c 875c ce3c 4253 f23c
000000a0: bd6f bb3c 47c8 45be 7f53 d2bd ae49 8ebd
000000b0: a0c3 a9bc 0dd3 1abd 6637 dd3e 7987 923d
000000c0: 05fe 853c e9c1 9dbc d3cd 43bd 217e 0cbd
000000d0: 5470 4a3e 7441 8cbd 106c b23c 3338 043c
000000e0: e46c 9d3d 294a 703b 801d 083d 730d bebd
000000f0: 5f1f 503d 78d1 783b 6942 a4bc 8804 1abe
00000100: 9dcc 57bd 6b84 17be 1689 eb3b 088d a1be
00000110: 0dac a1bc d432 3abf 7427 5f3d f82c 4d3c
00000120: 60d4 99bd 323c ec3e 956e 233d 5ead 293e
00000130: 9ac1 13bc e66d f2bc 9b53 c13d c931 13be
00000140: 0f28 6f3d ac17 98bc 6f8b 0cbd 6644 ea3d
00000150: b5d2 ac3c 447d cebd ab68 833b 4ec6 0f3f
00000160: 9cff 5d3b 6917 943d 97b2 713d b18b a5be
00000170: a121 5dbe 0fa6 a9be 8f25 09bd d112 1fbc
00000180: b1f0 163d 9a5f c43d d30d c23d 6230 96bc
00000190: 2659 32bd 3f4d c9be 4aa2 4cbe e446 19bf
000001a0: 43f8 7f3e 7fd8 88bd 89ef 75bd 83ee 42bd
000001b0: 5520 fcbd 1bab 2dbd c27e 143d 8e8b 913c
000001c0: 95a3 96bd 4f74 58bc ccb0 0f3d a261 83be
000001d0: 5e78 6ebd 4cad 853e 4fa1 f13e 669b 293d
000001e0: a1b5 593d e04d fcbd 4e8b 433c a6f4 163b
000001f0: ed58 bfbd 1984 aebd 4c2d 703e 5993 773e
00000200: c900 e7bc 4d36 02be fa7e 04bd 4c9a 023e
00000210: 5980 81bc f73d c8bd e4e8 1c3d 05f9 b1be
00000220: 06c0 1abd 3ac3 bc3c 228a f7be fdf3 b0bc
00000230: 3973 81bc f3fb fe3b 2825 c9bd 320e 133d
00000240: b9cd 22bd 197b a5bd cdfc 833e 3c56 b9be
00000250: 2f31 133d c1f8 9abd 9a76 92bd e018 e9bc
00000260: e179 89bc 0352 ebbd cd1e 1e3d 6702 373d
00000270: b154 543d 96ab 8fbd 0ee1 e1bd d8e2 ffbd
00000280: 1925 723c 4014 01be 9300 4bbc eecf d4bc
00000290: e453 6ebd 61c4 373e 816b 8e3b 17c8 563d
000002a0: a3f3 363d b9a7 44bc 36d6 1fbd 8be0 47be
000002b0: d4fa bf3c 1880 64be e10a 913c 308e 4cbd
000002c0: 7b78 073d b601 f93c 4fb7 773e 328b dcbd
000002d0: 6c03 90be 818a 8e3e 5599 dc3d f119 483e
000002e0: 3cfd 443e cacd 4dbe 168b 203c f921 1b3c
000002f0: 5539 92bd 52fc d53c 4efd 1ebe fea3 5bbd
00000300: e38a da3d 5a60 b23e cf41 acbd 6489 21be
00000310: a85c acbd a086 303e 3afc 7dbd 5dc1 a4bb
00000320: 364c 06bd f3aa 84be 18ea 5e3c ed35 033e
00000330: 6495 9a3d 0835 bcbc d862 cbbe b040 ac3d
00000340: a9f5 593c 0242 1d3d cf42 b03d 9965 32bd
00000350: fc41 90be 030d e23d cdd6 90be 7543 513b
00000360: 5337 08be 6c7c 2b3e 03c5 dbbd baf0 36be
00000370: 3845 a0bc b332 87bd db20 bebd 65bf 933c
00000380: 8068 b7bd 3947 90be c8fb a5be 356f 61bd
00000390: 7b2f 09be 3e01 25ba a3be a13d d23b 3c3d
000003a0: ec74 923d 1fe0 3f3e bdd7 11be 3a7e e73b
000003b0: 2044 143d 4d12 2f3d 8a24 29be e013 8bbd
000003c0: 1745 b9bd 1e69 7c3d 5bcf 42bd a204 253d
000003d0: 251c 91be 4ebc 72bc 0ae7 8cbd afa2 b8bc
000003e0: 4acc ae3d 5287 41bd 7623 3e3f 26d7 023f
000003f0: 7a78 31bf fa20 ca3d 4d16 0abc a088 a4bd

output.bias f4 [4]
0.0018842225 0.05545983 -0.044249423 -0.05339417
00000000: 04f8 f63a d929 633d e23e 35bd d8b3 5abd
