models/weights/model_2.pth (torch, 60011 bytes, 6 tensors)

linear1.weight f4 [50, 13]
000000 27 a2 54 be bf b3 83 bf ec 65 c1 be 0e 0f 4f bf
       -0.20764981 -1.0289229 -0.37773073 -0.80882347
000010 7f 10 9c bf db bb 20 bf 85 f0 95 bf 79 29 81 bf
       -1.2192534 -0.62786645 -1.1714026 -1.0090781
000020 8a 2c ba bf 09 0c 25 3e 6e 3b 6f bf 3c 8b 14 be
       -1.4544842 0.16117872 -0.9345006 -0.14506239
000030 03 ff 66 40 0d 11 82 bd 6d 97 6f be 7b 0e 3d bd
       3.6093147 -0.063509084 -0.23397608 -0.046156388
000040 95 af 99 be 78 07 a7 bd 2f 18 d3 3d 41 6c 2a 3e
       -0.3001677 -0.081557214 0.10307347 0.16642858
000050 b5 78 33 3e f0 1b a4 3d d3 0f 39 be dc 56 79 be
       0.17526515 0.08013141 -0.18072443 -0.2434954
000060 63 0a 45 bd f0 e7 71 3b 43 c0 2e c0 90 9b e0 bf
       -0.04810561 0.0036911927 -2.7304847 -1.7547474
000070 d5 1a af 3f c4 a4 a3 3e 6b 66 59 3f 70 d1 86 3d
       1.3680063 0.31961644 0.849219 0.06582916
000080 e7 57 6d 3f f3 54 4b bf 14 62 c0 bf e4 18 75 3e
       0.92712253 -0.794265 -1.5029931 0.23935276
000090 ea 5b 94 3f 14 81 b7 bc 94 f7 5c c1 c4 a3 fb be
       1.159055 -0.022400416 -13.810444 -0.4914838
0000a0 f3 55 2f bf e7 4f 38 be 74 34 60 bf e4 1f 43 bf
       -0.68490523 -0.1799923 -0.8758004 -0.76220536
0000b0 08 6f 54 bf bb 9e bb be 65 4c 87 bf 3c 4b 53 bf
       -0.8298192 -0.3664454 -1.0570189 -0.82536674
0000c0 82 68 86 bc 34 34 0c bf 1e 09 b4 be b7 ab 6b 3f
       -0.016407255 -0.54767156 -0.35163206 0.9205889
0000d0 60 21 7a 3d 64 89 ba bf 24 d4 7b bf d5 e5 94 bd
       0.061066985 -1.4573178 -0.98370576 -0.072703995
0000e0 d8 3e ca be 2b 58 a5 be d5 36 f4 bd 94 1b 74 bd
       -0.3950107 -0.3229383 -0.11924521 -0.059596613
0000f0 ae 41 0f 3f b1 f4 06 be 4d 21 43 3f 4b 84 0f bf
       0.55959594 -0.1317928 0.7622269 -0.5606124
000100 ec 02 81 bf 80 19 1a bf ec 5a 15 bf 9f b8 2b be
       -1.0079017 -0.6019516 -0.5834186 -0.16769646
000110 52 70 7c be 9e 20 b0 be b2 95 59 be 6d fc bb bd
       -0.24652222 -0.34399885 -0.2124851 -0.09179006
000120 6e 76 17 bf 4f ae b6 bf fe 4e 19 be df ee 6e 3f
       -0.59165084 -1.4271945 -0.1497154 0.9333324
000130 d6 76 9b bd 45 1d 87 3f df 26 b4 be 31 59 2b bf
       -0.075910255 1.0555807 -0.35185906 -0.6693297
000140 40 eb f0 bd 55 9b 43 bf 33 72 c4 be d2 62 e1 be
       -0.117636204 -0.7640889 -0.38368377 -0.44020706
000150 76 60 12 bf 39 b5 39 bf b0 4b ff be 2a 65 8c be
       -0.5717844 -0.7254215 -0.49862432 -0.27420932
000160 5d 5f 83 bc 2d 8f 90 be 6f ae 1c bf 8c a1 22 bf
       -0.016036684 -0.28234234 -0.61203665 -0.6352775
000170 2e 07 15 3f 85 21 2a bf 3b fb e8 be 32 60 e6 be
       0.5821408 -0.66457397 -0.45504174 -0.44995266
000180 f9 e7 4a bf 65 52 25 bf 8b da 21 bf b0 75 25 3f
       -0.7926021 -0.6457885 -0.63224095 0.646327
000190 6e 64 41 be 00 f1 86 3e c2 65 25 bf ec 29 02 bd
       -0.18885967 0.26355743 -0.64608395 -0.03177826
0001a0 34 0a dd be 50 76 aa be fb 21 07 3e 3e 19 b6 be
       -0.43171847 -0.3329339 0.13196556 -0.35566133
0001b0 57 c1 1d bf ec 92 dd be e2 54 bd be a4 05 f3 be
       -0.6162314 -0.43276155 -0.36978823 -0.4746524
0001c0 e2 27 3c bf 55 08 97 be 7c e5 54 3e 47 a3 48 be
       -0.73498356 -0.29498544 0.20790666 -0.19593535
0001d0 d4 80 24 bf e4 73 92 bf 95 2f 0e 3e ef ca 2f be
       -0.64259076 -1.1441617 0.13885339 -0.17167257
0001e0 d1 9b 89 be ca de c0 bd 13 68 85 3e bc bf b9 bd
       -0.2687669 -0.09417494 0.26055965 -0.090697736
0001f0 84 a6 4f be 2d 5f ab bf 31 5a 53 3d c4 20 33 3f
       -0.20278364 -1.338842 0.051599685 0.6997187
000200 4a c2 d8 be 91 51 83 bf ed e0 b6 bf bf 70 88 40
       -0.4233573 -1.0259267 -1.4287392 4.263763
000210 dd b5 7b 3f 04 d6 aa 3e 52 07 f7 bd 50 79 42 3e
       0.98324376 0.33366406 -0.12061943 0.1899159
000220 7f 94 d5 3f 0d bf 22 3f 98 96 5a c0 17 24 88 3e
       1.6685942 0.6357277 -3.4154415 0.26590034
000230 b4 8e 8b 40 13 87 57 bd ea fa 2d c1 a8 64 1c be
       4.36117 -0.05261905 -10.873758 -0.15272772
000240 65 0e 4f 3f 2e 86 24 bf 78 3e ad bd 91 90 4c be
       0.8088134 -0.6426724 -0.084591806 -0.19977023
000250 e8 80 fa be 97 4a 87 be 03 d8 29 be 85 23 aa be
       -0.48926473 -0.26424095 -0.16586308 -0.33230224
000260 d0 d9 22 bf 8c 40 68 3f b5 5a d0 be 00 e4 51 bf
       -0.63613605 0.9072349 -0.40694204 -0.81988525
000270 b7 ba 63 bf bb 08 7d 3f 41 7e 16 bf 44 5b 17 bf
       -0.8895678 0.98841447 -0.587864 -0.59123635
000280 d8 4c a4 be 1c 05 ae bf d2 05 2f bf ca dd 0b be
       -0.32089877 -1.3595309 -0.68368256 -0.13658825
000290 1f c0 10 40 1a b2 1e 3c 36 4a 4a 3f 54 f5 08 bf
       2.2617261 0.009686017 0.79019487 -0.5349934
0002a0 36 4d c6 bf 0c f5 95 bc e6 61 a5 be 43 5c b1 bd
       -1.5492313 -0.018305324 -0.32301253 -0.08660176
0002b0 53 b6 d3 be dd 53 8e be 2a 9a a3 bd f5 b2 a9 be
       -0.4135004 -0.27798358 -0.07988389 -0.33144346
0002c0 2f b5 de be a1 7d ba be b6 ac 9f be aa d4 8d be
       -0.43497607 -0.36423972 -0.31186455 -0.27701312
0002d0 ee 9a 05 3d a6 9a 9f be 56 ac 22 3f 8d 88 6c 40
       0.032618456 -0.31172675 0.63544214 3.6958344
0002e0 a4 4a 9f 3f 9d 84 b5 be db a6 51 bf 37 49 e3 3d
       1.2444654 -0.35452738 -0.81895226 0.11097949
0002f0 7c b9 be bf 06 0e 0f bf e5 3a 34 3f 84 88 f8 bf
       -1.4900355 -0.55880773 0.70402366 -1.9416661
000300 5a 7d 8d 3f d6 55 7c bc f9 5a 5f 40 46 8d 04 bf
       1.1053879 -0.015401324 3.4899275 -0.51778066
000310 82 e0 02 3f b6 98 e8 be ff 00 dd be b8 a6 1f bf
       0.5112382 -0.4542901 -0.43164822 -0.6236377
000320 23 00 0d bf 81 3d c5 be 27 be b2 be d3 4f 98 bb
       -0.55078334 -0.38523486 -0.349107 -0.0046481877
000330 df 5c 3b be bd 87 99 be 02 8e e7 be f3 cb 1e bf
       -0.18297146 -0.29986373 -0.4522553 -0.6202995
000340 cf c1 4f bf cc b0 5d be 1c 7f ac be d3 af b1 bd
       -0.81155103 -0.21649474 -0.33690727 -0.08676114
000350 2b 53 92 be de 7c 29 be 85 f5 c2 be df 5b de be
       -0.28579077 -0.1655154 -0.38077942 -0.43429467
000360 e0 0d 40 bf cd de 74 bd 41 40 d3 bc 67 80 05 bf
       -0.7502117 -0.059782792 -0.025787475 -0.5214905
000370 a3 05 25 3e 52 d9 9a bf 19 63 c6 bf f3 d9 2a c0
       0.16115431 -1.2097571 -1.5498992 -2.6695526
000380 a3 ee 2f bf b9 24 4e 3e 0d 76 27 c0 a7 e3 b9 be
       -0.68723506 0.20131196 -2.6165802 -0.36306497
000390 3d 21 55 be 0f 38 0f 40 bc ae b4 3e 08 c2 53 40
       -0.2081346 2.2377965 0.35289562 3.3087177
0003a0 65 31 0f bf f0 39 47 c0 09 4c ad be 6e df 4c 40
       -0.55934745 -3.1129112 -0.33847073 3.201137
0003b0 1f 28 26 bf c4 3c ac bc ee 41 ae 3e 21 38 cb 3e
       -0.6490497 -0.021025069 0.34034675 0.3969126
0003c0 e1 29 19 3f f7 b0 8a 3f 94 4c be 3f c7 64 72 bf
       0.5982953 1.0835255 1.486712 -0.94685024
0003d0 d7 de cd be 20 96 ae be fe 09 34 be f0 93 29 bf
       -0.40209076 -0.3409891 -0.17581937 -0.6624136
0003e0 55 d5 e2 3e 80 f5 7f bf dd b3 75 be 8b 03 19 3e
       0.44303384 -0.9998398 -0.23994394 0.14942758
0003f0 f6 33 e3 bf 7a 8d 16 be 99 9b bd 3e dd 47 a9 3f
       -1.7750232 -0.14702407 0.37032774 1.3225056

linear1.bias f4 [50]
000000 84 0e 17 bf fb bd 7e bc b7 3c 83 bf b0 c2 5d bf
       -0.59006524 -0.015548225 -1.0252904 -0.86625195
000010 f0 fb 9d be 79 a0 36 bf 4a 70 25 bf ea 9f 7e bf
       -0.30856276 -0.7133861 -0.64624465 -0.9946276
000020 98 7b 29 be e3 72 8c be db 04 60 bf cd a5 90 be
       -0.16551054 -0.27431402 -0.8750741 -0.28251496
000030 a9 88 97 bf 1c ba 79 be a8 ec 7b 3f 43 21 83 be
       -1.183858 -0.24387401 0.98407984 -0.25611314
000040 29 55 10 be a8 e2 c2 bf 96 af aa bc ef 9e 4d bf
       -0.14094986 -1.522542 -0.020835679 -0.8032064
000050 70 e7 da be 37 4f 60 bf a1 6c 8a be e9 2c 7a be
       -0.42754698 -0.8762087 -0.27036002 -0.24431194
000060 61 af 24 bf 80 f2 81 be 39 2d 31 be 32 88 e0 be
       -0.64330107 -0.25380325 -0.17302407 -0.4385391
000070 c5 b6 4c 3f 2f 4f 0d be 2f a3 78 bf 6c 2d 54 3e
       0.79966384 -0.13799737 -0.97124 0.20720452
000080 47 2c c9 3f 00 fd a1 be 85 72 3a be cb c5 9c bd
       1.5716637 -0.31638336 -0.18207748 -0.076549135
000090 af 79 01 40 3e 0f 88 bc 7f 23 13 bf ae 84 a3 bd
       2.023052 -0.01660883 -0.5747604 -0.07984291
0000a0 c0 2d 15 bf 14 d2 28 3e 6e 3d 87 bf a4 fc dd bd
       -0.58272934 0.16486388 -1.0565622 -0.10839203
0000b0 0f 18 41 3d 06 aa ce be 98 a5 27 be 06 0f 22 c0
       0.047142085 -0.40364093 -0.16371763 -2.532167
0000c0 bc 3c 9f 3f c8 ee 86 bf
       1.244041 -1.054162

linear2.weight f4 [250, 50]
000000 49 bf 1a 3e ce 05 b7 3d 23 ba ad be 97 b2 c0 3c
       0.15112032 0.08936654 -0.33931074 0.023522658
000010 0d f4 56 be b9 d0 4c 3e c6 6d 99 3d 90 94 b8 3d
       -0.20991535 0.20001496 0.07491641 0.09012711
000020 cd 1f 84 3d f1 2f 5b be 05 5f fe 3e c9 dd 02 be
       0.06451378 -0.21405007 0.4968187 -0.12779917
000030 93 93 39 3f d6 e7 b8 bd 8c 28 4d 3e 3b b5 2a bc
       0.72490805 -0.09028594 0.20034999 -0.010419185
000040 14 a8 3d bd 7c 3a be 3f cd 2e 1a 40 d9 02 cf be
       -0.04630287 1.4861598 2.4091065 -0.4043186
000050 e4 a5 2c be a7 52 27 40 76 34 20 be 1a 22 08 3d
       -0.16860157 2.6144197 -0.15645012 0.033235647
000060 91 55 a7 bf fe be 3c bf e6 31 09 be e8 a6 7d 3e
       -1.3072988 -0.7372893 -0.13397941 0.24770701
000070 4f fe 33 3f 42 68 27 3f 0d 33 95 3d 66 b3 a7 bd
       0.7030992 0.6539346 0.07285128 -0.081885144
000080 92 c5 09 be 63 bb f9 3f 32 2d 23 bd 37 db f3 bd
       -0.13454273 1.9510311 -0.039838023 -0.11907046
000090 5a a6 12 3f cd 14 45 3f 7f 82 94 3f 97 c3 9a 3f
       0.5728508 0.76984864 1.1602324 1.2090939
0000a0 6b 65 92 3d bb cb 06 3d 77 97 ca 3f 66 90 04 3f
       0.0714825 0.032909136 1.5827473 0.51782835
0000b0 b7 20 20 bd 92 4b e9 3f 7e 6b 4c 3f da c8 4f 3e
       -0.0390937 1.8226187 0.7985152 0.20291463
0000c0 97 f4 21 3e d6 f1 63 3f ce 04 c2 be af 45 0f 3e
       0.1581596 0.8904089 -0.3789429 0.13991426
0000d0 04 ed 59 be 02 bb 8b be 07 a4 e5 be a8 ef 81 be
       -0.2128182 -0.27291113 -0.44851705 -0.25378156
0000e0 f1 36 96 bc 5d 01 74 be 26 b2 0f be 58 08 31 be
       -0.018336745 -0.23828645 -0.14032802 -0.17288339
0000f0 f5 c6 75 bf 6f 30 ad be ef 71 c0 be 63 03 70 3d
       -0.9600671 -0.33826014 -0.37586924 0.05859698
000100 4e 2d f3 3d ea 08 39 bc 97 01 0c 3d ff 04 b2 3f
       0.118738756 -0.011293629 0.034181204 1.3907775
000110 72 2d ee be f0 c5 a2 be f8 21 55 be 2e f7 9a be
       -0.46519047 -0.3179164 -0.2081374 -0.30266708
000120 92 ee 24 bf 9b ed 84 bf d4 df a0 bd fb bb 2d be
       -0.6442653 -1.0385011 -0.07855192 -0.1696624
000130 8d 05 8c 3e 4d e8 ef 3f 33 f7 3e 3e 48 78 70 3c
       0.27347985 1.8742768 0.18648987 0.014677115
000140 c3 f1 8c bd 3e b6 bd 3d 58 32 6d bf 26 6b 9a bf
       -0.0688205 0.092632756 -0.92654943 -1.2063949
000150 93 03 e8 bd f7 a3 ed 3d d9 71 53 bf e1 94 44 bf
       -0.11328807 0.116035394 -0.8259559 -0.7678967
000160 9d 23 b1 be c0 17 1a 3e c5 e3 ba be 50 94 f8 3d
       -0.34597483 0.15048122 -0.365019 0.12137663
000170 93 36 78 bf 91 d9 1d be 76 eb a2 3d fe f7 ac be
       -0.96958274 -0.15415026 0.07955067 -0.33782953
000180 fd 80 0c bd ad ff 69 be 4e a7 94 bf 29 30 4d bf
       -0.0343027 -0.22851439 -1.1613557 -0.8015161
000190 a2 13 04 bf 23 ae 02 be 65 d2 18 c0 43 e7 6c be
       -0.5159246 -0.1276174 -2.3878415 -0.23135094
0001a0 34 af af bf f5 ef 33 bf 06 20 a1 be 05 ec 0b 3f
       -1.3725343 -0.7028802 -0.31469744 0.5465701
0001b0 a5 3c 01 be 5e bf cc be 97 be 0d c0 1f bf 08 3e
       -0.1262079 -0.39989752 -2.2147577 0.13354157
0001c0 2f d1 db 3e 55 7d 8a be c3 3e da 3e 84 fe b3 bd
       0.42933032 -0.27048746 0.42626008 -0.087887794
0001d0 f0 91 87 bf cd a0 d9 bd 6b 1c d8 bf 3c 1c 88 3f
       -1.0591412 -0.106263734 -1.6883672 1.0633616
0001e0 37 71 16 40 37 21 97 be b3 11 1b bf 83 93 de bf
       2.35066 -0.29517528 -0.6057388 -1.7388767
0001f0 0c 8f d0 bc 9c 5d 3d bf f4 d1 e7 3e 34 ab 75 3e
       -0.025458835 -0.7397096 0.4527737 0.2399109
000200 65 20 76 bf 91 ae 07 3f 2e 24 2e bf b8 d9 d4 3c
       -0.9614318 0.5300074 -0.68023956 0.025982723
000210 e1 27 9f bf 3c 4c e2 bf 92 45 01 be 32 0a ec be
       -1.2434045 -1.7679515 -0.12624195 -0.46101528
000220 ed 68 bf bf db 4e 82 c0 fb 29 cf 3e 9e e3 5a be
       -1.4953896 -4.072126 0.40461716 -0.21375892
000230 19 29 15 3f 19 6a 2b 3f b3 02 65 be c0 70 2a bf
       0.58265835 0.6695877 -0.22364311 -0.6657829
000240 83 41 c1 bd f5 37 e4 3f 7b 7e 16 3f bb fc 2c c0
       -0.094363235 1.7829577 0.58786744 -2.7029254
000250 33 8d 09 c0 31 75 40 bf d9 1e 68 be f7 55 f0 bc
       -2.149243 -0.7517882 -0.22668017 -0.029337866
000260 81 fc a8 3f 56 98 e0 3e 29 fb 02 40 8d 40 72 3e
       1.3202058 0.43866223 2.0465796 0.23657437
000270 8e fb fb 3d b2 32 94 3c 59 2e 10 3e d3 da af bd
       0.123038396 0.01809058 0.1408018 -0.08586659
000280 6d b1 88 3f b6 13 80 3f a4 28 08 40 6f c6 48 3e
       1.0679146 1.0006015 2.1274805 0.19606946
000290 e0 42 6e 3e 1b f1 ae 3b 42 05 1d 3e 88 99 9a 40
       0.23267698 0.0053388006 0.15334037 4.8312416
0002a0 de ae af bd 0d 91 f6 3f 99 d8 83 3c fe 15 6f 40
       -0.08578275 1.9263016 0.016094493 3.7357173
0002b0 92 57 93 3f fa 48 b6 3f 1e 87 85 3c 33 86 ce 3e
       1.1511099 1.4241021 0.01629978 0.4033676
0002c0 7b a7 c1 3c e1 53 95 3e ea 5a 36 be 58 ee aa bf
       0.023639431 0.29165557 -0.17808118 -1.3353987
0002d0 84 5d b3 be 1b 71 d3 bd ce c0 9c bf 70 0b 50 c0
       -0.35032284 -0.103243075 -1.2246339 -3.250698
0002e0 eb 13 d7 be 71 c8 00 bf a2 54 e8 bf 08 10 a5 3f
       -0.42007384 -0.5030585 -1.8150828 1.2895517
0002f0 01 85 69 bf 5c d3 e3 3f ab 81 7a be bb 61 b6 bd
       -0.9121857 1.7798877 -0.24463527 -0.08905359
000300 75 dc a1 3f 67 2e 0c 3f 3e 53 6c 3e d8 1c cd bd
       1.2645403 0.54758304 0.2307863 -0.10015267
000310 40 b0 11 3d 87 96 8b 3f 56 41 31 3f ac 15 65 40
       0.035568476 1.0905312 0.6924032 3.5794477
000320 1c 73 b5 be c4 22 03 bd d4 91 07 3f 4f 7d fd 3d
       -0.35439384 -0.032015577 0.5295689 0.12377416
000330 be 17 e2 3e 0d 5d e7 3d 30 71 47 3e 82 07 92 3d
       0.4415874 0.11297045 0.19476771 0.07130338
000340 f3 1c 83 3d 59 4a 5c be 92 20 c3 3b d7 4c e9 3d
       0.06402006 -0.21512736 0.0059548104 0.11391609
000350 2f 4a 55 3c 0b 40 7c 3d 87 c8 c0 3f 32 83 0d be
       0.013018175 0.061584514 1.5061196 -0.13819578
000360 e1 0b f9 bd fe 71 17 40 94 19 24 c0 dc 27 b0 3e
       -0.12160469 2.3663325 -2.5640612 0.3440541
000370 37 df 0c be f1 04 b1 3f 3e 88 38 3d d0 ad 7c 40
       -0.13757025 1.3829633 0.045051806 3.9481087
000380 29 cf 0f 3f 63 45 95 3f 1d 16 65 be 95 64 5b be
       0.56175476 1.16618 -0.22371717 -0.21425088
000390 70 d6 96 be 6c c8 0c be 3b eb 1b 3e 9a ff be 3d
       -0.29460478 -0.1374833 0.15226452 0.09326096
0003a0 18 e9 6a 3f 36 86 11 3f f6 a6 80 3d bb 6b c4 3d
       0.9176192 0.56845415 0.06281845 0.095908605
0003b0 37 c1 1f be e2 a8 1d bf 5f 30 65 3f 0a 2c c3 3f
       -0.1560105 -0.6158582 0.89526933 1.5247815
0003c0 96 01 c5 be 6f 17 b2 3a 15 0c a7 3d 71 66 01 bf
       -0.38477772 0.0013587306 0.08156601 -0.5054694
0003d0 1a 54 1f 3e 67 3c 69 bf ea c2 fb be 17 99 14 40
       0.15559426 -0.9110779 -0.49172145 2.3218439
0003e0 e1 09 c5 be 96 f9 f3 bf f0 3f c5 be 9e 89 f9 3d
       -0.384841 -1.9060543 -0.38525343 0.121844515
0003f0 3d a9 2d 3f 39 62 60 3e 7d 90 8b c0 a2 22 d1 3e
       0.6783636 0.21912469 -4.3613877 0.40846735

linear2.bias f4 [250]
000000 0b db 88 3e 4e bd 3d bf 1e 7c 23 c0 b2 30 c2 3f
       0.26729617 -0.7411698 -2.5544505 1.5171111
000010 37 48 fb bb c2 b7 2d 40 0e 1a 2c 3f 4f 21 3b 3f
       -0.007668521 2.7143407 0.67227256 0.730977
000020 29 f0 0e 3f ab 09 55 bf e5 b7 c6 bf d3 fb 48 bf
       0.55835205 -0.8321788 -1.552487 -0.78509253
000030 a3 f4 1c 3f 30 53 16 3f 0a 3e a2 be ec 2c 27 bd
       0.61310786 0.58720684 -0.31687957 -0.040814325
000040 c9 40 87 bf 89 07 45 bf 10 6e 62 3f d3 dc 21 be
       -1.0566646 -0.7696462 0.8844919 -0.15806894
000050 fb 88 b4 be e4 27 74 bf 1d c4 2f bf 7e 43 fe 3c
       -0.35260758 -0.9537337 -0.6865862 0.031038042
000060 9e 9b 98 be 2d d0 06 bf d7 62 78 bd 96 82 4d be
       -0.29806226 -0.526614 -0.060641136 -0.20069346
000070 ea 48 a8 be a9 12 c4 be 60 7f c4 3e 45 34 d3 bf
       -0.3286813 -0.38295487 0.3837843 -1.6500326
000080 f2 0a 0b bf 96 ad 9a 3d b2 5e 28 40 2c 5f 0d bf
       -0.54313576 0.0755264 2.6307797 -0.55223346
000090 de 88 0f bf b8 f8 93 bf e8 59 e6 bc 20 58 b0 bc
       -0.5606822 -1.1560278 -0.028119043 -0.021526396
0000a0 0f 46 dc bd ca 08 75 bf e2 22 f4 3f ee ae c9 3c
       -0.1075555 -0.95716536 1.9073145 0.024619546
0000b0 88 39 8a 3f 05 87 a4 be ea d5 0c bf 09 2d a8 3e
       1.0798807 -0.32134262 -0.55013907 0.3284686
0000c0 8e 9d d9 3f 5c e8 a7 be 14 1a d3 be dd 67 8b 3f
       1.7001207 -0.32794464 -0.41230834 1.0891072
0000d0 13 8d 8e bf c0 73 8c bf 6c 04 1c bf 11 89 b9 be
       -1.1136802 -1.0972824 -0.6094425 -0.36237386
0000e0 9a fc 80 bf f7 15 ba be 91 73 62 bf 3b a6 24 3e
       -1.0077088 -0.36344883 -0.8845759 0.16079037
0000f0 d7 ec 12 3f df 86 9b bf 40 bf 14 3f 34 9e 9b be
       0.5739264 -1.2150534 0.58104324 -0.30394137
000100 0f cb 26 be d7 ac 5f be 8c ed b9 bf fc 22 f6 be
       -0.16288398 -0.21843277 -1.4525619 -0.48073566
000110 32 26 57 be e0 96 02 c0 5a dd 43 3f 92 a6 01 bf
       -0.21010664 -2.0404587 0.7650963 -0.5064479
000120 22 e7 04 bf cb 2f 5a c0 2b 87 05 bf b3 e6 27 bf
       -0.5191518 -3.409167 -0.52159375 -0.65586394
000130 5e d5 ea bd bc 9a 16 bf 41 9d fb be 6f 42 12 bf
       -0.11466478 -0.58829856 -0.49143413 -0.5713262
000140 9a a9 c4 be 6f da 11 bf ce c5 be 3f 2e ba 4f be
       -0.38410646 -0.5697393 1.4904115 -0.20285866
000150 bb a6 0b 3f f6 3a c2 bf 22 d4 b2 be ee 2a 2e 3f
       0.54551286 -1.5174243 -0.3492747 0.68034256
000160 e3 87 e9 3d 24 77 b5 be 66 de d4 be 3f fe 73 bf
       0.114028715 -0.3544246 -0.41575927 -0.95309824
000170 97 81 de 3e 3a 85 d6 be de e4 cd 3e ae c7 1f bf
       0.43458244 -0.4189852 0.40213674 -0.6241406
000180 82 92 40 40 05 79 62 bf c3 e3 86 bf 26 3c ef 3e
       3.0089421 -0.8846591 -1.0538257 0.46725577
000190 8f 88 58 be 03 a1 0f bf 0a 1e 0e 3f c7 bd 9a bf
       -0.21145843 -0.5610506 0.55514586 -1.2089165
0001a0 8f 38 57 3e c5 27 c4 3e 2f 2d 98 3e de 64 af bf
       0.21017669 0.38311592 0.29721972 -1.3702657
0001b0 4d 4b 7f 3f f6 49 5d 3e e7 e7 c2 3e 95 bd 8b be
       0.99724275 0.21610245 0.38067552 -0.27293077
0001c0 a8 62 1c 3e 71 c6 d7 be 8b 2b 48 3f 52 23 a4 bf
       0.1527201 -0.42143586 0.7819144 -1.2823279
0001d0 9f db 0c 40 1e bb d4 3e d2 15 9d bf aa 72 18 be
       2.2009046 0.4154901 -1.2272284 -0.14887491
0001e0 cc 40 b5 be 7b bd 9a 3f 60 9f 9b be c1 59 56 bf
       -0.35401 1.2089075 -0.3039503 -0.83730704
0001f0 e5 60 6f bf f5 62 6e bf d4 fe 07 be 8c 02 c2 3e
       -0.93507224 -0.93119746 -0.13280803 0.37892568
000200 80 f5 c3 3e fa 76 81 3f 5b f4 d3 bd 0e 75 19 bf
       0.3827324 1.0114434 -0.103493415 -0.59944236
000210 86 ed b6 be 39 26 8b 3e c3 5a 05 be 2b 14 4f bf
       -0.3572809 0.271776 -0.13022904 -0.8089015
000220 7c ff 1d bf ed c7 67 be 6e 51 01 40 6b 2e 98 be
       -0.61717963 -0.2263486 2.020595 -0.29722914
000230 02 cb be bf d7 fe 8b 3d eb a7 3f bf 2e b9 81 3f
       -1.4905703 0.06835716 -0.748656 1.0134637
000240 0f 00 57 40 6a 5c 9d bf 24 f2 00 3e 27 87 ea bc
       3.3593786 -1.2293828 0.1259237 -0.028628899
000250 b6 55 b2 3d c8 c6 1b bf 91 1d 56 bf 38 6c 34 be
       0.08707754 -0.6085019 -0.83638865 -0.17619407
000260 2b 8e 8b bf 3f 95 d7 bf a1 e5 99 bf 51 63 e3 3e
       -1.0902761 -1.6842421 -1.2023202 0.4441171
000270 b3 d4 b2 3f cb 40 43 bf 83 3f a6 3d d3 95 09 bf
       1.3971161 -0.7627074 0.08117583 -0.5374424
000280 63 a0 f8 3e ad 8c 92 bf 72 cf b6 3e d8 b6 d1 3d
       0.48559865 -1.1449181 0.35705143 0.10239953
000290 9a db 09 3d 5b 72 6c 3e 71 53 89 3f b0 12 a9 3e
       0.033656694 0.23090498 1.0728589 0.3302207
0002a0 70 10 b4 3f 56 80 ba be 35 47 83 bf c4 f5 f3 be
       1.4067516 -0.36426038 -1.0256106 -0.47648442
0002b0 66 95 8c bf 3c d9 10 bf 80 4b be bf 3d a0 ba 3e
       -1.0983093 -0.56581473 -1.4866791 0.36450377
0002c0 79 41 c3 3f 9b 59 89 3d b4 38 d2 3e 95 93 e8 3e
       1.5254356 0.06706544 0.41058886 0.45425096
0002d0 58 a4 15 be 82 7b 36 3d 7d cf 3a 3f 56 24 ec be
       -0.14613473 0.04455138 0.7297285 -0.46121472
0002e0 8d 0f 37 3e 38 80 d1 be 9e 80 82 3e df b2 9c 3f
       0.17877026 -0.40918136 0.25488752 1.2242087
0002f0 c2 d0 7f bf b2 20 ba be 3a af 87 3e 08 ac 8a be
       -0.99927914 -0.3635307 0.26500875 -0.27084374
000300 e2 ad 8f bf 45 44 6c 3e 7f 68 07 be a7 02 5f 3e
       -1.122494 0.23072918 -0.13223456 0.21778356
000310 c4 cd f9 3e 91 2a fe be 97 7e 70 bf bb 44 83 bf
       0.487898 -0.4964185 -0.9394316 -1.025535
000320 f2 eb 48 be ed 8b 4d bd 41 40 47 be 15 1e 03 3f
       -0.19621256 -0.05018227 -0.19458105 0.51217777
000330 04 5c 13 bf e6 35 07 bf ad dd a0 be 91 1b 67 3e
       -0.5756228 -0.5281662 -0.31419125 0.2256911
000340 41 51 cb be f9 8c 40 3d b6 70 ae 3e c6 cf fc be
       -0.3971043 0.047009442 0.34070367 -0.4937727
000350 a3 dd b8 be 44 51 2d bf e8 12 8e 3e 72 70 b4 3d
       -0.36106595 -0.67702127 0.277488 0.0881051
000360 2b 24 cc bd 46 eb 7e 3e a7 07 57 be e2 b3 61 bf
       -0.09967836 0.24894437 -0.20999013 -0.88165104
000370 8a af f3 3e 50 e1 99 3f 85 69 4d 3c ea 03 62 be
       0.47594863 1.2021885 0.012537365 -0.22071806
000380 4e 0d 4b 3e 7a f7 0c 3c 00 2f eb be 1e c8 34 be
       0.19829294 0.008603925 -0.45934296 -0.17654464
000390 f0 d5 14 40 60 1e a0 be 27 45 b6 3e 33 c0 fb 3e
       2.3255577 -0.31273174 0.35599634 0.49170074
0003a0 77 cb cb 3e 8e 30 d2 be c9 45 4e bf d7 02 25 bd
       0.3980367 -0.4105267 -0.80575234 -0.04028591
0003b0 b3 8b be be ff 36 26 c0 ec 40 ee be 1b 97 04 bf
       -0.37215957 -2.5971067 -0.46533906 -0.5179307
0003c0 ee 67 88 be 99 1e 11 be be 97 db 3e 49 33 93 bd
       -0.26641792 -0.14171828 0.42889208 -0.07187516
0003d0 94 e6 f0 bd 5b 3a 3f bf 19 1e 64 bd da 82 eb 3e
       -0.11762729 -0.7469842 -0.055692766 0.4599827
0003e0 3e 54 55 bf e7 37 62 3f
       -0.8333167 0.8836655

output.weight f4 [4, 250]
000000 87 a7 bb 3d 86 7c 5e bf a9 d1 35 be 85 cb 7e be
       0.09162813 -0.8690876 -0.1775576 -0.24882324
000010 8d d3 95 be 60 1b dd be 4f 45 90 3e 00 ba 83 be
       -0.29262963 -0.43184948 0.28177878 -0.25727844
000020 c7 8f a7 3d fb 0c 33 3e 76 f9 62 3c 8a 99 e1 bd
       0.0818172 0.1748542 0.013853421 -0.110156134
000030 75 8e 22 be 74 0e 99 be e5 d0 41 3e e5 25 2b bf
       -0.15874656 -0.2989384 0.18927343 -0.668547
000040 e7 17 c3 3d d3 5c db bd a9 9f 08 be 69 bd 02 bd
       0.095260434 -0.10711064 -0.13342156 -0.031918917
000050 1d cf db 3d 2a 9e 36 be ab 16 d6 bd 15 3a 03 bc
       0.10732863 -0.17833772 -0.10453542 -0.008009453
000060 d1 2e 48 3e 14 2e 71 3d 50 0d b2 be d0 a0 88 bd
       0.19549109 0.058881834 -0.34775782 -0.066712976
000070 c3 95 b2 3d bf 60 c0 3e 38 27 2c bc e9 e5 66 bf
       0.08719971 0.3757381 -0.010507397 -0.90194565
000080 1a 06 a8 bc 96 91 3e bd 04 aa 5c bc 53 62 01 3d
       -0.020510722 -0.04652556 -0.013468269 0.03158791
000090 a3 72 ef bc b0 56 77 3e e8 72 82 3c f5 d9 ad bd
       -0.029229468 0.24154162 0.015923932 -0.08488838
0000a0 8d 5c a5 bc 07 96 ac 3e 6a e2 37 be b4 bd 4f bd
       -0.020185733 0.33708212 -0.17957464 -0.050718024
0000b0 e3 e7 02 bd f6 d2 83 be a8 50 96 bd 63 d1 3f be
       -0.031959426 -0.25746888 -0.07339603 -0.18732218
0000c0 01 80 94 bd c1 f5 04 3e 22 cb c7 be 47 5d e4 3e
       -0.07250977 0.12984373 -0.39022166 0.44602415
0000d0 40 e0 cb be 6b 25 35 3e df a1 70 be b8 99 d4 bd
       -0.39819527 0.17690055 -0.23499249 -0.10380882
0000e0 2a c3 c9 3e ad 76 6e 3c 0a 96 0e 3e f3 a8 92 bd
       0.3940671 0.014554662 0.13924423 -0.07161131
0000f0 85 c1 6d bf 49 25 06 bf a5 2f fd 3d d5 c0 a3 3d
       -0.9287341 -0.5240064 0.12362603 0.07995764
000100 32 30 dd bd 7d 0a 91 bc e6 fc 70 be 87 4c e5 3c
       -0.10800208 -0.017705197 -0.23533973 0.027990593
000110 3e 8f 92 be 74 6c 9d 3e e0 e8 54 3b 4e 2a f5 bc
       -0.2862491 0.30746806 0.0032487437 -0.029927399
000120 f1 f5 9a 3d c1 bc 4c 3f 76 1e 05 be a8 b6 a3 bd
       0.07566441 0.79975516 -0.12999901 -0.07993823
000130 4b 60 34 bd 94 79 cd 3d 1b e9 9a be 13 0c c3 be
       -0.044037145 0.10032955 -0.3025597 -0.3809515
000140 90 55 86 be d1 a4 5f 3d 5a 17 92 bd bd c6 1f bc
       -0.26237154 0.05460054 -0.0713336 -0.009751973
000150 53 a3 43 3e a5 8b aa 3e 31 97 bc 3e 7b 15 ef 3d
       0.19105272 0.33309665 0.368341 0.11674019
000160 5b 89 cf 3c 18 f5 9f be a6 ad 00 be c1 dc 41 3f
       0.02533405 -0.3124168 -0.12566242 0.7572747
000170 89 55 b9 bd d6 91 a2 bd 85 f9 10 be f5 05 13 3f
       -0.09049518 -0.07937972 -0.14157684 0.57430965
000180 f7 64 c5 be d9 a5 33 be 0e 31 f7 bd ba 94 0f bd
       -0.38553593 -0.17543735 -0.12069903 -0.035053946
000190 98 ea 08 be 09 f0 76 be 96 35 b1 be d8 c6 cb bd
       -0.1337074 -0.24115004 -0.34611195 -0.09950036
0001a0 94 c0 30 bd 2e 8a 38 3e 89 5e d1 bc 26 b4 5c 3e
       -0.043152407 0.18021461 -0.025557773 0.21553096
0001b0 ff 0e 33 c0 4b 8d 88 bc 3a f2 d4 bc 5d ae 91 be
       -2.7977903 -0.016668936 -0.025994409 -0.2845334
0001c0 09 40 e5 be af 01 ee 3a aa 25 73 3e 8e c8 1a 3e
       -0.44775417 0.0018158461 0.23744836 0.15115568
0001d0 27 72 a5 be 1e 61 9b be c0 51 15 3b 51 1b 08 bc
       -0.32313654 -0.30347532 0.0022784323 -0.008307294
0001e0 76 d8 39 3e 49 97 12 be 76 13 27 be 26 70 04 3f
       0.1814898 -0.14315523 -0.16316018 0.51733625
0001f0 29 77 00 bd fd 3d 3c 3e 9e 1f a6 3c 91 d4 36 be
       -0.03136364 0.18383022 0.020278748 -0.17854525
000200 50 01 0c bf 72 d0 67 be a2 ad 11 3d 6b da c6 bc
       -0.546895 -0.2263811 0.03556598 -0.024274072
000210 90 b1 38 3a d4 30 a7 bb d9 7e 07 3e 75 00 40 bd
       0.0007045502 -0.0051022563 0.13231982 -0.046875436
000220 c5 de 8c 3e f9 5b 85 bd e9 34 b9 bd c6 59 15 be
       0.2751371 -0.06511683 -0.09043295 -0.14585027
000230 a3 4b b7 3c 49 a2 f5 bd 4b 37 e3 3d 64 9b 16 3e
       0.022374934 -0.11993844 0.11094531 0.14707714
000240 e6 e6 22 bf 40 5f 65 be db b3 2f be e6 ca 0e 3c
       -0.63633573 -0.22399616 -0.17158453 0.008715367
000250 90 01 a0 be 46 e1 89 bc bc 6c 2a bf 70 01 47 3c
       -0.31251192 -0.016831052 -0.66572165 0.012146339
000260 02 8f fa 3e 8d ad 5c bd 7a 89 c5 be a9 0e e2 bd
       0.4893723 -0.05387645 -0.3858145 -0.110379525
000270 e3 dc df bc 67 2b 11 3f 77 f8 18 3e f7 39 40 bf
       -0.027327007 0.5670685 0.14938532 -0.7508845
000280 74 87 a4 bc 9f 70 f5 3d e5 72 76 be 5a ca a2 3e
       -0.02008412 0.119843714 -0.24067266 0.31795007
000290 72 80 5c 3c f0 20 e3 bc cb 94 9d bd 36 fe 01 bf
       0.013458358 -0.027725667 -0.07694396 -0.5077852
0002a0 69 eb 5c bd 48 0d b3 bb d0 1a bb 3d 9c 3d b8 3a
       -0.053935442 -0.0054642297 0.091359735 0.0014056447
0002b0 46 d5 03 bf 0b 68 e3 bd 01 1d 0b 3f 6c 66 24 3c
       -0.51497304 -0.11103829 0.5434113 0.010034185
0002c0 6a 09 af 3c 95 5a ab bd 23 9e 86 3a e8 49 bb bc
       0.021366794 -0.083668865 0.0010270517 -0.02286239
0002d0 5c 45 14 bd 0a aa a2 bd 9a 20 1b 3e 2f c1 85 be
       -0.03619896 -0.079425886 0.15149155 -0.2612395
0002e0 ec 7f 66 3e bb 7d 0b 3e f7 a3 d6 bd 5e 85 02 3d
       0.22509736 0.13622181 -0.104804926 0.03186547
0002f0 55 90 92 be 30 85 39 3e f9 f9 b9 3c 50 f8 b3 3e
       -0.28625742 0.18117213 0.022702204 0.35150385
000300 44 c6 19 bf c1 f8 b6 3b 78 73 72 bb f1 1f 52 3e
       -0.60068154 0.005583853 -0.0036995094 0.20519997
000310 70 6c 22 3c 6a ff 9a 3c 0b 90 6c bf 95 8f 81 3d
       0.009913549 0.018920619 -0.9240729 0.06326214
000320 4d ac d5 be 30 e3 f4 3e 87 14 e5 be 2a 9b 23 be
       -0.41733018 0.4782958 -0.44742224 -0.15977159
000330 22 4d 15 bf a0 28 03 3e 5c 2f 07 3e 9e da 36 be
       -0.5832082 0.12808466 0.1320166 -0.17856833
000340 5e 56 9f bd 0c 21 61 bd d3 05 01 3d 1b 10 af 3e
       -0.07780145 -0.054963157 0.031499695 0.34191975
000350 e1 d2 7a bb b9 45 99 bd 60 56 64 bd ea 8c 7f bd
       -0.0038272666 -0.07484002 -0.055746436 -0.062390245
000360 f8 da 9e bd 57 24 8e be 7e 44 fb bd 19 ba bd bd
       -0.07756609 -0.277621 -0.12268923 -0.09264011
000370 2b ec ca bd c6 fc 44 3c f6 be 45 bd 67 0e 11 3c
       -0.09908327 0.0120231565 -0.048277818 0.008853531
000380 85 8b 8d bc 72 4e 47 bb 8d f3 7e bd e1 01 e9 3d
       -0.017278442 -0.0030411747 -0.062243987 0.113773115
000390 a2 d1 48 bd 60 4b 96 3b e0 d8 8b bd 86 ba 06 be
       -0.049028046 0.004586622 -0.06828475 -0.1315709
0003a0 d4 8e b8 be 28 1a a0 bd 1c 0f 93 3e fd 51 d9 3d
       -0.3604647 -0.07817489 0.28722465 0.10611341
0003b0 89 8c 00 3f c9 ce 3f 3f d4 03 ac be 3a 85 21 bd
       0.5021444 0.74924904 -0.3359667 -0.039433695
0003c0 5c d2 fc bd 23 6b 0d be 3e 71 95 be cc 23 d0 bd
       -0.1234481 -0.138104 -0.2918796 -0.10163078
0003d0 51 38 96 3c 08 89 72 bd d4 e9 24 3b e3 a3 28 3e
       0.0183374 -0.059212714 0.0025163786 0.16468768
0003e0 96 f5 96 3e 34 b4 9c bd 04 d5 03 3e d5 b6 76 3f
       0.29484242 -0.076515585 0.12874228 0.9637273
0003f0 5f 32 54 be c0 c2 ae be a3 b5 89 bf ab ba 0e be
       -0.2072234 -0.34132957 -1.0758556 -0.13938396

output.bias f4 [4]
000000 8b f3 b5 bd 8d 2b c3 bd f0 5f 3d be 6e cf 36 3e
       -0.08884343 -0.09529791 -0.18493629 0.17852566
